backend/app/data/keypoint_classifier.pt (torch, 252411 bytes, 16 tensors)

weight f4 [256, 42]
00000000: c03d 863c 71fb abbc 7ab2 4bbd c926 793d
00000010: b9c9 73be 2ef1 fbbd c2c4 8a3d 0954 173c
00000020: 6890 0b3f dfff 7c3e 73f5 3e3e 2f3c f53c
00000030: af33 2abe 9611 51be d794 e4be 6ebc 31bd
00000040: f59e b3be eccb b83d 64f2 01bd db3a 40be
00000050: 715b fe3d a34f b5bc 90e1 88bc c11e 433d
00000060: e696 df3d 2f04 bdbd f17d 1cbc 890f bd3d
00000070: 3cab f53c 4b5b 003e 9b98 a1bd ab40 b8bc
00000080: cdc4 0ebd 86a1 42be 6130 533d 6f5e c33d
00000090: 0a6a cdbd 3e7a 073d 285a f3bc 465f 553d
000000a0: 8521 6b3e 6254 65bd 111c 943b f579 c4bc
000000b0: 6694 cc3d ea69 90bd 5fb5 cabd 9d35 d9bd
000000c0: 792b 193e e19b 7bbd 2ccf 413f 3a33 9c3d
000000d0: 4e27 8c3e 0fc8 1bbe 0f9c 2fbc f21f a83d
000000e0: d5a5 aebd cfb5 b43d 3c8d 6d3d 6150 0cbe
000000f0: 3ab7 5d3e 2f70 023e 8d89 79be d8af 01be
00000100: c07c 9ebe c4b0 623c 455e dfbd 29fc 1dbe
00000110: 582a a83d 8e8c 1f3c 07cb f0bd ded5 84bd
00000120: 4b6d 10be c1cc 823e ec30 56bd 1fe4 943d
00000130: 8921 123e 110b dbbc 07b3 4dbe 904b 59bc
00000140: 4726 d23d 60c6 2d3d 4c4d 253e 3902 01bd
00000150: 0c8e 12bc 900a 70bc 279c 6e3b 4074 20be
00000160: 0b9d 8a3d af7a d4bb 95ba 73bd c43e b63c
00000170: dad7 b23d bf1a be3c 703d 97bd 9ebb 803e
00000180: 99b1 403d 5779 a2bd 0117 51bd 1e6a e6bd
00000190: a662 05bd 60cd 3b3e cd78 fd3b 3dde 8dbd
000001a0: c679 443d 6199 c3bc 40de 1ebc 50f2 d1bd
000001b0: 8312 d83c 87fb c83e a075 9bbd 2e4a babd
000001c0: d365 89ba 4779 81be dd28 5fbd 42b6 54be
000001d0: 3267 863d 09b8 f33e 1973 a93d 5495 c8be
000001e0: d4db 31bd 2642 213c 5e86 29bd 8daf 6abd
000001f0: b737 063d 124c 063f fcaf debc 501a c4ba
00000200: a6a7 c7bd 7c47 12be d8d5 303d 161b 603e
00000210: 35ff 0a3c 887a 97bd 6656 6bbe 18f6 b8be
00000220: 6b25 12be b6d4 1bbd 8f11 bd3d f1f2 553c
00000230: ff22 c33e 8bfa 063e 2c56 c73e 8eaa 8c3e
00000240: 8105 a4bd 2751 41be 93bf 5dbe ddc5 68be
00000250: a290 32be 414f 82be 6a70 18be 9fd9 3dbe
00000260: 66ad edbc 4250 86bc 00aa 97bc 0d6a a03e
00000270: 749a d43a 5ffb 6b3c 3672 353e 0208 ab3b
00000280: 4887 8c3d b4ac 263e 117c b2bd 3e62 523d
00000290: d77d d33d 224c 99bb a33d 633d 65ff 38be
000002a0: 3742 8cbc f296 2bbc ec2d 93bd 2bc5 89be
000002b0: 0669 003e 3f8a f4bd 0d0c 0cbe 948e 273e
000002c0: e6ac 18bc 3d1d 593e c33d 153b 72a5 c73d
000002d0: e401 4fbd ae3f ca3d 3b16 103d ff07 cc3e
000002e0: b365 043b ff85 be3e 5b9e b83d 3350 3bbd
000002f0: f723 68bd 49e6 a8bd fa25 64bd fa7c 02be
00000300: d643 223c 8e31 1dbf dcb4 90bd 9609 cbbd
00000310: fc24 aabb ccf1 00bd 4627 c83d 278b 3d3e
00000320: 00b9 b5bc 19f8 873d f77e 28bd 33d6 6abe
00000330: e728 05be 156e a2bd 4b36 0f3e a114 2f3e
00000340: 1435 86bd 4bce 5bbe 1917 653b e6f4 2abc
00000350: baf5 bf3d a474 1dbe 527f 82be e8da c3bc
00000360: 2cc8 bfbc b5a8 c73d 7404 d53e 4980 5ebe
00000370: 8a0d ff3d 6eda 313e c734 b63d bc45 fe3d
00000380: 5100 5bbe 76a2 813c 9e61 1bbd 5192 9c3c
00000390: 9538 f83b 8fcc 04be 5c1f c43d 030c 4dbe
000003a0: 9842 5c3c dd16 48be 6f40 2bbd 7f5f 71be
000003b0: 2c8b a3bc 2f2d 0abe 5a1a b4bd 01d3 043e
000003c0: 15d6 d93d e119 863e 3fa6 683c d733 f83e
000003d0: bd3f 2ebd 8f75 83be c254 22be d51e 453e
000003e0: e138 debd 5bea 0bbd 1524 07bd b751 58be
000003f0: 6803 153d 900f 213d 15c4 fd3d 086e 6f3e
0.016386867 -0.02099392 -0.049730755 0.060828004 -0.2380742 -0.12301861 0.0677581 0.009236344
0.5451722 0.24706982 0.18648319 0.029935924 -0.16621278 -0.20416865 -0.44644806 -0.04339259
-0.35082212 0.0902327 -0.031725302 -0.18772452 0.12419785 -0.0221327 -0.01670912 0.04763675
0.109174535 -0.092293136 -0.009551511 0.09231479 0.029988877 0.12534826 -0.07890435 -0.022491774
-0.034855653 -0.19006929 0.05155981 0.09539496 -0.10029991 0.033075564 -0.029706076 0.052092813
0.22962005 -0.055988677 0.0045199473 -0.023983935 0.09989242 -0.070514515 -0.09897875 -0.10605929
0.1495799 -0.061427955 0.75706744 0.07626958 0.27373737 -0.15213035 -0.01071836 0.08209218
-0.08527724 0.0882374 0.05799602 -0.13702537 0.21651927 0.12738107 -0.24368878 -0.12664735
-0.30954552 0.0138360895 -0.10906652 -0.15428223 0.082112014 0.009738101 -0.117574744 -0.064861044
-0.14104192 0.2554684 -0.05229275 0.07270073 0.14270605 -0.026738675 -0.20087825 -0.013262644
0.10261207 0.042425513 0.16142768 -0.03149626 -0.008944999 -0.014650956 0.0036408992 -0.15669346
0.06768235 -0.0064843516 -0.05950411 0.022246726 0.08732577 0.023206113 -0.07384765 0.2514314
0.04704437 -0.079333 -0.05104733 -0.11250709 -0.03256478 0.18340063 0.007735348 -0.06927154
0.047967695 -0.023876848 -0.009696543 -0.102512956 0.026376015 0.392544 -0.075907946 -0.0909618
-0.0010482616 -0.2528784 -0.05448233 -0.20772651 0.06562652 0.47601345 0.08273906 -0.39176428
-0.043422535 0.009842431 -0.04138791 -0.057296325 0.032767978 0.52459824 -0.027183525 -0.0014961455
-0.09748773 -0.14285082 0.043172687 0.21885332 0.008483698 -0.07396418 -0.22982177 -0.36125255
-0.14272086 -0.038044654 0.09231865 0.01305841 0.38112637 0.13181512 0.3893293 0.27473873
-0.08008862 -0.18878613 -0.21655111 -0.22731729 -0.17437986 -0.2545109 -0.14886633 -0.18540047
-0.029013347 -0.016395692 -0.01851368 0.3133091 0.0016220347 0.014403193 0.1771935 0.0052194605
0.0686174 0.16276819 -0.0871507 0.051363222 0.103267364 -0.004678265 0.055478703 -0.18066175
-0.017121417 -0.010473 -0.07186493 -0.2690824 0.12540063 -0.11940431 -0.13676472 0.16362983
-0.009318566 0.2120256 0.0022772409 0.09748353 -0.050538912 0.09875427 0.03517745 0.3984985
0.002020222 0.37211606 0.09014579 -0.04573078 -0.056674924 -0.082470484 -0.05570028 -0.12742987
0.009903869 -0.6140374 -0.07065746 -0.09913938 -0.005192397 -0.031480595 0.09773116 0.18510114
-0.022182941 0.06639118 -0.041136708 -0.22933273 -0.13003884 -0.07931153 0.13985555 0.17097713
-0.065530926 -0.21465413 0.0034956394 -0.010434365 0.093730405 -0.15376526 -0.25487763 -0.023908094
-0.02341088 0.09748975 0.4160496 -0.21728624 0.12453754 0.1736848 0.08896785 0.124156445
-0.2138684 0.015824538 -0.037934892 0.019112738 0.0075751045 -0.12968658 0.09576294 -0.20024113
0.013443612 -0.19539972 -0.041809496 -0.23571585 -0.019963823 -0.13493799 -0.08794089 0.12971117
0.10636536 0.2619162 0.014199792 0.4847705 -0.042541254 -0.25675628 -0.15852645 0.19250043
-0.108506925 -0.034159046 -0.032993395 -0.21124922 0.0363802 0.039321482 0.12390915 0.23381817

bias f4 [256]
00000000: 3902 1f3e 39ba 7fbd ce01 36bb 9e85 fa3d
00000010: 7880 d4bd 6c7b 5bbd 6837 edbd 85b5 acbd
00000020: 86d8 74bd fa6c 083e 0ebe e9bd 973a 0c3e
00000030: f920 0f3e 9429 1a3e 32ec c5bd 7256 73bd
00000040: ee5a 3a3c b05f cf3d 5a0b a73d 2bfd 06bd
00000050: 4b37 eabd 11e4 13bd 213d c63d 036b 6b3c
00000060: 0278 1e3e 8b61 e0bd 0923 c63a 999e 0b3e
00000070: f6a0 1b3e c65c 913d d0ba 933d 2778 3a3b
00000080: a235 843d 458a d13d ec2c 993d 8e21 d93d
00000090: 7bbc eebd 23fa a73d 0f23 d83d 28e3 d1bc
000000a0: ae53 603c 35c8 17be 37ad 24be 5daf ddbd
000000b0: 7e3a 8b3d 75d1 5a3d 5612 c5bd d503 d7bd
000000c0: c09b e03d a25e 7b3d 8824 f83d 99d5 cebc
000000d0: 28b9 183e 8c8c 85bc 7b21 bcbd a837 28bd
000000e0: 6041 09be 69fc 253e d060 82bd 2026 03be
000000f0: ab81 a53b 6b5c f53a c9bb 02bd 82f6 d8bd
00000100: f473 923d d102 47bc 95ae 043e 30d9 f3bd
00000110: a802 31bc 5372 43bd 713c da3d dbb6 d83c
00000120: 66b0 01be 8936 a8bd 2f46 dabd 2c7b 1ebe
00000130: e7a8 853d c0a5 abbd 0e75 6d3d a140 c0bd
00000140: 0d79 e9bc 44f6 153e 6287 ebbd a776 4b3d
00000150: 0d82 32bd f1e8 393d e25c 0cbe 4636 e73d
00000160: 5697 b9bc 6036 07be 4d79 1cbe 1902 103d
00000170: cf1c e23d e762 683d 54ff c03b f667 043e
00000180: 81e3 ee3d b737 a23d 4c56 ed3d 8fc4 aebd
00000190: 5203 723c 5dcf db3c 6c59 e539 2242 743d
000001a0: 9270 823d 4dec f5bc f17c d33d eb00 d4bb
000001b0: f973 283e c57a 043e 4674 f73d aa4a 2a3d
000001c0: 98c4 033e 9edc bcbc 334a 0dbe c56e 12be
000001d0: 3faa 203e 614e 853c 1105 19bd 9f23 4b3b
000001e0: e939 d5bd c5d1 fa3d d19c f03d 8a85 693d
000001f0: b283 17bd 8aaa 783d 31ca 263e fa93 fd3d
00000200: 30fb 193e 04df 8c3c bee1 bd3d aaa9 113e
00000210: fc4e 963d 54ce 14be b034 a33d 870e 143e
00000220: a415 f3bd 0bde 46bd fb0e 1abe c958 483c
00000230: 4bdb 5bbc a524 5bba 15aa 0c3e faf2 c33d
00000240: ce0f 973d e51c d8bd f89e 1abe d3e7 02bd
00000250: 7f27 02be aa85 d9bd 778b ddbd 2e58 963d
00000260: f7dc 73bd 7b76 10be 8e07 be3c 934d 0bbe
00000270: 5bef 453d a72e 45bc c0fd acbd fda9 d33d
00000280: 890e 84bd d2d2 19be 8d6b 163e 638a ea3d
00000290: f5df 66bd 8888 90bd 38e3 92bd 5ee5 c43d
000002a0: 76b3 723d a0c8 88bd 4f02 c33c cd13 de3d
000002b0: 558e d5bd bfaf ba3c 124d ebbd 1981 0dbd
000002c0: 4458 64bd be11 7e3d f823 f5bd 1b43 2abe
000002d0: 5c06 b9bc a549 0bbe 3764 1dbe 2dc2 d93d
000002e0: 48a8 9f3d 7fba 1d3d 755d 34bd 64be 1a3e
000002f0: cc58 df3d 890e 7a3d 4c42 b63d ff8f c93b
00000300: 21d0 b1bd 6c0d 0bbe aeed 2ebd 37d3 e2bd
00000310: 4b7b be3c 3745 d4bd 0512 97bd a6f8 0dbe
00000320: 4a32 e73d cf1d 5f3d 1022 a7bc e92f 8f3d
00000330: 2adc 1b3e bb51 a43d e3cb 8fbd 9740 cebd
00000340: 975e 8f3d 2668 0f3e e57b 693d 461e 9fbc
00000350: 32fc 083e 91ea 7c3c fc95 52bd 158f b1bc
00000360: 8421 41bd f788 813d 8bfc a03c af97 edbd
00000370: 03a5 b93c 0846 b7bd 1eb8 a6bd 560e 33bd
00000380: 457b adbb 6780 41bc e6f4 983d e93b efbd
00000390: fe67 45bd 1533 a6bd 366f 723d e561 03be
000003a0: b5bb 0abe de29 1bbe 9f17 a8bd b65a e03d
000003b0: 15f0 d53d 0207 80bd 479e 90bd 3eaf 1b3e
000003c0: deaa f93d aeb6 e8bb 7237 513d 0fc9 9bbd
000003d0: ea34 40bc b8de efbd d256 c3bd e5ee 1ebd
000003e0: 9031 123e 3d6e 023e ea48 3d3d bd1c 233e
000003f0: 2880 27be 731a dc3d 83e2 d63d 2e87 33bd
0.15528192 -0.062433455 -0.0027772072 0.12232517 -0.10376066 -0.0535845 -0.115828335 -0.084330596
-0.059776805 0.13322821 -0.11413203 0.13694225 0.13977422 0.15054923 -0.09664191 -0.059408613
0.011374218 0.10125673 0.08156462 -0.032956284 -0.114363275 -0.036106173 0.09679628 0.014368775
0.15475467 -0.10956105 0.0015116642 0.13634719 0.1519812 0.07097773 0.07213366 0.0028452964
0.06455542 0.10231451 0.07479271 0.10602103 -0.116570435 0.08202007 0.10553562 -0.025621012
0.013691826 -0.14822467 -0.16081701 -0.108244635 0.06798266 0.05342241 -0.09622638 -0.10498778
0.10967207 0.061369546 0.12116343 -0.025248336 0.14914382 -0.01630237 -0.091860734 -0.041068703
-0.13403845 0.16209568 -0.06366122 -0.12807512 0.005050858 0.0018719559 -0.031917367 -0.10593893
0.071510226 -0.012146668 0.12957223 -0.119066596 -0.010803856 -0.04771645 0.106560595 0.02645438
-0.12664947 -0.08213527 -0.10657918 -0.15476674 0.06526356 -0.08381224 0.05797296 -0.09387327
-0.028500104 0.14644724 -0.115004316 0.049673703 -0.043581057 0.045388166 -0.13707307 0.11289649
-0.02265517 -0.13204336 -0.15280648 0.03515825 0.11040651 0.056734946 0.0058898125 0.12930283
0.11664487 0.07920783 0.115887254 -0.08533584 0.014771299 0.026832277 0.00043744908 0.05963338
0.06369127 -0.030019904 0.10326565 -0.006469836 0.1645049 0.12937458 0.12082724 0.04157511
0.12867963 -0.023054417 -0.13797836 -0.14300068 0.15689944 0.016272726 -0.037358347 0.0030996574
-0.10411436 0.122470416 0.1174866 0.05701212 -0.03699083 0.060709514 0.16288067 0.1238174
0.15037227 0.017196186 0.092715725 0.14224878 0.07339284 -0.14531833 0.07969034 0.14458667
-0.11869362 -0.0485516 -0.15044777 0.012228199 -0.013418983 -0.00083596475 0.13736756 0.095678285
0.073760614 -0.10552386 -0.15099704 -0.031959366 -0.12710379 -0.106211975 -0.108176164 0.07341038
-0.0595369 -0.14107697 0.023196962 -0.13603811 0.04832397 -0.012035049 -0.084468365 0.10335157
-0.06448085 -0.15021828 0.14689465 0.114521764 -0.056365926 -0.07057291 -0.07172245 0.09614061
0.05925318 -0.06678891 0.023804812 0.108436204 -0.10427538 0.02278888 -0.11489309 -0.034546945
-0.05574824 0.06202864 -0.11969751 -0.16627161 -0.02258604 -0.13602312 -0.1537026 0.10632739
0.07795769 0.038507935 -0.04403444 0.15111691 0.109056085 0.061049018 0.08899364 0.006151199
-0.086822756 -0.13579339 -0.042707138 -0.11075442 0.02325215 -0.10364764 -0.07376484 -0.13864383
0.11288889 0.054471787 -0.020401984 0.0699156 0.15220705 0.08023401 -0.0702131 -0.10070913
0.070004635 0.14004573 0.05700292 -0.019423615 0.13377455 0.015436784 -0.051412567 -0.021674672
-0.047151104 0.06324952 0.019651672 -0.11601197 0.022661692 -0.08948904 -0.08140586 -0.043714844
-0.005294236 -0.011810399 0.07468586 -0.11681349 -0.048194878 -0.08115212 0.05918809 -0.12830313
-0.13548167 -0.1515269 -0.0820763 0.10954802 0.10446183 -0.06251337 -0.07061439 0.15203568
0.121907935 -0.0071018552 0.051078267 -0.07606708 -0.011731366 -0.11712402 -0.09538044 -0.038802046
0.14276719 0.12737365 0.046212114 0.15928932 -0.16357481 0.10747232 0.104924224 -0.04383009

weight f4 [256]
00000000: 9e2c 673f 1931 543f 09fa 883f a531 513f
00000010: ad7b 773f 32f9 5d3f ca93 643f 990a 5b3f
00000020: 9217 4f3f 7025 4e3f ad70 663f a97f 503f
00000030: 44a8 733f 8128 883f 5143 5d3f 735d 573f
00000040: 68ff 373f b8cc 4b3f dd86 593f ad90 443f
00000050: 56e7 4b3f 029b 533f 262e 7e3f 6589 5f3f
00000060: 9825 5b3f c941 633f 677c 7b3f 7ac7 483f
00000070: dcb6 5f3f 1237 693f e685 5e3f d0ac 5a3f
00000080: f764 643f a3fb 5b3f 6378 473f 112d 613f
00000090: deee 643f a8cf 3e3f 0664 4c3f c121 5b3f
000000a0: df44 653f a307 6d3f 9a22 673f 602f 393f
000000b0: 85ef 613f f31f 513f 37cd 8a3f 12d8 743f
000000c0: c4a2 6b3f afcd 803f dbf0 6f3f 08e1 5b3f
000000d0: 4320 523f 6a36 563f 6b24 753f ef36 663f
000000e0: d50d 913f 3671 6d3f 3c43 5e3f 6379 5e3f
000000f0: dbe3 7b3f 21e2 7d3f 67ad 803f 4286 753f
00000100: aa1d 713f e6f6 533f 46aa 813f 7a67 2b3f
00000110: 8590 483f c36d 443f 2b79 5f3f 456d 513f
00000120: 0bae 6a3f 47d2 823f 3020 4a3f 3c30 763f
00000130: e174 663f f4a7 583f 4bc2 453f 7a4c 543f
00000140: df09 4c3f 8876 8b3f 9827 623f 3a93 683f
00000150: 8087 7a3f d826 783f baa3 293f eca0 263f
00000160: b71d 5b3f 89ba 693f 8e6d 843f ef8d 293f
00000170: a51c 4b3f f82c 5c3f 4af7 4a3f dd35 533f
00000180: 040c 493f 00b8 613f 57ca 663f bc3b 5f3f
00000190: 638b 7c3f 525e 583f aae7 4c3f 6d2a 5d3f
000001a0: f6ee 573f 9889 423f 970a 433f 84b5 843f
000001b0: 3bb8 753f 2f7c 613f 8532 353f fed3 773f
000001c0: fec6 673f b867 6f3f bb39 773f fad2 443f
000001d0: b4e5 6d3f 2831 493f e303 753f a99c 683f
000001e0: fcfa 573f 2315 7d3f 9b5f 653f 15b4 613f
000001f0: 0e6d 513f 8c0d 663f f96f 5b3f 7493 663f
00000200: 1940 5d3f f595 543f 25dd 703f 8323 4c3f
00000210: 1e89 4a3f 067b 643f 8711 663f 1dd5 553f
00000220: 9bce 6e3f 5898 443f c399 7a3f ef6b 493f
00000230: cdaf 723f 6d9a 5a3f d8b8 603f fb82 7f3f
00000240: 9ad7 843f 1cc8 7c3f 447b 463f e4cc 563f
00000250: e07d 6a3f 7597 673f f775 743f 9282 4b3f
00000260: 0528 2e3f ba41 463f d060 4e3f c3b9 543f
00000270: 279b 4c3f cde5 523f f415 3b3f d32b 543f
00000280: c225 5c3f 1ebb 473f 478f 4a3f c651 783f
00000290: 1d07 5d3f 66d7 363f 3c52 483f ad70 613f
000002a0: 7cc4 683f 8665 5c3f e7c1 693f 2ba2 4d3f
000002b0: 4055 6a3f 1501 6a3f 5c08 553f 0c44 4e3f
000002c0: d438 523f 1c88 7b3f a2cf 6c3f f670 683f
000002d0: fb92 5c3f 1a0b 733f 3380 653f 6494 443f
000002e0: 0fcd 503f d300 403f 1a1b 623f 2226 4c3f
000002f0: 7c2f 683f fe4e 7c3f a8a3 493f 723c 703f
00000300: 3be5 6d3f fb26 6f3f 8a3d 5a3f 0174 323f
00000310: 6fa5 723f bbd8 8a3f 179f 583f b589 4e3f
00000320: 82a0 643f 27d0 693f 088a 613f 4b18 2d3f
00000330: 9951 553f 36db 533f ddb1 5a3f 6828 663f
00000340: f396 5f3f 196e 803f fc2f 4d3f fb16 453f
00000350: 4e14 613f f983 523f 05c1 6f3f efb8 513f
00000360: e632 673f badf 543f 8f54 5c3f 2a38 523f
00000370: 1ae0 3b3f cedc 523f 59a9 503f 7287 5a3f
00000380: 8dc8 723f 2095 523f e930 603f 7208 833f
00000390: bff9 503f b77d 733f 05e7 473f 0f54 4d3f
000003a0: 91d1 443f 4a79 5f3f c168 553f 3a68 513f
000003b0: 3864 803f 32ea 633f 95ab 5d3f 94dd 6a3f
000003c0: c80b 663f 8a67 543f 2935 5d3f 9b7a 3d3f
000003d0: 4668 6a3f cdcf 5c3f d60a 483f 309f 543f
000003e0: 43e3 823f 36f3 333f cf16 373f 14eb 723f
000003f0: f54f 553f 1bd8 833f 81f9 3a3f 3bea 2e3f
0.90302455 0.8288742 1.0701305 0.81716377 0.9667309 0.86708367 0.8928801 0.85563046
0.8089534 0.80525875 0.9001568 0.81444794 0.9517863 1.0637361 0.8643084 0.8412697
0.71874094 0.7960925 0.8497141 0.7678326 0.79649866 0.826584 0.99289167 0.8731902
0.8560424 0.88772255 0.982367 0.7842938 0.87388396 0.91099656 0.8692306 0.8541994
0.8921656 0.8593084 0.7791807 0.8795939 0.8942698 0.7453561 0.79840124 0.8559838
0.89558214 0.9258978 0.9028717 0.72337914 0.882561 0.81689376 1.0843877 0.956422
0.92045236 1.006277 0.9372689 0.85890245 0.8208048 0.8367678 0.95758694 0.8992757
1.1332346 0.9275087 0.8682134 0.8690397 0.98394555 0.9917317 1.0052918 0.95907986
0.9418589 0.8279861 1.0130088 0.6695477 0.7834552 0.76729983 0.8729426 0.8180736
0.9167182 1.0220422 0.78955364 0.9616735 0.90022093 0.84631276 0.7724959 0.82929194
0.7970256 1.0895548 0.88341665 0.9084965 0.97863007 0.9693427 0.6626545 0.650893
0.85592216 0.91300255 1.0345933 0.662322 0.79340583 0.86006117 0.79283583 0.82504064
0.7853396 0.88171387 0.90152496 0.8720052 0.9865019 0.8451892 0.8004099 0.8639286
0.84349 0.759912 0.76188034 1.0367894 0.9598424 0.88080114 0.7078021 0.9680785
0.90538013 0.9351764 0.96572465 0.76884425 0.92928624 0.7859063 0.95709056 0.90864044
0.84367347 0.9886038 0.8959901 0.8816541 0.8180703 0.8986442 0.8571773 0.90068746
0.8642593 0.83041316 0.9408744 0.79741687 0.79115474 0.8925022 0.89870495 0.8352831
0.93284005 0.7679496 0.9789087 0.7868032 0.947995 0.85391885 0.8778205 0.99809235
1.0378296 0.9874284 0.7753184 0.8390639 0.9159832 0.9046548 0.954925 0.7949611
0.68029815 0.7744404 0.80616474 0.8309595 0.79924244 0.823819 0.7308037 0.8287937
0.85995114 0.78019893 0.79124874 0.96999776 0.8633898 0.7142242 0.7825048 0.88062555
0.9092481 0.8609241 0.91311496 0.80325574 0.9153633 0.914079 0.8321588 0.8057258
0.8211796 0.9825456 0.9250432 0.90797365 0.86161774 0.94938815 0.8964874 0.76788926
0.81562895 0.7500126 0.88322604 0.79745686 0.90697455 0.9855803 0.78765345 0.9384223
0.929279 0.93418854 0.8525015 0.6970826 0.9478368 1.0847391 0.8461775 0.80678874
0.89307415 0.9133324 0.88101244 0.67615193 0.83327633 0.82756364 0.8542765 0.89905405
0.87339705 1.0033599 0.80151343 0.7698819 0.8792161 0.82232624 0.936539 0.8192281
0.9031204 0.8315388 0.86066526 0.8211695 0.73388827 0.8236817 0.81508404 0.85362923
0.94837266 0.82258797 0.8757463 1.0236952 0.8163108 0.951137 0.7808688 0.8020639
0.7688227 0.8729445 0.83362967 0.8179966 1.0030584 0.8902923 0.8658994 0.9174435
0.89861727 0.8297049 0.8640924 0.74015206 0.9156536 0.8625458 0.78141534 0.830554
1.0225605 0.70292985 0.7151918 0.9488995 0.8332513 1.0300325 0.7303696 0.6832616

bias f4 [256]
00000000: be54 05bf 5af8 d6be 10a9 20bf aa34 f0be
00000010: 141b a3be 096f 16bf 6b31 acbe 8e37 21bf
00000020: d5a8 c6be 9a35 0fbf d537 1bbf fdd0 f2be
00000030: 5666 16bf 4939 02bf 3107 e0be 3cd2 dbbe
00000040: 163b 0ebf 89a1 12bf 19f8 cebe f35e 9abe
00000050: a8af 1cbf 56e6 f9be 7871 e7be e70d 03bf
00000060: 2f9d 1bbf c4ef dbbe 829f c9be 90bf b7be
00000070: 1c6b b9be eb8c e8be d4b9 2cbf 114d b8be
00000080: b6a8 f1be 9b98 f1be 0217 cabe c7d9 b3be
00000090: 0577 14bf af3f 00bf dc58 ddbe 1797 e4be
000000a0: 1982 14bf bbf9 9fbe d24a 0fbf e463 a3be
000000b0: 443f f7be 732b f8be e1e4 08bf 35ba e5be
000000c0: ea92 06bf a07e c4be f812 e3be ab0b adbe
000000d0: abf2 29bf ebba d1be 8243 08bf cad2 1cbf
000000e0: ec9a 03bf 7d6e ddbe e305 aebe 4b87 18bf
000000f0: 2a2e 21bf 8903 f5be 03b1 36bf 4435 b6be
00000100: 73ee 0bbf 4992 d7be b7ee 1abf 2730 a1be
00000110: 0c4c dbbe 65a7 edbe 6a75 0ebf 949d 07bf
00000120: c87e 28bf aa2e dabe dc91 7fbe ffe7 21bf
00000130: 2ef9 19bf 2f5f e5be 6a39 cebe 183f 08bf
00000140: c553 9fbe 3bcd c0be 03ba 19bf 3098 2bbf
00000150: 7e24 e8be 729c dabe 4e1f d1be 81df 2dbe
00000160: 61c8 f1be f313 1ebf e397 1bbf 58bf d5be
00000170: 6138 d3be 99b8 a0be 5900 2bbf 84e3 b8be
00000180: ff36 bebe 4120 15bf a546 0bbf cc43 18bf
00000190: f339 04bf fa5c b9be f570 1fbf 95f4 e8be
000001a0: b64c 1cbf 09b7 afbe fc3d 80be a88c 01bf
000001b0: 0ccb 16bf fd90 1dbf 710b b7be 637d 16bf
000001c0: a289 e9be 9bca f0be 1c64 03bf 6c38 03bf
000001d0: 9c53 c2be d104 23bf d34d 12bf 4b10 05bf
000001e0: 06a0 15bf ae5e 02bf dd56 34bf 9c9d f4be
000001f0: a855 debe d3b9 17bf 7460 1abf dbc6 48bf
00000200: b3cd c6be 2870 d3be 0942 d3be 1d35 debe
00000210: d258 ddbe b8b9 e6be c194 25bf 9683 6dbe
00000220: 55f3 09bf 2efa 81be a46c b1be 8c2c fcbe
00000230: 93b1 07bf 226c d9be 7b81 16bf b572 e4be
00000240: db1c 01bf abc8 b7be cb8d 2dbf e246 08bf
00000250: 2a9a 0cbf 21b3 19bf 2fdc 1cbf d61a 05bf
00000260: 2f92 d0be 0cdc cabe 3ffa 10bf 0756 b6be
00000270: 8e9b 0bbf e785 5dbf 0018 8abe e67c 09bf
00000280: b133 43bf d364 0fbf 96fa 91be 050d 10bf
00000290: 350d 00bf 9281 a9be 67ff 1abf 0287 04bf
000002a0: c214 1abf 1b5e c1be aba0 04bf 4656 b3be
000002b0: c4d6 31bf 8983 d7be 3c7b 30bf b847 e4be
000002c0: 483a 9cbe 85c9 b5be 5b4e 12bf f16b 1cbf
000002d0: 369b b1be df5f f6be 81dc 13bf 67ed e1be
000002e0: f485 1ebf d88b 02bf 201b 2dbf 6f89 aabe
000002f0: b350 e4be a10b f5be a502 f7be 1064 c9be
00000300: 62c0 8fbe eb2a 1abf 6833 1bbf c9ac b3be
00000310: 0e03 10bf e1b0 1cbf 4c57 43bf d537 eebe
00000320: e0af fdbe 3102 01bf 526b c2be d205 b7be
00000330: a7c8 06bf 6abc 0ebf 2418 b0be 5c76 ecbe
00000340: 173e dbbe 9c3a 0abf 0b06 e1be 6d9d b8be
00000350: 3356 d0be 71aa 18bf 966f b4be 7ac5 04bf
00000360: 401f 44bf 594e 27bf cc0d 05bf fc83 cabe
00000370: 439d c2be 5f51 fabe 8f36 68be 1e57 95be
00000380: 71de e0be 29a4 aebe bde2 c6be 7524 fbbe
00000390: bae0 bfbe 02e5 08bf a720 e6be aefd 0ebf
000003a0: 8b9f 04bf 6001 2fbf 29b0 e2be 2570 10bf
000003b0: db8b e6be c5af 11bf c5d4 22bf 16a8 14bf
000003c0: cd7a 0fbf f165 b0be aeaf 1fbf e45e 03bf
000003d0: 5cc3 d3be 14d8 0fbf 08da b6be 0b93 1fbf
000003e0: 39eb 1ebf 2632 87be bc28 04bf 9129 cfbe
000003f0: 91ed 10bf 08e5 bbbe 2667 c5be c042 e5be
-0.5208243 -0.41986352 -0.6275797 -0.4691518 -0.31856596 -0.58763176 -0.33631453 -0.62975395
-0.38800684 -0.55941164 -0.6063207 -0.4742507 -0.587499 -0.5086866 -0.43755487 -0.42933834
-0.5555891 -0.57277733 -0.40423658 -0.30150566 -0.6120553 -0.48808545 -0.45203757 -0.5119309
-0.6078672 -0.42956364 -0.39379507 -0.35888338 -0.3621453 -0.45420012 -0.6747105 -0.35996297
-0.4719903 -0.4718674 -0.3947068 -0.35127088 -0.5799411 -0.50097173 -0.43231857 -0.44646522
-0.58011013 -0.31245217 -0.5597354 -0.31912148 -0.48290455 -0.4847065 -0.5347424 -0.44868627
-0.52567923 -0.38377857 -0.4435041 -0.33797964 -0.66385907 -0.4096292 -0.5322801 -0.6125914
-0.5140827 -0.43248358 -0.33988866 -0.5958144 -0.62961066 -0.4785426 -0.7136385 -0.35587513
-0.5466072 -0.42103794 -0.605205 -0.3148205 -0.42831457 -0.46416774 -0.5564791 -0.5297482
-0.6581845 -0.42613727 -0.24957985 -0.6324462 -0.60145843 -0.44799182 -0.40278178 -0.53221273
-0.311186 -0.37656578 -0.60049456 -0.67029095 -0.4534034 -0.42697483 -0.40844196 -0.16979791
-0.4722319 -0.6174919 -0.60778636 -0.41747546 -0.4125395 -0.31390837 -0.66797405 -0.3611108
-0.37151334 -0.5825234 -0.5440467 -0.5947845 -0.51650923 -0.36203748 -0.62281734 -0.454991
-0.6105455 -0.34319332 -0.2504729 -0.5060525 -0.58903575 -0.6154936 -0.35750917 -0.58785075
-0.45612818 -0.47029576 -0.5132463 -0.5125797 -0.37954414 -0.63679224 -0.5715 -0.51977986
-0.584473 -0.5092572 -0.7044504 -0.47776496 -0.43424726 -0.5926792 -0.60303426 -0.7842843
-0.3882881 -0.41296506 -0.41261318 -0.43399897 -0.43231827 -0.45063567 -0.64680105 -0.23194727
-0.5388692 -0.25386184 -0.346532 -0.49252737 -0.5300533 -0.4246531 -0.5879132 -0.44618765
-0.50434655 -0.35895285 -0.67794484 -0.5323316 -0.54922736 -0.60038954 -0.61273474 -0.51994073
-0.4073653 -0.39621007 -0.56631845 -0.3561251 -0.5453423 -0.86532444 -0.26971436 -0.53706205
-0.7625075 -0.5601322 -0.28511494 -0.56269866 -0.5002015 -0.33106667 -0.60545963 -0.51768506
-0.60187924 -0.3776711 -0.5180766 -0.3502676 -0.6946833 -0.4209254 -0.6893804 -0.44585967
-0.30513215 -0.3550531 -0.5715081 -0.61102206 -0.3468873 -0.4812002 -0.5775834 -0.44126436
-0.61923146 -0.50994635 -0.67619514 -0.3330798 -0.4459282 -0.47860435 -0.48244205 -0.39334154
-0.28076464 -0.6022174 -0.60625315 -0.35092762 -0.5625466 -0.61207396 -0.7630508 -0.4652697
-0.49548244 -0.5039397 -0.37972504 -0.35746628 -0.5264992 -0.5575625 -0.34393418 -0.4618405
-0.42820808 -0.5399568 -0.43949923 -0.36057606 -0.40690765 -0.5963507 -0.35241383 -0.51863825
-0.76610184 -0.65353924 -0.5197418 -0.3955382 -0.38010606 -0.48890206 -0.22677062 -0.29168028
-0.4391971 -0.3410962 -0.38844863 -0.49051252 -0.3747614 -0.5347444 -0.44946787 -0.55855834
-0.51805943 -0.68361473 -0.44275025 -0.5642112 -0.45028576 -0.5690883 -0.6360591 -0.5806898
-0.56046754 -0.34452775 -0.6237744 -0.51316667 -0.41359985 -0.56189084 -0.3571322 -0.62333745
-0.6207767 -0.26405448 -0.51624656 -0.404614 -0.566125 -0.36698174 -0.3855526 -0.4477749

running_mean f4 [256]
00000000: 0f2a 123e 6820 81bd bb9d 2b3a 24b2 0d3e
00000010: 2944 eebd fa4d 4dbd fb48 c5bd dcb2 aabd
00000020: 1323 60bd 3fdc 0e3e b998 f6bd 8d77 283e
00000030: 924b 153e 680d 773e 25c9 89bd 6147 89bd
00000040: dd52 2cbd 5167 cc3d 3bcf c03d f0d4 43bb
00000050: ca13 00be fc09 06bc d103 2d3e dc72 523b
00000060: 9b6d 223e eb2f 98bd 8207 40bc cb40 3d3e
00000070: fa23 233e 1d90 a13d 97b9 833d 3744 88bc
00000080: e38f 6f3d b363 973d fafd b53d 7271 0c3e
00000090: 31ce c2bd 6c96 c93d b0c3 ea3d 7d8e 0ebd
000000a0: a7c1 0c3d 6271 07be ce08 25be d21a ecbd
000000b0: bd64 903d 2158 6c3d 5b6e 4fbd c317 f2bd
000000c0: d937 cd3d 48a6 a83d 21c3 1f3e 392a 72bc
000000d0: 37a3 143e e750 fe3c 7e52 b2bd 97ae 21bd
000000e0: 0e51 99bd 32d9 023e b874 bbbc 1df3 08be
000000f0: fcb8 693c eacf 1dbc 653e 0dbc c769 d8bd
00000100: f8b3 ad3d 1efc bfbc 91a6 033e deed 0fbe
00000110: b69a 983b c3b5 e4bc 203c fb3d 6828 473c
00000120: 57e9 f7bd d875 adbd 5751 ccbd 64df 17be
00000130: 73f4 9e3d 1fa1 9abd bf46 813d 1e61 abbd
00000140: 119c d5bc 457d 553e 0348 f2bd d0cf 183d
00000150: a41d aabc 3c69 793d 86a8 1cbe 8de4 d93d
00000160: fc8d 08bd 1c8e eebd 2d18 0fbe 202d 46bd
00000170: 912a c33d f3da 893d 7052 053c 0a75 093e
00000180: a4e4 043e d3e1 bd3d 9d5e eb3d 0d4a 99bd
00000190: 767f 243d d618 433d 16bd b4bc 7a2a 4f3d
000001a0: 2405 993d 4e47 14bd 6b0b 113e 609b df3b
000001b0: 2394 223e d325 0a3e 50d5 b03d 3509 513d
000001c0: ba28 1d3e d51b 863c 1541 04be 0fec 21be
000001d0: 4fa1 673e b28d 783c 08e3 19bd 312c 8f3c
000001e0: a6f2 dabd 7490 003e 91ea f13d f3c6 ea3c
000001f0: 6a55 30bd 0184 783d 994d 123e cc24 013e
00000200: b640 1b3e f5a3 c53c 3a28 ad3d 3a64 143e
00000210: 2036 be3d c3b3 19be e3fb ab3d 79e9 243e
00000220: eab8 d7bd 9841 88bd 8d2d 10be e24c 083c
00000230: 1174 01bd 4975 be3b 2c05 ef3d 6bf0 d53d
00000240: 4835 953d 75bd ffbd 8dad 30be 6fa2 84bc
00000250: 342c 08be 6a86 b1bd 9630 b6bd d318 e03d
00000260: 7ca9 a8bd a9b2 20be 2c36 433c 90f5 03be
00000270: ec33 703d 2039 3ebc f2e3 97bd dd8f df3d
00000280: 57bb 8cbd b8f5 1cbe 4581 123e d63d f83d
00000290: d4df 07bd fb3e 78bd fc57 9dbd 320f b43d
000002a0: f21b 8c3d 72d9 95bd c073 0e39 fbd7 e63d
000002b0: 2df8 b7bd e14b b73c 1d49 fabd b7bb 3bbd
000002c0: bda0 85bd 2d6d 943d 34b7 00be ad7a 2cbe
000002d0: dccd 90bc e5f6 efbd 01d5 29be f2a2 0c3e
000002e0: 75ac 933d b02e 8a3d a3e1 cfbc c5d6 2b3e
000002f0: 5f64 d03d 7c6f 5f3d 8782 d53d e556 293d
00000300: f212 c9bd 6ec4 e9bd 7b6a d1bc 857a cebd
00000310: cce0 dc3c a0c1 65bd ced7 8dbd f36e 0fbe
00000320: b3b8 f93d 00d7 6c3d 3073 c6bb 6bf4 5a3d
00000330: 8945 0a3e 6c04 873d 2b94 94bd 5e4e dfbd
00000340: 2a9f 763d 9015 093e 8e79 913d c16d 3fbd
00000350: a26b 073e 6cd0 8c3c 8708 90bd c60b 18bd
00000360: f27c 36bd ec6e 833d 2dac e43c ab2a f8bd
00000370: 380b fcbb 7775 d2bd e8c9 cbbd 49b9 d53c
00000380: cb7d 64bb 8411 d2bc f1ba b83d a90f f1bd
00000390: 6622 dcbc cff3 93bd b866 1a3d 391b 01be
000003a0: bb77 13be 1f7f 17be 1952 8dbd 2172 cd3d
000003b0: 89ea b83d 6d54 5abd 8dee 92bd 8f8e 1a3e
000003c0: 5ad2 e43d 6825 63bb 5407 f03c 56da a9bd
000003d0: 8923 b8bc d246 e0bd c6e0 ecbd 646c 97bc
000003e0: fd82 0d3e d651 283e 16bc e13c 8d51 363e
000003f0: 493b 18be 29d7 1f3e 9334 9d3d dec9 43bd
0.14273857 -0.06305009 0.0006546636 0.13837487 -0.11634094 -0.050123192 -0.096330605 -0.08334896
-0.05472095 0.13951205 -0.12040848 0.16451855 0.14579609 0.24126208 -0.067278184 -0.067030676
-0.042071212 0.099806435 0.09414526 -0.002988156 -0.12507549 -0.008181091 0.16895987 0.0032111919
0.15862124 -0.074310146 -0.01172054 0.18481748 0.15931693 0.078888156 0.06431883 -0.01663409
0.05848683 0.07392063 0.08886333 0.13715151 -0.09511984 0.09843144 0.11463106 -0.034803856
0.03436437 -0.13226846 -0.1611664 -0.11528553 0.07050464 0.057701234 -0.050642353 -0.118209384
0.10020418 0.08234841 0.1560178 -0.0147805745 0.14515387 0.031044437 -0.087071404 -0.039473142
-0.07486163 0.12778166 -0.022882804 -0.1337399 0.014265295 -0.00963209 -0.008620833 -0.105670504
0.08481592 -0.023435649 0.12856509 -0.14055583 0.004657115 -0.027918702 0.12267327 0.01215563
-0.12105053 -0.084697425 -0.09976452 -0.1483131 0.07761469 -0.07550263 0.06312322 -0.08368133
-0.026075395 0.20848568 -0.118301414 0.03730756 -0.020766087 0.060891375 -0.15298662 0.10639296
-0.03333853 -0.11648199 -0.13974066 -0.04838288 0.09529603 0.067312144 0.00813733 0.13423553
0.12977844 0.09271588 0.114926554 -0.07484827 0.04016062 0.047631107 -0.02206282 0.05057762
0.074716836 -0.036200814 0.14164512 0.006823942 0.15876822 0.13490991 0.08634436 0.05103417
0.15347567 0.016370693 -0.12915452 -0.15812705 0.22620128 0.015170502 -0.03757003 0.017477127
-0.10690813 0.12555104 0.11812318 0.02865932 -0.043050207 0.060672764 0.14287414 0.12611693
0.15161404 0.024126032 0.08454938 0.14491358 0.09287667 -0.1500998 0.08397653 0.16104688
-0.105333164 -0.06653136 -0.14079876 0.008319112 -0.03160483 0.0058123213 0.11670908 0.10446247
0.07285553 -0.12487308 -0.17253704 -0.016190736 -0.13298112 -0.086682156 -0.08895986 0.10942235
-0.082354516 -0.15693153 0.011914771 -0.12886643 0.058643267 -0.011610299 -0.07416524 0.109161116
-0.0687167 -0.1532811 0.14307125 0.12121169 -0.033172444 -0.060606938 -0.07682797 0.08791961
0.06841268 -0.07316865 0.00013585296 0.11271664 -0.08982883 0.02237505 -0.122209765 -0.045833316
-0.06524799 0.07247386 -0.12569886 -0.16843672 -0.017676286 -0.11717013 -0.16585161 0.13734034
0.07210628 0.06747186 -0.025376147 0.16781147 0.10175394 0.05454968 0.10425287 0.041342635
-0.09818067 -0.11414419 -0.02556347 -0.100819625 0.02696266 -0.05609286 -0.06925927 -0.14007168
0.12193432 0.057822227 -0.006056212 0.05345575 0.13503088 0.0659264 -0.07254823 -0.10903619
0.060210384 0.13387132 0.07103263 -0.04673553 0.13224652 0.017189227 -0.070328765 -0.037120603
-0.04455275 0.06417641 0.027914131 -0.12117513 -0.007691767 -0.10276311 -0.0995062 0.026089327
-0.0034865018 -0.025643118 0.09020031 -0.11770565 -0.026871871 -0.07224237 0.037695616 -0.12608041
-0.14401142 -0.14794587 -0.069004245 0.10031534 0.09029109 -0.05330317 -0.07174406 0.15093444
0.11172934 -0.0034659747 0.02930037 -0.082935974 -0.022477882 -0.10951008 -0.1156631 -0.018484302
0.138195 0.16437468 0.027555507 0.17804547 -0.14866365 0.15609421 0.07676043 -0.047799937

running_var f4 [256]
00000000: e05e 8f3e d17f ff3e 9c0c c73e 3189 a63e
00000010: b4e8 8f3e 4dbc 713e bb3b 0d3f ab16 fd3e
00000020: 0235 103f 5e58 093f 4e49 173e 0ded 163f
00000030: bf9f ed3e 5e23 c940 bb7d 783f 5bb4 b03f
00000040: dd73 2a40 f0a3 6a3e a290 213f 7553 d53e
00000050: 7c7b 7c3e f056 163f 4963 8940 3832 b73f
00000060: 2352 bb3e f00c 963f 56c6 f43e 28af 7a3f
00000070: 06e4 fb3e d23e 453e cc3a 953e 59f7 3b3f
00000080: 8009 7c3e fd51 ea3e fd57 803f 37f1 033f
00000090: ccf7 cd3e d224 483f b57b 093f 282f 5a3f
000000a0: 19ba e93e ca89 0e40 577a a43e f545 c03f
000000b0: c114 af3e bcd4 663e 8123 2b40 a0af 003f
000000c0: 5927 963e 4ead 7d3e f764 0c40 098c ec3e
000000d0: 6cf6 313f 6dbb 5740 0cbc c53e e6b6 e23d
000000e0: 4370 8340 0463 603f ae92 d63f 98e4 3c3e
000000f0: 5d7d 0b3f 941c 873e 5a09 f53e f44a a23e
00000100: 8807 603e 8db8 a43e 733e 3d3e 0a9f c03f
00000110: 3fe3 3f3f ae90 633f c6e7 673f 66f7 c33e
00000120: a76e 363e 4e8f a23e e91d f73f 1caa 8b3e
00000130: 686b 7c3e 702e 563f 83fe 863e 1418 123f
00000140: 9750 b53e adb5 be40 e527 253e cbb3 593e
00000150: 085c ba3e 8d25 293f b90e 8c3e 1643 4e3f
00000160: ddbd 633e e210 5e3e d40c 403e e3a7 cc40
00000170: 928e 9c3f e93d b13e d74e 953e 0859 b83e
00000180: 60b3 743f 4bd2 823e a341 8a3e d0a9 573e
00000190: bd2d d53e 5912 bb3e 65e7 623f 2d78 b33e
000001a0: ba1a 4e3f 8054 473f 1472 d53f e74c 913e
000001b0: b3c2 303e 7def 563e 563d 1d41 69c3 213e
000001c0: 0253 4c3f d8e0 903f e966 a33e 045f aa40
000001d0: 6b45 3c40 6fb2 c13e 4c44 513f 8fcc 513e
000001e0: 36c2 293f 2663 8f3e d736 fa3e b05a 5f3f
000001f0: adc2 643e db91 173f 1ff7 313f 3266 c03d
00000200: 56b1 5f3f c9ca f63e f166 6e3e ec34 c03e
00000210: 304e 9a3e bbc9 223f 987b 2a3e 41e5 dc3f
00000220: 1152 3c3e 5664 883e 8251 303e b1c4 743f
00000230: 9f79 523f a7f5 8e3f f3a5 0e3f d177 723e
00000240: d33e 1a3e 2889 083f bbe9 cc3e bb45 4e3f
00000250: 1d7a b13e 14a5 0e3f a607 c53e 43e4 9d3f
00000260: 3e6d 203f 590f 273f 27d9 263f 4c75 8e3d
00000270: 0b88 5740 c555 6b3e 77e1 473e 663a 0f3f
00000280: 5e38 2e3f f72b e03e 8d68 213f 5af6 2e3f
00000290: bad5 bf3e bc8c 8b3f 936f 463e 773a 7b3e
000002a0: 7e95 d53e ca9a 4a3f 07c3 fe3e 665e 073f
000002b0: d619 a03f d7d4 893e 2e7d 253e b049 703f
000002c0: 2c99 343f a234 c13e 4645 e13d 87d5 8b3e
000002d0: 1c6d 803f b2b4 b83f a085 c23e 7d26 953f
000002e0: 591b 6e3e ebd5 4a3f 5e8c e13e d473 5a3e
000002f0: 7b8a 803e 8af2 833e c1b4 053f 7e3d ab3f
00000300: b989 ce3e 4902 483e 9c3f 653f 08fd 573f
00000310: 81b3 5a3e 3756 1540 0996 0b3f b22c 463e
00000320: b8d5 bb3e 2b19 873e ecee bd3e 86e6 4c3f
00000330: f9aa 8d3e 76a9 913f d7c5 423f 4fe0 0c3f
00000340: 6dbd e23e 992a 393f fc55 a63f 2814 783f
00000350: 95e7 cb3f e60e 3a3f 8795 063f 5cab b73e
00000360: b991 4f3e 9385 733e 46e7 843e ee79 0a3f
00000370: 6b71 543f 10a4 863f 0edc 983f 918c 7540
00000380: 557e a73e 5b96 033f 59a6 bb3e 84cd bf3e
00000390: 3505 2d3f fca7 aa3e a257 e43e d516 573f
000003a0: 6586 af3f 9101 d73e fb0f 2e3f 1868 af3e
000003b0: ed5c 0b3f 5998 873e a955 e03e 9182 913e
000003c0: bfdd 5e3e 4656 133e 233f d53e 393c ce3e
000003d0: f466 b63e 42a3 0c3e 5e56 863f f76f be3e
000003e0: 630b 4e3e 4807 793f c89a 003f 5d76 d73f
000003f0: a2a9 7c3e c945 7740 5e90 913f 57ff ec3e
0.2800207 0.49902204 0.38876808 0.32526544 0.28107226 0.23606987 0.55169266 0.49431357
0.56330884 0.5365046 0.14774057 0.5895546 0.4641094 6.2855673 0.9706685 1.380504
2.6633217 0.229141 0.6311132 0.41665235 0.2465648 0.58726406 4.29337 1.43122
0.36586103 1.1722698 0.47807568 0.9792352 0.49197406 0.19262245 0.2914642 0.734243
0.24612999 0.45765677 1.0026852 0.5153994 0.40228117 0.78181183 0.53704387 0.85228205
0.45649794 2.22716 0.32124588 1.5021349 0.3419552 0.22542089 2.674042 0.5026798
0.29326895 0.24773142 2.1936624 0.46200588 0.69516635 3.3708146 0.3862003 0.11070041
4.107454 0.87651086 1.6763513 0.18446577 0.54488164 0.2638899 0.47858697 0.3169781
0.21877873 0.3217205 0.18480854 1.5048535 0.74956125 0.8889264 0.90588033 0.38274688
0.17815648 0.31749958 1.9306003 0.2727822 0.24650347 0.8366461 0.26366052 0.5706799
0.35413048 5.959677 0.161285 0.21259992 0.3639834 0.6607292 0.27354982 0.80571115
0.22240396 0.21686128 0.18754894 6.395494 1.2231009 0.34617546 0.29161713 0.36005425
0.95586205 0.25551066 0.27003202 0.21060872 0.41636458 0.36537436 0.8863433 0.35052624
0.8050953 0.7786331 1.6675439 0.28378984 0.17261772 0.20989795 9.827475 0.157972
0.7981416 1.1318617 0.31914452 5.3240986 2.941737 0.37831447 0.8174484 0.20488189
0.6631197 0.28005332 0.48869964 0.87247753 0.22339888 0.5920693 0.695177 0.09394492
0.8737997 0.48201588 0.23281457 0.37540376 0.30137777 0.63589066 0.1664871 1.7257463
0.18390681 0.2663905 0.17218593 0.9561263 0.8221683 1.1168717 0.5572197 0.23678519
0.15063028 0.53334284 0.40022072 0.8057515 0.34663478 0.5572064 0.38482398 1.2335285
0.6266669 0.65257794 0.651751 0.06955966 3.3676784 0.22981937 0.19519602 0.55948484
0.6805476 0.43783543 0.63050157 0.6834465 0.37467748 1.0902324 0.193785 0.24534021
0.41715616 0.7914244 0.4975817 0.52878416 1.2507885 0.26920196 0.16161034 0.9386244
0.7054622 0.37735468 0.10999541 0.27311346 1.0033298 1.4430144 0.37992573 1.1652371
0.2325262 0.7923266 0.44052404 0.21333247 0.25105652 0.2577098 0.52228934 1.3378141
0.4033945 0.19532122 0.89550185 0.8437047 0.21357538 2.3333871 0.5452581 0.19352987
0.36686492 0.2638639 0.37096345 0.8003925 0.27669504 1.137984 0.7608313 0.5502977
0.44285145 0.72330624 1.299499 0.96905756 1.5930048 0.72678983 0.5257191 0.35872924
0.20270433 0.23781423 0.25957698 0.540923 0.8298556 1.0518818 1.1942155 3.8367045
0.3271357 0.514013 0.3665035 0.37461483 0.6758607 0.33331287 0.4459811 0.84019214
1.3712889 0.41993383 0.67993134 0.34259105 0.5443867 0.2648342 0.43815354 0.28419927
0.21764277 0.1438838 0.41649732 0.4028032 0.35625422 0.13734153 1.0495107 0.37194797
0.20121531 0.97276735 0.5023618 1.6832997 0.24674085 3.8636343 1.1372182 0.4628856

weight f4 [128, 256]
00000000: 4560 173e 9dbf 41bd 904c ad3c 8614 dbbd
00000010: 129c b6be a5da 26bc 05f2 74bd ee1d e1bd
00000020: f73e 2abe 3e60 abbd 7597 29bd e4de 3c3e
00000030: 77ef 99bd 03f5 0f3e 737f 0cbd 7f21 d03d
00000040: 99f7 a83c 9827 093c db8a ad3d af97 653d
00000050: f406 ffbd 3fb5 f33c 3c95 a03d c839 75bc
00000060: de2b d6bd ac5e 923c 9a65 663d 965c c53d
00000070: 513e 8a3c 3813 c23d 3188 1c3e f11e bb3d
00000080: a399 f33d d890 a1be a63f 853d ab0e ae3d
00000090: ce36 c5be 98c8 b5bd 5354 90bd fab3 c6be
000000a0: 36a3 393e 0d9d 823d 5dd4 3ebd 5004 dc3d
000000b0: 14d1 01be 7fbc a4bd 11f1 423e 5568 0b3e
000000c0: a0da ea3d 48c5 043e e345 e03d d4de a93d
000000d0: 31e3 173d 9693 a4bc 456a 11be 32eb 093e
000000e0: b717 733d e513 ecbe 5279 0bbd 0833 91bd
000000f0: 04ce d3bd 8d27 953c a232 283e 1596 23bd
00000100: ecd4 bb3d db63 743d e8ab edbd 7dee 0cbe
00000110: ecce 0dbe 45e8 c1bc e02c 92bc fb7b 62bd
00000120: 627f 6bbe 15fd ce3d f97a 5abd 41ac d73d
00000130: 12ef 563e bab6 293d b6cf 9a3c b70c 73bd
00000140: 772d c63d 9a14 b53d 9062 2abb c877 92be
00000150: 38eb 2f3e 6dde c23d b717 c1bc 9433 1bbd
00000160: 5b01 5fbd 39bd 15bd 4a61 3d3e 4f21 35bd
00000170: edd4 23bd 9e4f 6a3d 0914 953d 085b 4ebd
00000180: 5398 bd3d a2b3 823d fce4 a9be 4a29 b0be
00000190: 5869 5b3d 8466 023e 161e 953d 0049 b7bd
000001a0: 9611 52be bc79 a63d 84ac 9f3d e789 b2be
000001b0: e026 3fbc 8b4a 72bd 0a86 58bd 03a2 3abd
000001c0: b557 113e b916 893c 7a45 483d 1243 b13c
000001d0: 3021 443d 1cf0 7cbd 7341 543d f341 d73d
000001e0: d7cf c73d bf74 29bc 6ab3 e0bb 92a5 3bbd
000001f0: ec5e 3ebd 668f e7bd 8b30 84be 8e80 8cbd
00000200: 07da f83d 4f59 83bc 14ec f53d 4ee8 cbbd
00000210: 25f7 fcbb e276 f0bd c5b2 12be 2a2b ef3c
00000220: 6951 653e 0079 fd3d 0823 1abf db15 a4bd
00000230: 6855 ea3c 5175 0cbd bf01 213d b02c ecbe
00000240: afa1 403e ca07 af3c ef50 64bd 5a7f 003d
00000250: f172 cbbd f37b fa3d e99e bc3d f3ee f23d
00000260: 54ff 91be e9f4 babc 6adc bdbc 15ea b0be
00000270: 8f86 01bd 1060 7bbe 12a7 bb3c cf9e a9bd
00000280: dfec a83d bf45 17be e779 94bd bdbb 99bd
00000290: dff0 2bbd 8d48 1d3d fa85 1dbe d1e9 a03c
000002a0: 1061 c4b9 1495 e23d 7fc3 e6bd 8719 a1bd
000002b0: aa71 48bc ad98 4bbe 6124 fabd ab4d a7be
000002c0: 6195 ddbc 4a4f 3c3d 2a07 cfbd 79da 853d
000002d0: df65 dd3d f6aa 2d3e b802 533d b78d 0a3d
000002e0: 5aa0 233e 554e bebe 9c79 063e 46bf 36be
000002f0: 28a6 423d ed81 3cbe 4541 133d 0f1a 23be
00000300: 0177 82be e9e4 06be 78fa 93bd df9e 1bbd
00000310: 8555 8a3d b198 603e e113 f2bd f005 a1bd
00000320: d256 15bd 5d98 a1be fe71 debd 4d9c 283d
00000330: d873 26bd 05e6 b8bd feda a3bd c2c5 abbd
00000340: e281 fcbd 6dac 3cbd 625a 003e cf35 d0bb
00000350: f9c9 a63d a251 1ebe 46ce 7b3d ae58 003d
00000360: 2822 d0be fd7c 5c3b f837 f2be 017c 98be
00000370: d75e 7a3d 09d8 113c f54e 37bd e135 163d
00000380: a083 a33d b929 113b 7ae8 c13c 1bf5 0a3e
00000390: b123 b5bc 9835 82bd 02a6 973d 4bdd 9e3d
000003a0: 4694 0dbb 8784 dfbd 2533 a8bc fcaa 09be
000003b0: f196 033e 05e7 9ebe 0a7a 593e 1f7e c1be
000003c0: 6eb8 403d 7f2b f43d 89a7 a9bd 17bb b03b
000003d0: 61d3 43bd ca23 1b3d 8b99 ffbc a3e8 b6be
000003e0: 84fa 09be a238 a4bd 592a ddbc 4803 133c
000003f0: 8723 e83d 1438 b6bd 15fb 2d3c 679a 37bd
0.14782818 -0.047301877 0.021154672 -0.10697274 -0.35665947 -0.010183965 -0.05980112 -0.10992037
-0.16625582 -0.08367966 -0.041404206 0.18444401 -0.075163774 0.14058308 -0.034301233 0.10162639
0.020625876 0.008371256 0.0847375 0.05605286 -0.12452498 0.02974951 0.07840964 -0.014967389
-0.10457586 0.017867409 0.05624924 0.096368 0.016875418 0.09476322 0.15286328 0.09136761
0.11894538 -0.3155582 0.065062806 0.084988914 -0.38518375 -0.08876151 -0.070473336 -0.38809186
0.18128666 0.06377611 -0.046589244 0.1074301 -0.12677413 -0.08043765 0.19037272 0.13614018
0.11467481 0.12965882 0.1095083 0.08294454 0.0370819 -0.020089906 -0.14200695 0.13468626
0.059348788 -0.46108928 -0.034051247 -0.070898116 -0.10342029 0.018207336 0.16425565 -0.03993805
0.09171471 0.059665542 -0.11605054 -0.13762851 -0.13848466 -0.023670325 -0.017843664 -0.05529402
-0.22997811 0.10106865 -0.053339932 0.10530902 0.20989636 0.041434027 0.018897872 -0.059338298
0.096766405 0.0884182 -0.002599869 -0.2860701 0.17179573 0.095150806 -0.023570878 -0.037890986
-0.054444652 -0.03655741 0.18494144 -0.04422122 -0.039997984 0.057204835 0.07279212 -0.050379783
0.09257569 0.063819185 -0.33182514 -0.344065 0.05356726 0.12734419 0.07281129 -0.089494705
-0.20514521 0.08128688 0.077965766 -0.34870836 -0.011666983 -0.05915312 -0.052862205 -0.045564663
0.14193614 0.016734468 0.048894383 0.021638427 0.047883213 -0.061752424 0.05182023 0.10510626
0.09756439 -0.010342776 -0.0068573253 -0.045812197 -0.046477243 -0.11306648 -0.25818285 -0.06860457
0.121509604 -0.016033797 0.12007919 -0.09956418 -0.0077198916 -0.11741425 -0.14326008 0.029195387
0.22394337 0.123765945 -0.60209703 -0.08011981 0.028605178 -0.03429157 0.039308306 -0.46127844
0.18811677 0.021366019 -0.055741247 0.031371452 -0.09934033 0.12230673 0.09209997 0.11861982
-0.28515112 -0.02282186 -0.02317639 -0.3455359 -0.031622466 -0.24548364 0.022906814 -0.082822435
0.082483046 -0.147727 -0.072498135 -0.07506511 -0.04197776 0.038399268 -0.15383139 0.019642742
-0.0003745635 0.11063591 -0.11267757 -0.07866197 -0.012234131 -0.1988246 -0.1221397 -0.32676443
-0.027048768 0.045974053 -0.10108788 0.06535811 0.10810446 0.16959748 0.051516265 0.033826556
0.15979138 -0.37169138 0.13132328 -0.17846403 0.04752174 -0.18408938 0.035950918 -0.1592791
-0.25481418 -0.1317326 -0.072255075 -0.03799331 0.06754593 0.21933247 -0.11820198 -0.078624606
-0.03645975 -0.31561556 -0.10861586 0.041164685 -0.04063782 -0.09028248 -0.08000754 -0.08387329
-0.12329461 -0.046062876 0.12534478 -0.0063540707 0.08143992 -0.15460828 0.061476015 0.03133457
-0.4065106 0.0033643835 -0.47308326 -0.29782107 0.061125603 0.008901604 -0.044753034 0.036672477
0.0798409 0.0022150113 0.023670424 0.13570063 -0.022111746 -0.063578784 0.0740471 0.07757052
-0.002160327 -0.109139495 -0.0205322 -0.13444132 0.12850548 -0.3103563 0.2123796 -0.37791535
0.047050886 0.11922359 -0.08283908 0.0053933966 -0.04780901 0.037875928 -0.031201145 -0.35724363
-0.1347447 -0.08018614 -0.026997732 0.00897295 0.11334901 -0.08897415 0.010618945 -0.044824984

bias f4 [128]
00000000: c773 10bc bd3f 1fbd 68ba 503d da25 27bd
00000010: e9bd 4d3d d25a 803d 03de 3bbd 5df0 9b3c
00000020: 8039 2a3d 5238 a13c 4ea9 b43c 0e07 e8bc
00000030: b419 c2bb 3164 babc d5db 0abd e9c8 b6bc
00000040: 8439 f7b9 fcce 29bd 66a7 6cba 1a7a 11bc
00000050: 3c83 36bd 061d 3e3d 3395 f33c 30fd 29bb
00000060: 84c5 b438 ff37 82ba d22b 2ebd cf7d 593d
00000070: a352 693d 6668 46bd 210b 62bd af1f a23c
00000080: ae9e 16bd 5103 203d 69ac 613d d6d4 9a3c
00000090: bd33 29bd 1cad 4abd da56 fc3c a2b1 2dbc
000000a0: 7c44 7a3d 3b6c 3b3a 8aaa 0a3d 893d 063b
000000b0: 547c cf3c 2857 8fbc fb95 723d 85df 203d
000000c0: f900 903c c96b 80bb 145d 2ebb 2015 df3c
000000d0: 75e5 1a3d 165d 7e3c 5753 153d 59e6 28bd
000000e0: 5b6f f63c 0ded 29bd e9e7 0dbc 151c 353b
000000f0: 1781 913c 3ea7 e4bc 4bcd 1dbd 4530 68bd
00000100: 793a 1d3d 94c6 7e3d 873d 013d 259f 4c3d
00000110: 24ca 11bd 1aa4 003d cf49 8a3d ace6 3b3d
00000120: 9784 683d 7401 e1bc 0b37 663d d0c6 1cbb
00000130: 1c49 413d 4abb 5cbd 9b67 303d 0340 283b
00000140: a8c1 16bd 74b3 683d b579 e339 5bc8 2fbd
00000150: 1d38 2e3d ee10 823c 4746 11bd f917 e7bc
00000160: f182 f93c 69ca d73b e7f5 003d a2d2 583d
00000170: 6eac 1a3d c732 0c3d 0965 3e3d c236 233c
00000180: ffb2 193d 708f 283d 7ba3 46bb 1b27 51bd
00000190: eb93 86bd 462a 443c 5dc7 193b 3993 42bd
000001a0: e10d 9c3a 7a23 5d3d 78ca 58bd a7ec 173c
000001b0: 5fd9 18ba f98e 83bd c15e 353c 9e2f 50bd
000001c0: 20f2 7dbd d3c9 19bc 1f67 f53c 1d14 79bd
000001d0: c3c0 34bd 6742 5a3c c725 9fbc 2dd4 983b
000001e0: 4d98 603c fa07 04bd b752 253b e273 46bd
000001f0: 6afb 15bd 0a42 64bc db1c 38bc 7cbb fabb
-0.008816666 -0.038879145 0.05095902 -0.040807582 0.05022994 0.062673226 -0.045866024 0.019035513
0.041558743 0.019680176 0.022053387 -0.028323676 -0.005923474 -0.022752853 -0.033901054 -0.022312598
-0.00047154364 -0.04145716 -0.000902763 -0.008879209 -0.04455875 0.046414398 0.02973423 -0.0025938265
8.619859e-05 -0.0009934901 -0.04252226 0.053098496 0.056963574 -0.048439406 -0.055186395 0.019790499
-0.036772422 0.039065663 0.055096064 0.018900316 -0.041309107 -0.049481496 0.030803133 -0.010601433
0.061100468 0.00071496115 0.033854045 0.0020483455 0.025327839 -0.017497614 0.059225064 0.039275665
0.017578589 -0.003919099 -0.0026605772 0.027231753 0.037816484 0.015525123 0.036456432 -0.0412353
0.030082395 -0.041485835 -0.008661249 0.0027635146 0.01776175 -0.027911779 -0.03852586 -0.05668666
0.038385842 0.062201098 0.031552818 0.04995646 -0.035593167 0.0314065 0.06752359 0.045874283
0.056767073 -0.027466513 0.056204837 -0.0023922212 0.047188863 -0.05388955 0.043067556 0.002567292
-0.03680578 0.056811765 0.00043387493 -0.042915683 0.042533983 0.015877213 -0.035467412 -0.028209673
0.030457946 0.0065854085 0.03148451 0.05293525 0.037762098 0.034228113 0.046483073 0.009961786
0.03752422 0.041152418 -0.0030309844 -0.051062685 -0.06571182 0.011972969 0.0023464777 -0.047503684
0.0011905992 0.05398891 -0.052927464 0.009272731 -0.00058307307 -0.06423754 0.011069954 -0.05082666
-0.061998487 -0.009386498 0.029956399 -0.060810197 -0.044129144 0.013321496 -0.019427193 0.004663965
0.013708186 -0.03223417 0.0025226304 -0.04845036 -0.03661672 -0.013931761 -0.011237348 -0.0076517444

weight f4 [128]
00000000: 1a65 ac3f b27a c73f b3a5 ad3f faf3 b33f
00000010: f4bc a53f 5f0f b33f bff3 bc3f 23dd b53f
00000020: 2415 af3f 8879 c63f 7189 b93f 595a a63f
00000030: 1504 b63f 483f b73f ddf7 ab3f a470 b43f
00000040: 7e76 b33f f3d6 c73f 4380 a53f 8bed b13f
00000050: 7892 b63f cce6 bd3f 47ec be3f 8f88 b23f
00000060: 3225 bd3f 90e8 b93f 0805 c13f fd1f bf3f
00000070: bbc6 b93f 40f0 aa3f 46e6 b33f b97e cb3f
00000080: 9871 b53f 3c22 9f3f 9d13 c33f 27f5 9e3f
00000090: d958 b63f b909 bd3f 24e9 b53f b0ba b73f
000000a0: e725 a63f b993 ce3f 21c2 c03f f53a c53f
000000b0: 680d be3f f77c a63f 5d04 a43f d61f b13f
000000c0: e2b2 b13f a688 b53f 112c b33f e88d ba3f
000000d0: 5757 ae3f 1845 ae3f b2d0 be3f 73ab b23f
000000e0: 8a22 b43f 7444 ac3f 2364 c93f 99c3 ad3f
000000f0: 14b0 b13f f81b a93f 97b7 ac3f a422 b43f
00000100: 93a6 bf3f b8c4 b43f 7921 b63f 4a79 bd3f
00000110: 2f15 a63f aa23 ac3f bb2e af3f 102e a73f
00000120: efb2 9f3f 97a6 b23f 84b4 c03f 6876 c73f
00000130: a942 b53f 13cc c33f 6bae c03f 82d4 9f3f
00000140: 06a5 b43f d0f7 c93f 35e1 aa3f dba1 a83f
00000150: 7fe4 ad3f ce14 bb3f e595 a53f b937 b63f
00000160: 7c26 be3f e90a c83f 9f43 b93f e4ab b33f
00000170: 8263 c23f 6e08 b73f ae88 b23f e79d b53f
00000180: db0b b93f 85e3 b63f ed32 a43f 51d8 b43f
00000190: 358f b33f 84cd a23f 3337 c93f 8e37 cc3f
000001a0: 560b bd3f 32ee 9c3f 8ae5 ac3f 329c b33f
000001b0: 2bad af3f 6eb7 b33f 546c bc3f 8b50 be3f
000001c0: 3393 b93f 5615 b43f 6abe b33f 5bef c13f
000001d0: 0779 a83f a343 ba3f dcb9 bd3f f5d0 bb3f
000001e0: aa8b af3f 6b4f b93f 77d0 a63f 52ce ba3f
000001f0: cd6a a83f 3b33 a63f ca93 b03f fff4 ac3f
1.3468354 1.5584319 1.3566192 1.4058831 1.2948289 1.3989066 1.4761885 1.420811
1.3678327 1.5505838 1.4495069 1.2996322 1.4219996 1.4316187 1.3435017 1.4096875
1.4020536 1.5612472 1.2929767 1.3900617 1.4263449 1.4836059 1.4915856 1.3947924
1.4776976 1.4524097 1.507966 1.4931637 1.4513773 1.3354568 1.4054649 1.5898048
1.4175291 1.2432323 1.524036 1.2418565 1.4245864 1.4768592 1.4211774 1.4353848
1.2980317 1.6138831 1.5059243 1.5408617 1.4847841 1.3006886 1.2813832 1.383784
1.3882716 1.4182327 1.3997823 1.4574556 1.3620404 1.3614836 1.4907439 1.3958572
1.407304 1.345839 1.5733684 1.3575317 1.388186 1.321166 1.3493527 1.4073071
1.497271 1.4122534 1.4228965 1.480264 1.2975215 1.3448384 1.3686136 1.3060932
1.2476481 1.3957089 1.5055089 1.558301 1.4160968 1.5296654 1.5053228 1.2486727
1.4112861 1.5778751 1.3349978 1.3174394 1.3585356 1.4615724 1.2936369 1.4235755
1.4855494 1.562833 1.4473761 1.4036832 1.5186617 1.4299448 1.3947961 1.4188813
1.4456743 1.4288183 1.2828041 1.4128515 1.4028078 1.2718968 1.571997 1.5954454
1.4769084 1.2260191 1.350755 1.4032042 1.3724722 1.4040353 1.4720559 1.486833
1.4498047 1.4069011 1.4042485 1.515117 1.3161935 1.4551891 1.4822345 1.4673144
1.3714497 1.4477361 1.3032368 1.4594214 1.3157593 1.2984384 1.3795102 1.3512267
