backend/app/data/keypoint_classifier.pt (torch, 253323 bytes, 16 tensors)

weight f4 [256, 42]
00000000: 234c 08bd c6f5 93bc 6853 04be 8e9e 723e
00000010: 271a 8bbd 6ab1 233e fc3d c03c 75eb da3d
00000020: 5d59 b6ba 54ba 6b3d 225a 043e dee0 e9bd
00000030: dcd2 7b3d ff49 3f3e cc54 833d cc8e febd
00000040: d1ac 49bd 35c9 87be 3ac7 4b3d 258f afbc
00000050: aac7 123d 4ec8 57be 2d28 483e d415 f4bd
00000060: ea39 9a3d 35fd b8bc 8d3a ad3d 68f4 edbd
00000070: ca82 e33d 2a98 00bf 62dc 6c3e 263d 4cbe
00000080: 7282 733c 289d b73d 7a7f 313a 3508 eabc
00000090: d287 5b3e b4a8 abbe df90 1dbd 5ca7 073d
000000a0: 487e 41be d7e3 c23e 9926 7d3d 331a 363c
000000b0: dccf ba3d d74b 1cbe db33 02be 6808 8a3c
000000c0: fa12 d7bd e448 783e 1c82 1a3d 8f63 0cbe
000000d0: f232 04be 2faf 123e 0eee 613d cab3 ca3e
000000e0: a0cb 263e 7037 f53e dff0 adbb c21b 043f
000000f0: 85d9 ba3c 9882 eabd 334f 9e3d 6504 a6bc
00000100: 9400 993d fd42 b1be 2b60 aebd c5ec 92be
00000110: 7c06 453d a76c 99be 5ac9 f2bd 951e 05be
00000120: 161a 0abe 502c d5bd de7c 5a3d 5d3c c13c
00000130: 59f9 f8bd 0475 d8bd 252c 1abd 8910 94bd
00000140: be94 4cbd 8f58 9abd 3e6b c43d 3c2a 76bc
00000150: ee10 073b 281a 84bc 3492 c6bd 6189 523e
00000160: 8510 583c fe64 3c3e fb65 b7bd 0cc1 01be
00000170: 727b ba3d 1ad2 573e 3bad 72bd 988d 39be
00000180: 1ee1 ecbc aeb8 fabe 4a11 4f3e a155 2cbf
00000190: c4fd 45bd 0a12 11bf a572 e03c 0ba8 ea3d
000001a0: 6a2b b13c 871a cdbd 51d8 a23c 0074 2ebe
000001b0: 37ce e8bd 4cf7 febc 28ff 5cbd 9f9a acbd
000001c0: 3634 7abc 43e0 3e3d 00ee c03d 2044 b2bd
000001d0: ae9d 0bbc 040f d6bd a02e 953d b5e4 32be
000001e0: 555e e7bd ad1e b9be f77a 83bc a26a c6bd
000001f0: 7bfc 6a3d 9a5d 82bd 4d2a edbc 280e 7ebd
00000200: e195 cc3e e462 813c 472c 563e 88e5 833e
00000210: 6b6c b93e 8c95 84bc 9e49 313e e7ef 613e
00000220: 61bb 913d 0b00 8abd d087 0dbe 02d3 093d
00000230: 40c3 26be 5284 03bd 10ed 64be 47b6 83be
00000240: 70aa 213d e6c4 88bd 4976 18be 4691 50be
00000250: 3efa 26be 8db9 e13d c221 7abe a12d 1e3e
00000260: 3b5a e83c 581c 093e ff53 423e cf83 37be
00000270: 67cb b23c 0300 273e 81ed 26be 3da6 6d3d
00000280: 9e32 f23b e8c4 bb3c ca86 683b 771d ddbd
00000290: 989c 43be 8e52 40be f46b 083d d83c 17be
000002a0: 0e20 ccbc ea67 64bc 0f1e 213c ce7a 1d3e
000002b0: 6bab 003d 9671 233e f530 b5bd 4fbb 203e
000002c0: dca6 153a 99a2 133e 23f0 953d e373 c33e
000002d0: 0e43 1abd 7443 883c b15a d7bd be25 73be
000002e0: b6f9 d53c 19d3 29bf 116f 01bd 513a 6b3e
000002f0: b086 87bd 0b62 d53c 0449 843c 3376 aa3d
00000300: e237 b7bb d92d 4f3e 6544 1c3d 3f4f 143e
00000310: 54f6 133e 8da4 013d 9ec8 b63d bc1c cabc
00000320: 2d46 f8bd 9642 98bd 0c61 b7bc 637f 6c3d
00000330: 6539 e2bd a05a 523d a48c 02bc c5cc 4abe
00000340: 4e71 1bbb 9936 2cbe 55f8 44bc 9cdc 143d
00000350: e561 b1bd 32b4 9e3d 0e2f 31be c24c 543e
00000360: 5862 e8bd b2b0 313b 27c5 8ebe dc95 353e
00000370: aaad 1a3e f4e3 403c 67ae 013c 0cfa 21be
00000380: c098 0c3e 0d46 75be 573a 8d3e 2481 98be
00000390: c5b6 053e 889d cabd c78c 25be 9be2 483d
000003a0: f9b2 853d 5d08 953d 6b61 dd3c df76 373e
000003b0: 383a 713d e255 1d3d 962f 32be e0ac 903e
000003c0: dbb7 7f3c 02eb c9bd 5861 3a3c 4cc7 1239
000003d0: 30fe 44be 5c21 203e 10ae e7bd 7298 8e3e
000003e0: 2064 863d 490a 10be 1e72 a53e 5f5a edbe
000003f0: e63b 443c 3d68 e33c 7bf2 9f3d 7298 043e
-0.033275735 -0.01806153 -0.12922442 0.23693296 -0.067920975 0.15985647 0.023467056 0.10689441
-0.001391213 0.057550743 0.12925008 -0.11419843 0.061480388 0.18680571 0.06412658 -0.1242958
-0.049237076 -0.26520696 0.049750544 -0.021430561 0.035834946 -0.21072504 0.19546576 -0.11918226
0.075305775 -0.022581676 0.08458433 -0.116188824 0.111089304 -0.50232184 0.23130944 -0.19945201
0.014862644 0.08965522 0.00067710096 -0.028568367 0.2143853 -0.33527148 -0.038468238 0.03311859
-0.18895829 0.38064453 0.061804388 0.011114645 0.09121677 -0.15263306 -0.12715094 0.016849712
-0.10501666 0.24246556 0.03772174 -0.13709854 -0.12910059 0.1432464 0.055158667 0.39590293
0.16288614 0.47893858 -0.005308255 0.51604855 0.0228088 -0.1145069 0.0772995 -0.020265767
0.074708134 -0.3462142 -0.08514436 -0.28696266 0.048101887 -0.29965708 -0.11854811 -0.12999947
-0.13486513 -0.104088426 0.05334174 0.023588354 -0.12156934 -0.10569194 -0.037639756 -0.07229716
-0.04994654 -0.075364225 0.09590767 -0.015024718 0.0020609456 -0.016125754 -0.09695855 0.20560218
0.013187532 0.183979 -0.08954998 -0.12671298 0.091055766 0.21076241 -0.059247237 -0.1812042
-0.028915938 -0.48969024 0.20221439 -0.6731816 -0.048337713 -0.5666815 0.027398417 0.11457833
0.021627147 -0.10014825 0.019878538 -0.17036438 -0.11367457 -0.03112378 -0.053954273 -0.08427929
-0.015271237 0.04660059 0.09420395 -0.087044 -0.0085214805 -0.10452083 0.07284284 -0.17470057
-0.11297289 -0.36156216 -0.016049845 -0.09688307 0.05736969 -0.06365509 -0.028950835 -0.06202522
0.399581 0.015794225 0.20915328 0.25761056 0.3621553 -0.01618459 0.17313239 0.22064172
0.07115818 -0.067382894 -0.1382134 0.0336485 -0.1628542 -0.032108612 -0.22356057 -0.25725004
0.039469182 -0.066781804 -0.14888872 -0.20367917 -0.16306397 0.11021719 -0.2442694 0.15447094
0.028363338 0.13389719 0.18977354 -0.17921375 0.021825505 0.16308598 -0.16301538 0.058019865
0.007391288 0.02292104 0.0035480731 -0.107966356 -0.19102705 -0.18781492 0.033306077 -0.14769304
-0.024917629 -0.013940791 0.009833827 0.15378878 0.031413477 0.15961298 -0.088472284 0.15696453
0.0005708763 0.14417495 0.07321193 0.38174352 -0.037661605 0.016633727 -0.10515345 -0.23744866
0.026120048 -0.66337734 -0.03160006 0.22971465 -0.066174865 0.026047727 0.016148098 0.08323326
-0.0055913785 0.20232333 0.038151164 0.14483355 0.14449435 0.03165107 0.089249834 -0.024671905
-0.1212276 -0.07434575 -0.022385143 0.057738673 -0.110461034 0.051355958 -0.007968102 -0.19804676
-0.0023718658 -0.16817702 -0.012022098 0.036343202 -0.0866125 0.07749213 -0.17303106 0.20732406
-0.113468826 0.0027113375 -0.2788479 0.17732948 0.1510531 0.011773098 0.007915116 -0.15818042
0.13730145 -0.23952504 0.27583572 -0.29786026 0.13058002 -0.09893328 -0.16166984 0.049044233
0.06528277 0.07276986 0.027023992 0.1791644 0.058893412 0.038411982 -0.17400965 0.28256893
0.015607799 -0.09859277 0.011375748 0.00013997889 -0.1923759 0.15637726 -0.11312497 0.27850682
0.06562066 -0.14066423 0.32313627 -0.4635801 0.0119771715 0.027759666 0.07809921 0.12948778

bias f4 [256]
00000000: 189c 7a3d 9e58 bdbd b481 043e 204e e6bc
00000010: 85cd 91bd a7b3 eb3d df34 17be 562c bcbd
00000020: 467e 15bd 7f07 d73d f5f2 f13c 233f f1bd
00000030: f683 7fbc b8e2 f5bd e601 043e bf10 f4bd
00000040: 21fb 883c f14f 81bd fb26 01be 8dfe cd3d
00000050: 89b6 c2bd e4da 943d 7236 aa3c 4b3c adbc
00000060: 5948 0bbe 1a74 143d b8c0 21bc e679 203e
00000070: 0ed0 0b3b 64ab 0a3e 94b7 f43d a4d6 e83c
00000080: ab4e 51bd da5b 05bd f05b 06be 3d13 c63d
00000090: e858 b33c 788a 0bbe f8cd e8bd dde8 f5bd
000000a0: 27f2 b53d fee1 703d 9f58 c73d 2ce5 d53d
000000b0: 18af ad3c dbb4 343e af8d fd3d e399 733d
000000c0: 94c4 a83d 5caa abbd 324c eebd 51d5 fdbd
000000d0: 83f5 6f3d b2d9 fb3c 8aab 1c3e 673d 12be
000000e0: 6522 b23d 4510 da3d aac1 fbbc 4ab8 bf3a
000000f0: 852f 67bd 925b 383b de2d fdbd e604 2fbc
00000100: fdc9 14be 45c2 7abc b93b 9dbb d8e5 a6bd
00000110: 6929 2cbd 973b 87bd 6081 963b fecf 2d3d
00000120: 1273 d7bd cae6 393d fcae a039 a5c9 17be
00000130: 0f82 b43d 0727 fe3c 2709 a53d 0eea 19bd
00000140: b3f4 87bd 4648 dfbd ca76 503d 50c1 dabd
00000150: b9bd c03c 092e 45bd a914 99bc 1284 003d
00000160: 612b 5c3d e9f4 453d f3bb 1fbd 0f81 213e
00000170: 66a4 c23d 4cbf 15bd 409b 813d ef77 4abd
00000180: d7ef 96bd 164d 13be 51ee 0e3e b4ac 25bd
00000190: 26f4 a83d d021 0b3b 7c4d ad3d 0a5c 013c
000001a0: f9bf e5bd f57e 07bd 1a61 0d3d abc2 93bd
000001b0: 9674 b63d 35c6 f93d aed0 083e a231 2cbd
000001c0: 853f 223c c25a 0fbe 596e 293d 8a2e 913b
000001d0: d584 993d e7a8 87bd 8c52 ddbd 97d0 bdbd
000001e0: 2f6a f3bd f815 4fbd e406 a63d a096 f43d
000001f0: 4b81 70bd 1f17 eb3a 2982 1d3c 1184 f7bd
00000200: caf7 1b3e c400 033e d5e8 85bd ddd5 053e
00000210: 89e7 b03d 1751 afbc b15d 0c3e 78ae 7a3d
00000220: dce9 adbd 63dc a73d b94a bbbd 817b 9f3d
00000230: acba ce3d b9a3 a7bc 30b9 cc3d 25f8 f8bc
00000240: 609e 133c c199 b4ba 670a 01be 994b fe3d
00000250: 74d8 d6bd e1e5 91bd 62c8 1b3e 6597 d63d
00000260: ee3f e53d 66ba f3bd c9d6 c93d 8c9f 6a3c
00000270: aced 3e3d 736a 913c 0165 133e 18b3 003e
00000280: d868 e33d 6509 a53c b3ae c33d 8706 1e3d
00000290: a9dc 093e b8d4 b03c 9a27 043d fae5 1e3d
000002a0: bcec 1f3e 6105 21bc cf9d a6bd 50c5 1fbd
000002b0: 16e1 123e 5a72 89bd 2975 0bbe 54e9 0cbd
000002c0: 08b8 f0bd d20c cabd f5ab 11be a219 053d
000002d0: 7b9e f0bd 8f6d 32be 35e9 ad3d e8ef ac3d
000002e0: 36d1 73bd 446b 623d a9cc d0bd 0c8b 223c
000002f0: a4e2 103e e237 a33d 283a a93d 8eea 043e
00000300: 3eb8 debd 3ab8 e63d 7432 acbd b5db 383e
00000310: 58ed 16bd ec54 cd3d f5c6 593d fabb 103d
00000320: 5b05 743c de84 09bd 079c ea3d 67ba 89bd
00000330: a5c9 0e3e 726c 01be a567 823b d74d 68bd
00000340: e321 28bd f5cb d0bc 5bfa d6bd 51e8 5bbd
00000350: add8 bcbc c8b7 083e f6d9 0f3e 95d8 173d
00000360: c37d e8bd cd63 68bd fc05 04be 2823 bb3c
00000370: 3600 d83d 0f98 92bd f420 63bd 64fc 01be
00000380: 7afd c43d 1150 113d 647c ff3d 2511 04bd
00000390: 90a5 133d a1e0 a5bc 9f58 ccbb c583 ca3d
000003a0: 91a1 063e feee 98bd b797 debd af78 b5bd
000003b0: 62c5 15bd 0aae 36be 61a9 e63d 7f73 b7bd
000003c0: d969 0b3e e187 a13d a309 08be 8b1a 0ebe
000003d0: 1aa2 0c3e 904a afbd 5a9e 56bd c6d8 a7bd
000003e0: d6d9 8d3d b310 9abd 488c cc3b 6699 b7bd
000003f0: dab2 14be 4f93 ec3d 092b 093e 1d52 303d
0.06118402 -0.09245418 0.12940103 -0.028113425 -0.07119278 0.11508875 -0.14766262 -0.09188144
-0.036497377 0.10499477 0.029534796 -0.117796205 -0.015595427 -0.12006134 0.12891349 -0.119172566
0.01672131 -0.06314076 -0.12612526 0.10058317 -0.09507472 0.072683126 0.020777915 -0.021146914
-0.13601817 0.036243536 -0.009872608 0.156715 0.0021333727 0.13541943 0.11949077 0.028422661
-0.051100414 -0.0325583 -0.13121009 0.09671638 0.02189298 -0.1362704 -0.113674104 -0.12007306
0.088840775 0.058809273 0.097337 0.10444102 0.021201655 0.17647116 0.123805396 0.05947293
0.08240619 -0.08382103 -0.11635627 -0.123942025 0.058583748 0.030743454 0.15299812 -0.14281236
0.086979665 0.106476344 -0.030731995 0.0014627066 -0.056441803 0.0028130752 -0.12362264 -0.01068232
-0.14530177 -0.0153051065 -0.0047983793 -0.08149308 -0.04203168 -0.06603163 0.0045930594 0.042434685
-0.10519995 0.045386113 0.00030647952 -0.14823015 0.08813869 0.031024469 0.08058386 -0.037576728
-0.066384695 -0.10902457 0.050894536 -0.10681403 0.023527967 -0.048139606 -0.01868661 0.031375952
0.053752307 0.048329268 -0.0389976 0.15771888 0.09504013 -0.036559388 0.0632844 -0.049430784
-0.073699646 -0.14384875 0.13958098 -0.040447906 0.082496926 0.002122987 0.084620446 0.007895479
-0.112182565 -0.03308006 0.03451643 -0.07214864 0.08908956 0.12196008 0.13360855 -0.04203952
0.00990284 -0.13999465 0.041365 0.0044305967 0.07496039 -0.066240124 -0.1080676 -0.09268301
-0.11885487 -0.05055806 0.08106783 0.11942792 -0.058717053 0.0017935968 0.009613552 -0.120857365
0.15231243 0.12793261 -0.0653855 0.13069864 0.08637912 -0.021400971 0.13707615 0.061201543
-0.08491871 0.08196332 -0.091451116 0.077872284 0.100941986 -0.020463811 0.09996259 -0.030391762
0.0090099275 -0.0013778732 -0.12601624 0.12416763 -0.10490504 -0.07123924 0.15213159 0.10478095
0.11193834 -0.11900787 0.0985542 0.0143202655 0.04661338 0.017750954 0.14393999 0.12568319
0.11103982 0.020146081 0.095548056 0.038580444 0.13463081 0.021585807 0.03226433 0.03879354
0.15617651 -0.009827943 -0.08135568 -0.03900653 0.14343676 -0.06711264 -0.13618912 -0.034402207
-0.11753851 -0.098657265 -0.14225753 0.03249515 -0.11748978 -0.17424606 0.08491746 0.08444196
-0.05952569 0.055278078 -0.10195286 0.009920847 0.14148957 0.07969643 0.082630455 0.129801
-0.10874985 0.11265607 -0.08408061 0.18052562 -0.036847442 0.10025963 0.053168256 0.03533552
0.014893855 -0.033573978 0.11455541 -0.067250066 0.13944109 -0.12639025 0.0039796405 -0.05671486
-0.041047942 -0.02548788 -0.1049697 -0.05368835 -0.023052538 0.13351357 0.14047989 0.037071783
-0.11352112 -0.056735802 -0.12892908 0.022843912 0.10546915 -0.07157909 -0.05545135 -0.12693936
0.09618659 0.035476748 0.124748975 -0.032242913 0.036046565 -0.020248713 -0.0062361504 0.09888414
0.1314757 -0.07467459 -0.10868781 -0.08860909 -0.036565192 -0.17839828 0.11262775 -0.08957576
0.13614596 0.07887245 -0.13284926 -0.13877313 0.13733712 -0.085591435 -0.05239711 -0.08195643
0.069263145 -0.075227164 0.0062423088 -0.08964805 -0.14521351 0.115515344 0.13395323 0.04304706

weight f4 [256]
00000000: ad16 4b3f 8348 573f 374c 913f ce21 5b3f
00000010: 8dc8 6e3f 7fe5 723f 111b 8a3f f0dd 533f
00000020: a3e8 723f b61c 803f 1ba0 523f 78c6 783f
00000030: ef0a 4b3f 6477 453f 5b50 1b3f 5934 753f
00000040: c399 403f 040f 5a3f 59d1 4d3f d29a 4f3f
00000050: f904 5f3f 66a7 643f c485 5b3f 8cb1 863f
00000060: 5b44 583f 9d39 5d3f 8baf 483f 46c2 793f
00000070: 21d9 603f d3e3 373f 11d1 4c3f b0d6 3c3f
00000080: ef91 4c3f 07ed 813f 09f9 4d3f 38d8 823f
00000090: 831f 6c3f be46 403f b266 813f b669 6f3f
000000a0: 7a25 323f 4966 823f 97d1 6c3f f496 373f
000000b0: 1b18 563f 3699 8d3f 08f4 5c3f 675c 7b3f
000000c0: fce0 7c3f c05e 713f c110 3d3f 3758 383f
000000d0: 9640 523f 7666 663f b915 3c3f 617f 603f
000000e0: df9f 503f b7e1 683f d6de 383f e12d 4a3f
000000f0: 0264 793f cdcc 603f 11fe 5b3f 2ec0 6d3f
00000100: 13db 673f ca39 8f3f 39ec 583f fce7 703f
00000110: f746 6c3f eb02 833f 4a56 623f ea41 413f
00000120: a375 413f 09a4 193f 41bc 4c3f 589c 4b3f
00000130: 9741 783f a832 6b3f 2ca2 5a3f d5a1 533f
00000140: af03 623f ae88 813f b397 4b3f 679b 6f3f
00000150: 39ab 573f fe54 673f 97ec 7f3f 44b2 4e3f
00000160: 1922 5a3f 3684 683f 723d 6a3f 760a 603f
00000170: 4928 6d3f 4278 753f 5518 4f3f dced 3b3f
00000180: 5a28 423f 4863 573f 9e06 2b3f acae 783f
00000190: d3f1 443f d9d5 833f 7bb6 6b3f 3a48 673f
000001a0: 6e0e 4a3f 1c49 6e3f cb36 503f fbb7 793f
000001b0: ce13 743f c608 213f 512b 603f c1e3 633f
000001c0: c14b 4e3f c1de 4b3f 22ed 1f3f bf90 773f
000001d0: ec24 533f 3a88 823f 89dc 683f f914 403f
000001e0: b2c6 4a3f b2f6 533f 4d4d 4f3f bea1 783f
000001f0: 5f4f 563f 3fee 3c3f 6bcf 523f caa2 6e3f
00000200: d5d4 513f 5fc9 393f bcb6 5d3f 46cd 7c3f
00000210: 4f37 673f 5d0d 803f ef37 513f dfe9 583f
00000220: 7635 513f 4ea7 7a3f 9e1d 513f 6c09 463f
00000230: 09eb 533f 88a0 3d3f eca2 693f cde1 643f
00000240: 60db 1d3f a811 553f 22fd 543f ec41 7c3f
00000250: 7b0c 693f 2fce 2f3f 0f82 493f 6b11 463f
00000260: 4868 503f 3f57 5b3f 354c 563f cfc6 7c3f
00000270: 7112 5d3f 2869 4e3f 9147 743f 35f0 443f
00000280: 4034 643f c9f5 733f c373 3c3f c759 733f
00000290: 4e21 3e3f c5d9 533f cb93 403f 90d4 843f
000002a0: d40c 213f 58f3 743f 85d3 703f 4093 7b3f
000002b0: 6a4f 473f dfbf 4d3f 1e8e 733f 5d09 443f
000002c0: 781b 633f ad0e 4a3f 375c 243f 6cbf 503f
000002d0: 2fa9 5b3f 6880 863f 23bd 5a3f ddab 5c3f
000002e0: 7a24 683f 66be 783f 3270 633f 808e 453f
000002f0: 3dd0 513f 20a9 723f 5f1e 543f 08cf 553f
00000300: 98f4 5b3f 733f 5a3f de63 553f 3804 603f
00000310: 47ea 503f 7c5b 673f 3304 6b3f 76e9 833f
00000320: 0c82 4b3f d364 633f 82fa 3c3f 10b6 573f
00000330: c355 383f 5f96 933f 0646 6c3f ef83 5e3f
00000340: 75b3 593f b46c 5a3f 28c3 4e3f 446b 5c3f
00000350: 71d5 623f be0e 6a3f b45d 3c3f 019b 233f
00000360: 9b95 5f3f b130 783f ff33 4e3f f824 6d3f
00000370: 26be 5a3f bb50 743f c5ad 653f b886 5e3f
00000380: f178 383f bc75 7c3f 4620 6b3f 799a 873f
00000390: daca 673f 990c 753f a1c1 433f 4772 4a3f
000003a0: 48b3 5b3f 5aa7 4b3f 31bd 433f b3c9 6f3f
000003b0: 1333 663f 8856 653f aa1f 453f 4f1a 743f
000003c0: 7d5d 773f ec2d 523f 5cde 6e3f 898e 663f
000003d0: 128a 6e3f 69c2 763f ec92 5f3f 2612 5e3f
000003e0: 31a4 533f 909d 5e3f 4679 813f 69c6 683f
000003f0: 8a42 603f fa38 3e3f ffbf 573f f49d 613f
0.79331475 0.8409502 1.1351384 0.85598457 0.93274766 0.94881433 1.078951 0.82760525
0.94886225 1.0008762 0.8227555 0.9717784 0.7931356 0.771353 0.6066949 0.95783
0.7523462 0.8517916 0.80397564 0.8109561 0.8711696 0.8931793 0.85750985 1.0522933
0.844793 0.86416036 0.7839286 0.9756206 0.8783131 0.7183201 0.8000651 0.7376509
0.79910177 1.015046 0.8045812 1.0222235 0.92235583 0.75107944 1.0109465 0.9352068
0.69588435 1.0187465 0.9250731 0.7171471 0.8363053 1.1062381 0.8630986 0.9818787
0.987808 0.942852 0.7385369 0.72009605 0.821298 0.90000093 0.73470646 0.87694365
0.81493944 0.90969414 0.7221502 0.78976256 0.97418225 0.878125 0.8593455 0.9287137
0.90568656 1.1189511 0.8473545 0.9410398 0.92295784 1.0235265 0.88412917 0.754912
0.75570124 0.6001592 0.7997475 0.79535437 0.9697508 0.9187417 0.85403705 0.8266881
0.8828687 1.0119836 0.7952835 0.935965 0.8424564 0.9036406 0.9997038 0.8074076
0.8520828 0.9082674 0.9150001 0.8751596 0.92639595 0.95886624 0.808965 0.7340982
0.7584282 0.84135866 0.6680697 0.9714153 0.76931494 1.0299636 0.9207532 0.90344584
0.7892827 0.93080306 0.8133361 0.97546357 0.9534272 0.6290401 0.87566096 0.890194
0.8058434 0.7963677 0.6247121 0.9670524 0.82478213 1.0197823 0.9096151 0.75032
0.79209435 0.827983 0.80977327 0.971218 0.8371486 0.73801035 0.82347745 0.93217146
0.8196538 0.7257289 0.86606956 0.9875072 0.9031877 1.0004078 0.8172597 0.8473186
0.817222 0.97911537 0.8168582 0.77358127 0.8278051 0.74073076 0.91264224 0.89407045
0.61662865 0.83230066 0.8319875 0.9853809 0.9103467 0.68673986 0.7871408 0.7737033
0.8140912 0.8568 0.8371003 0.9874086 0.86356264 0.80629206 0.954217 0.76929027
0.8914223 0.95296913 0.7361414 0.95058864 0.7426957 0.82754165 0.75225514 1.0377369
0.629102 0.95683813 0.94072753 0.9827156 0.7785555 0.803709 0.9513873 0.7657679
0.8871379 0.78928643 0.6420321 0.81542087 0.8580503 1.0507936 0.8544485 0.8619974
0.9068066 0.97165525 0.8884307 0.7717056 0.8195837 0.94789314 0.8285884 0.8351903
0.85920095 0.85253066 0.8335551 0.8750644 0.8160748 0.9037397 0.9180328 1.0305622
0.7949531 0.8882572 0.73819745 0.8426218 0.7200586 1.1530265 0.9229435 0.86920065
0.85039455 0.8532212 0.80766535 0.86101174 0.88606936 0.91428745 0.7358048 0.6390839
0.87337655 0.969493 0.8054809 0.92634535 0.85446393 0.95435685 0.89718276 0.86924314
0.7205954 0.9861715 0.9184612 1.0594016 0.905439 0.9572235 0.7646733 0.79080623
0.85820436 0.79552233 0.7646056 0.93667144 0.89921683 0.8958516 0.7700144 0.95352644
0.96627027 0.8210132 0.93308043 0.9006124 0.9317943 0.96390396 0.8733356 0.8674644
0.8267241 0.8695917 1.0115135 0.9092775 0.8760153 0.7430569 0.8427734 0.8813164

bias f4 [256]
00000000: 7f23 3ebe d8ba 17bf 8a74 d5be 7152 0ebf
00000010: 1b0e ebbe a64d 08bf 90b9 edbe 1b4c 9dbe
00000020: d4f9 0cbf c531 f2be e449 17bf d749 25bf
00000030: be12 dcbe e271 38be a868 bebe 5a4a 12bf
00000040: 7de5 bbbe 2db0 f1be 3473 d1be 8f66 d6be
00000050: 56bb 15bf d6f1 05bf cdac 02bf 8aaa dbbe
00000060: 6b94 1dbf 3941 93be 857d 11bf 4021 1dbf
00000070: 22c8 07bf 5358 adbe 6324 17bf 2454 c3be
00000080: f0e9 04bf 6864 1ebf 1691 d0be f358 11bf
00000090: 86e4 92be 9465 01bf b593 13bf c315 04bf
000000a0: fdc5 2ebe e01c d2be 2cf7 13bf 29e5 a7be
000000b0: 070a d4be 362f febe 45b1 b2be 1c70 2abf
000000c0: fa80 e5be 40da 11bf f851 e3be 170b 89be
000000d0: 3a3a 22bf b470 2fbf dc38 d5be 05c8 b1be
000000e0: e0ad 96be ef76 89be ef28 1abf 0e0c fcbe
000000f0: fa8a 06bf bd29 1bbf a70b 99be 6448 00bf
00000100: c9ce 19bf 01df 0dbf f988 f9be 45fa 03bf
00000110: 5f46 1cbf 9c7f 17bf 9ea2 edbe f1c7 ccbe
00000120: c47d 26bf 209f d5be a904 16bf c6dd 0cbf
00000130: 532f 0cbf 8038 b7be cf63 26bf 4362 edbe
00000140: 3d05 0abf ebdb 29bf d96f 07bf 8607 0dbf
00000150: 08d6 00bf d702 f4be 3968 cfbe 1613 1cbf
00000160: 4ca5 fcbe 274d f2be cb6b febe eaf8 c0be
00000170: 2374 1bbf 4f4a b6be 53ca 19bf 86dd 85be
00000180: f2c1 1dbf 5220 b8be b8fd 02bf a7b8 95be
00000190: a497 03bf 865e 1bbf 6b8c dcbe 457a 2fbf
000001a0: 6617 84be 0dba 09bf 0b2e 29bf c00b e4be
000001b0: a5b9 0cbf 1ac8 6bbe c622 e7be d74b 06bf
000001c0: d5ba cbbe 7297 25bf e0b7 33bf 90fb d8be
000001d0: f229 9abe b29c e5be 0288 06bf d484 febe
000001e0: e662 dfbe 75df 29bf 1721 98be 5a6f 02bf
000001f0: 0e2e d1be c148 dabe f1e0 40be 0d3f 27bf
00000200: 9d3c d1be 1394 12bf 6d5a ebbe d0f2 17bf
00000210: fa1a d9be bf9c 19bf 5982 0fbf 1f2b d3be
00000220: ee86 d8be 6068 efbe 9665 c6be 751c e2be
00000230: 015b 89be 0323 d0be 6e1f 19bf 8ffb e8be
00000240: cd34 8fbe ae7d 86be 2365 e0be 6687 e7be
00000250: 3f86 afbe ad18 0cbf 127d dabe 17d4 ccbe
00000260: 57ff cdbe 5d86 28bf 56a0 08bf d139 19bf
00000270: c755 f2be b65d 0fbf badd 39bf f41a 2ebf
00000280: 7dcc 05bf e69a 22bf 791b 30bf 655c 22bf
00000290: 1bb3 9ebe 6e9f 3cbf 44ea b3be 4fb6 d4be
000002a0: 5095 d7be b5aa eabe aba2 28bf e553 afbe
000002b0: 96a0 abbe 016f e5be 3716 c9be a861 98be
000002c0: 0ccf 1cbf 8912 51be 2387 01bf 60f8 d1be
000002d0: 5961 c8be 11b3 10bf 0893 17bf e670 babe
000002e0: f3a3 9bbe 91e8 e3be afa9 e6be 80f3 e4be
000002f0: 6ffa 0abf a0d5 ffbe 45d3 fabe a621 85be
00000300: 3381 0abf 6c69 a1be db6f 02bf f8c4 01bf
00000310: d137 d2be 8f0c 0ebf 4e35 90be 39ce 42bf
00000320: 34b6 fbbe ab13 3abf b2d0 0ebf 0e2a c2be
00000330: f88d ecbe 794f 15bf d95a 15bf e9aa 4dbf
00000340: 3721 eebe 78fb 25bf 445d 0cbf 79bf 0bbf
00000350: b52c bebe b2a5 05bf c695 20bf 8623 ebbe
00000360: 93db 2cbf 79a4 0abf 569c d3be 0280 27bf
00000370: 59bf 2bbf 4819 04bf 6b44 16bf a5b8 e8be
00000380: 72ff cabe 15dc 38bf e841 1ebf b528 07bf
00000390: c47a 2fbf ebd5 2cbf 6d53 00bf ecc9 0bbf
000003a0: faeb 17bf 75c7 d0be 1095 fcbe d1df f6be
000003b0: 0f82 0fbf 9d22 febe 440b cdbe 9173 0abf
000003c0: 4311 27bf 24de 18bf 998e 0abf 3133 0cbf
000003d0: e821 1fbf a2bc 03bf a13e 1ebf adbe 07bf
000003e0: 6b61 b7be df6c fabe 7a8b 14bf dcdb 1abf
000003f0: 1a01 81be b9b2 0ebf 98e2 c1be f219 cbbe
-0.18568228 -0.59269476 -0.41690475 -0.55594546 -0.459092 -0.5324348 -0.46430635 -0.30722126
-0.5506871 -0.47303596 -0.59097123 -0.64565796 -0.4298305 -0.18012193 -0.3718922 -0.571447
-0.36698523 -0.47204724 -0.40908206 -0.4187512 -0.58488977 -0.5232214 -0.51044923 -0.42903548
-0.6155459 -0.28760698 -0.5683215 -0.6137886 -0.53039753 -0.3385645 -0.59039897 -0.38150132
-0.5191946 -0.6187196 -0.40735692 -0.5677635 -0.28689975 -0.5054562 -0.5764726 -0.51595706
-0.17067714 -0.41037655 -0.5779903 -0.32792023 -0.414139 -0.49645394 -0.3490087 -0.66577315
-0.44824964 -0.5697365 -0.44398475 -0.26766273 -0.63370097 -0.68531346 -0.41644943 -0.34722915
-0.2942953 -0.26848552 -0.6021871 -0.49227947 -0.5255581 -0.6061056 -0.29891703 -0.5011046
-0.60081154 -0.554184 -0.48737314 -0.51553756 -0.6104488 -0.5917909 -0.4641313 -0.39996293
-0.65035653 -0.41722965 -0.5860086 -0.550259 -0.5475971 -0.35785294 -0.64996046 -0.4636403
-0.53914243 -0.66351193 -0.5290504 -0.55089605 -0.50326586 -0.47658417 -0.40509203 -0.6096662
-0.49344862 -0.47324488 -0.49691615 -0.37689906 -0.60724086 -0.35603568 -0.6007435 -0.2614557
-0.6162406 -0.35962158 -0.51168394 -0.2924244 -0.5140326 -0.60691106 -0.4307588 -0.68545943
-0.25799102 -0.53799516 -0.6608588 -0.44540215 -0.5497077 -0.23025551 -0.45143718 -0.5245947
-0.3979098 -0.6468421 -0.70202446 -0.42379427 -0.30110127 -0.44846112 -0.5255128 -0.49710715
-0.4363014 -0.66356593 -0.29712746 -0.5095116 -0.4085545 -0.42633632 -0.18835808 -0.6533058
-0.40866557 -0.57257193 -0.45967427 -0.5935488 -0.42403394 -0.600048 -0.5605827 -0.41243836
-0.42290443 -0.4675932 -0.3874938 -0.44162336 -0.26827243 -0.40651712 -0.5981358 -0.45504424
-0.2796997 -0.2626776 -0.4382716 -0.45220488 -0.3428211 -0.5472515 -0.42673546 -0.40005562
-0.4023387 -0.6583002 -0.53369653 -0.59853846 -0.47331068 -0.56002367 -0.7260395 -0.6800988
-0.5226515 -0.63517606 -0.6879192 -0.6342223 -0.30996022 -0.7368077 -0.35139668 -0.4154534
-0.42106104 -0.45833364 -0.6587321 -0.34243694 -0.33520955 -0.44811252 -0.3927476 -0.29762006
-0.6125343 -0.20417227 -0.5059683 -0.41009808 -0.3913677 -0.56523234 -0.59208727 -0.3641426
-0.3039852 -0.44513372 -0.45051333 -0.44717026 -0.5428838 -0.4996767 -0.4898931 -0.26002234
-0.5410339 -0.31525743 -0.5095193 -0.50691175 -0.4105821 -0.5548791 -0.28165668 -0.7609592
-0.49162447 -0.7268626 -0.55787194 -0.3792271 -0.46202064 -0.5832439 -0.5834175 -0.80338913
-0.46509716 -0.64836836 -0.5482981 -0.5458904 -0.37143484 -0.52205956 -0.62728536 -0.4592554
-0.67522544 -0.54157215 -0.41330212 -0.654297 -0.6708885 -0.51601076 -0.5869815 -0.45453373
-0.39648014 -0.7221082 -0.61819315 -0.5279649 -0.685467 -0.6751391 -0.501273 -0.54604983
-0.59344447 -0.40777174 -0.49332476 -0.48217633 -0.5605783 -0.49635783 -0.40047657 -0.5408259
-0.65260714 -0.5971396 -0.54123837 -0.5476561 -0.6216111 -0.51459706 -0.61814314 -0.53025323
-0.35816512 -0.48911187 -0.58025324 -0.6049173 -0.25196153 -0.5574146 -0.3786819 -0.39668232

running_mean f4 [256]
00000000: c3c1 6f3d 8ce0 dcbd 9b2c 143e 470f 15bd
00000010: 569d 37bd 3075 053e e768 0cbe e23c d0bd
00000020: 9c19 5dbd 1bf8 e93d a9ee a43c 0a4c e3bd
00000030: 9ed6 d4bb 655a f3bd bc72 083e be7f 05be
00000040: a739 da3b af84 6abd 3dc4 fdbd 0781 d13d
00000050: d123 a9bd 021e 9d3d 4f76 493c 99c4 dabc
00000060: c78f ffbd 0c64 0e3d 2248 88bc a1e6 113e
00000070: 1549 b13a fac8 033e f522 d63d 90b9 a53c
00000080: 5659 66bd 3431 f7bc 0111 fdbd e949 c23d
00000090: a4df 523c c957 14be 5a05 e8bd 070d e8bd
000000a0: 86e2 a63d c485 1a3d d318 bd3d 0524 c13d
000000b0: c567 073c b1a5 343e 508f 023e bca9 883d
000000c0: 5abe b63d 1909 b7bd fa8c efbd 9f08 e5bd
000000d0: 22a8 8d3d e462 1a3d d33c 0f3e d3e0 17be
000000e0: dfb8 ba3d a1a8 dc3d b0e5 86bc 3373 623c
000000f0: 6ec1 4bbd 1fe9 c2bb 8fd2 fabd a0b1 d0bc
00000100: 449e ffbd 0a61 cabc 92d7 9cbc 1edf 9ebd
00000110: 1d0a 65bd de61 80bd e510 46bb c930 053d
00000120: 7ec1 e0bd bcdb 533d 8c5b 63b9 6693 17be
00000130: 438c ad3d b1fd 1d3d 5632 8a3d 4b09 0abd
00000140: d649 9ebd 1f69 cbbd 9999 573d f9fb e7bd
00000150: 8f68 de3c ecfe 35bd 2255 d3bb a6f5 1d3d
00000160: 19fa 3c3d fb80 8b3d 3a73 0bbd 0ae8 1f3e
00000170: 6259 af3d 628d 44bd 9235 603d 0027 52bd
00000180: 147a 9dbd 841a f2bd 7487 273e 5716 16bd
00000190: de88 ab3d 4e82 7a3c e46b d43d cbf1 053b
000001a0: 6736 f4bd db24 6fbc 88b6 2f3d b9bf 83bd
000001b0: cbb8 b33d 0d04 093e 2d8f 153e c2bf 1abd
000001c0: cdfa 4b3b a1d9 1fbe f458 853d 567f 3d3c
000001d0: 8c4c a03d ad4f 99bd b7cc cfbd 4b5a 8fbd
000001e0: dcd0 eebd e199 68bd 092e 9a3d 3b00 d93d
000001f0: 89ec 64bd 5cf3 273c e959 e7bb 6eb1 e1bd
00000200: 5407 0d3e 1d48 eb3d f10c a1bd 2f86 0d3e
00000210: e40f b53d 2ab0 e4bc 2f2d 1e3e c362 643d
00000220: 8861 a8bd 286a ba3d 6a47 b0bd 14a6 a23d
00000230: f08f f13d 15dc c3bb 7c39 c93d fff9 11bd
00000240: 49b3 e43b 9015 a83b 51d6 d7bd 8633 113e
00000250: 70ea e4bd e449 87bd af92 243e 71fe bb3d
00000260: 93aa f63d 047b 04be a5de d83d d13a bb3c
00000270: f090 363d 8ff9 263a c680 1e3e 01fb fe3d
00000280: 6606 dc3d 70f1 f43c 07a8 c43d a4c1 4e3d
00000290: 1144 0d3e abe0 113d 4160 4c3d 905e 533d
000002a0: 0c2b 2a3e e74f c7bb 047f a2bd 0327 42bc
000002b0: fa2f 133e e239 71bd 1d21 12be 42bf 5dbd
000002c0: 8215 e0bd 3e63 bfbd 52d1 12be 7806 a23c
000002d0: 625c 08be 9aad 2ebe c6d5 943d b3d0 be3d
000002e0: a672 5abd 1877 443d 34e8 bfbd e646 913c
000002f0: 80d9 133e 23dd 973d c063 a93d 0f6a 023e
00000300: 5e09 fcbd 0912 003e ba37 bfbd 11c4 383e
00000310: 07d9 3dbd 3a73 cb3d 5379 893d b5df 0f3d
00000320: 2bce 843c 6316 09bd 7812 d43d ae0f 49bd
00000330: 26f1 143e 0bfb e4bd b774 2c3c 0024 8bbd
00000340: 4c58 48bd aab1 a1bb 45ed d5bd a62d 69bd
00000350: 2ef9 f3bc 1e84 123e ad8d 273e b796 dc3c
00000360: cdb1 ecbd 1ee2 7cbd a8e7 09be 0b64 ed3c
00000370: 9316 ed3d a531 90bd 88f8 8dbd bcad 01be
00000380: 939f dd3d 1ef6 163d 59a1 073e 81e0 3dbd
00000390: 885e d33c 34fe 7dbc 4e59 173c 7edf f83d
000003a0: e6c2 053e e2ee 94bd 91fb febd 2133 bebd
000003b0: f24d 3ebd 6ab7 46be d310 e13d b4bc 93bd
000003c0: d148 0a3e bde4 8e3d 89cc fbbd 26fc ffbd
000003d0: 7512 213e b112 a6bd 7caf 47bd 1b5b 8dbd
000003e0: c19c 773d a558 86bd c0b7 303c c861 a4bd
000003f0: 754c 03be b2f5 093e 09b9 103e 8e10 ce3c
0.058534395 -0.107850164 0.1447014 -0.036391523 -0.04482778 0.13032985 -0.13711892 -0.101678625
-0.0539795 0.114242755 0.020133333 -0.11098488 -0.006495311 -0.11882476 0.13325018 -0.13037011
0.0066597047 -0.057255443 -0.12390945 0.10229688 -0.082587846 0.07671739 0.012296273 -0.026705073
-0.12478595 0.03476338 -0.016635958 0.14248134 0.0013525808 0.12869635 0.10455886 0.020230085
-0.05623754 -0.030174829 -0.12356759 0.094867535 0.012870703 -0.14486612 -0.11329146 -0.1133061
0.08148675 0.037725225 0.092332505 0.09430698 0.008264487 0.17641331 0.12749982 0.06672999
0.089230254 -0.08937282 -0.11696811 -0.11183285 0.069168344 0.037691966 0.13988046 -0.14831857
0.091172926 0.10774351 -0.016466945 0.013821411 -0.049745016 -0.0059482004 -0.12247192 -0.025475323
-0.12481359 -0.024704475 -0.01914576 -0.077574 -0.055917848 -0.06268667 -0.0030222472 0.03251723
-0.10974406 0.051723227 -0.00021682511 -0.14802322 0.084740184 0.038572017 0.06747882 -0.03370027
-0.07728927 -0.0993216 0.052636717 -0.11327357 0.027149467 -0.044432566 -0.0064493576 0.038564347
0.04613695 0.068117104 -0.034045435 0.1561586 0.0856197 -0.047986396 0.05473859 -0.051306725
-0.076893 -0.11821464 0.16360265 -0.0366424 0.08375715 0.015289856 0.10372141 0.002043831
-0.11924439 -0.014596189 0.042898685 -0.064330526 0.08775481 0.13380452 0.14605398 -0.03778053
0.003112483 -0.15610363 0.06511107 0.011566004 0.078271 -0.074859 -0.10146468 -0.06999644
-0.116609305 -0.056787375 0.07528312 0.10595747 -0.05588964 0.0102508925 -0.0070602787 -0.1102017
0.13772327 0.11488364 -0.078637965 0.13820718 0.088409215 -0.027916033 0.15446924 0.05575825
-0.082217276 0.09102279 -0.08607371 0.07941833 0.11795032 -0.0059771636 0.098254174 -0.035638805
0.0069793803 0.0051295236 -0.105389245 0.14179811 -0.11177528 -0.066058904 0.1607158 0.0917939
0.12044253 -0.12937552 0.10589341 0.022855194 0.044571817 0.00063695846 0.1547881 0.12450219
0.10743408 0.029900283 0.09602361 0.05047764 0.13795497 0.03561465 0.049896482 0.051603854
0.16617984 -0.006082523 -0.079343826 -0.011850121 0.1437377 -0.058893092 -0.14270444 -0.054137476
-0.10941602 -0.09345101 -0.14337662 0.019778475 -0.13316491 -0.17058411 0.072673365 0.0931715
-0.053331994 0.04796514 -0.09370461 0.017734002 0.14438438 0.07415225 0.08270979 0.1273577
-0.12306474 0.1250688 -0.09336801 0.18043543 -0.04634955 0.09934087 0.06712594 0.035125453
0.01621159 -0.033468615 0.10355085 -0.04908722 0.14545116 -0.11180695 0.010525874 -0.06793976
-0.04891233 -0.0049345093 -0.10445646 -0.0569283 -0.029781904 0.14308211 0.16362639 0.026927335
-0.1155735 -0.06173908 -0.13467276 0.028978368 0.11576571 -0.07040719 -0.06932169 -0.1266393
0.10821452 0.03685581 0.13245143 -0.04635668 0.025801912 -0.015502501 0.0092376005 0.12152003
0.13062629 -0.07272126 -0.12450326 -0.09287096 -0.046461053 -0.19405904 0.10989537 -0.07213727
0.1350434 0.06977222 -0.12294871 -0.124992654 0.15729697 -0.08109034 -0.04875134 -0.069021426
0.060452227 -0.06559876 0.010785997 -0.08026463 -0.12822135 0.13472632 0.14133085 0.025154378

running_var f4 [256]
00000000: 117e eb3f f0ca 103f 2f60 b740 999d 333f
00000010: 3c45 5a3f 327a c23e ed68 c740 3eab d83f
00000020: ac64 893e 26b2 c53e b28c 373e 0f7c 823e
00000030: 19de 053f 1225 813f 3702 8240 b549 943e
00000040: 12ca 463f 5629 0c3f d57e 1a3f 2a5a fa3d
00000050: 12f9 313f 819e 8f3e 7cd1 743f 0230 353e
00000060: 8542 9a3e 46c2 533f 7cc2 d33e c6f1 353e
00000070: 2731 753e bf11 4c3f aa07 df3e e869 8d3e
00000080: af2f 903e 668b 4a3e f467 3c3f 41a9 123f
00000090: 6b4c 2a3e a214 f23e 5ca4 e23e 3a31 733f
000000a0: 63b2 093f d3d8 d43e 7735 5d3e 7911 0d3f
000000b0: be0c b43e 11c5 1a3e b142 bb3e 3d1b f13e
000000c0: 6c76 d540 cff9 353e 95be a63e b130 ad3f
000000d0: 0ccd 9c3f 8449 663e 263e 4f3f cc49 f53e
000000e0: b023 593f f327 223e 1414 313f 86dd 983f
000000f0: 2002 dc3f f319 873f 1317 ec3d 21e2 123f
00000100: 4e24 1f3f e966 6e3e 2dab 8f3f 67d3 273e
00000110: 3e75 203f bd09 1e3f 5226 0b3f 503e 8f3f
00000120: 55c7 bb3f a8c8 923f b3a5 b23e 84d9 eb3e
00000130: 3825 d63e 67be a040 e937 363f 5461 ef3f
00000140: 1169 2d3f e055 a13e 6b49 4f3e 0dd8 f93e
00000150: 3489 a73e 5a95 d63e c57c db3e 0c3a 0c3f
00000160: 622d 7c3e a700 3e3f 5923 963e 1962 963e
00000170: 140d 1b3f 50f7 8a3e c8cf af3e d311 5b3e
00000180: 90fa a93e a099 7440 8c28 6340 4ddc 543f
00000190: 0c62 1b3f 0c8a 7c3f b2e6 053f 0501 fe3d
000001a0: e3ac 203e ca4b 143f 32cd d03e a14a 0d3f
000001b0: 775b 603e d82d 8740 3823 3a3f 4982 473e
000001c0: 4f1e 3b3f 6cb9 0440 9c76 b33f fb45 2b3f
000001d0: d97a 4c3e f424 463f 086c 823e 026e 413f
000001e0: 3b0b 5a3e 26fc 8d3e e11f d63f cf22 e93e
000001f0: 1753 093f 883b b73e 9702 c33f 8747 573e
00000200: ce24 283f c62c bf3e 493d b53f 978b b73e
00000210: b093 123f 4b04 b63e 363e 013f 6cfc ce3f
00000220: 4c20 923e 0f59 e13e 3947 093e a4c2 883e
00000230: 7183 ec3f 1dca c23f c494 f73e a890 883e
00000240: fd4b 0141 497c de3f 5ba1 4d3f b7b0 f43f
00000250: 8e6d a23e cc77 e63e b804 5b3f 8892 003f
00000260: bd43 f33e c910 903f fbc7 7a3f d081 863e
00000270: 5759 ce3e c29e 433f 442d 9c3f 1f06 153f
00000280: 6482 fe3e e108 f33e 5b6f 6f3f 89f4 4d3e
00000290: 18aa 163f c406 d73e 5eeb 9b3f 0871 883f
000002a0: 0b10 2340 ebfe 013f 7d67 033e 679f 653f
000002b0: 2954 9e3e ce8b 123f 4f9d b93e 133f a93f
000002c0: bbed 9c3e 7a20 943f d019 443f 6fba 6a3f
000002d0: 092b 843f 0124 c23e 0b5d aa3e 6e62 063f
000002e0: 4d16 083f e57f 803e 13a0 d13e aff9 f03e
000002f0: dff1 bf3e c3be 393f bdbc 243f 2841 f63e
00000300: 843e 123e a189 373e f356 703f 38f9 553e
00000310: 5910 9b3e edf1 583e 233e fb3e 861f b03e
00000320: 02d9 013f 4197 ec3e 808d ef3e d5c9 a03f
00000330: 56f2 cc3e a5d5 f640 3e71 5d3e 8871 cd3e
00000340: 94df 863f 00db e73e d7bf 4a3e 4268 cb3e
00000350: 9d01 873e 71fe 853e 2841 2e3f 62c9 be3f
00000360: 78c0 5c3e e246 a83e 4aae 313e 1ad6 a93e
00000370: 80bf ce3e 827f c23e 740f 973f 3bf8 023f
00000380: 2f01 423f 65c7 083f b37d d53e 40c7 a63e
00000390: c62f b23e fca9 923e c689 ff3e 85bb 2f3f
000003a0: 0cc7 0d3e 942e 3f3f 4e40 6540 5959 dd3f
000003b0: 025f e53e 948e d33e 55d4 3e3f 09da ef3e
000003c0: 2c2e 8f3e 4978 b93e f3c0 0e40 b4ef c23e
000003d0: e372 163f 8935 dd3e a619 973e 8f53 fc3e
000003e0: 240f 6940 f051 c33e e207 5c3e eb53 723f
000003f0: 4955 5440 b30e d73f 5b94 0c40 7108 3840
1.8397847 0.5655966 5.730491 0.7016235 0.85261893 0.37983853 6.2315583 1.6927259
0.2683462 0.3861248 0.17924765 0.25485274 0.5229202 1.0089438 4.0627704 0.28962484
0.77652085 0.54750574 0.6034978 0.12224229 0.69520676 0.28050616 0.9563215 0.17694095
0.30128875 0.8271831 0.41359317 0.1776801 0.23944531 0.7971458 0.43560535 0.27619863
0.2816138 0.19779739 0.7359612 0.5728951 0.16630714 0.47281367 0.4426602 0.9499699
0.5378782 0.41571674 0.21602426 0.55104786 0.35165972 0.15114237 0.3657432 0.47091094
6.670706 0.17771076 0.32567278 1.3530484 1.2250075 0.22488981 0.80954206 0.47907865
0.8482008 0.15835552 0.6917126 1.1942604 1.7188148 1.0554794 0.115278386 0.57376295
0.6216477 0.23281445 1.1224114 0.16389237 0.626789 0.6173361 0.5435535 1.1190891
1.4670206 1.1467485 0.34892043 0.4606439 0.4182527 5.0232425 0.7117906 1.8701577
0.67738444 0.3151083 0.2024285 0.48797646 0.32721865 0.4191082 0.4286863 0.5477607
0.24626687 0.74219745 0.29323843 0.29371718 0.6056683 0.2714181 0.34338212 0.21393518
0.33198977 3.8218765 3.5493498 0.8314865 0.6069648 0.9864814 0.5230514 0.12402538
0.15690951 0.57928145 0.40781552 0.55192 0.21909891 4.224346 0.7270999 0.19483294
0.7309312 2.0738173 1.4020572 0.66903657 0.19968738 0.77400136 0.25473046 0.75558484
0.21293347 0.27731436 1.6728479 0.4553437 0.5364241 0.35787606 1.5235165 0.2102338
0.6568116 0.37338847 1.4159328 0.35848686 0.57256603 0.3555015 0.5048555 1.6170783
0.28540266 0.4401326 0.13406076 0.26711 1.8477613 1.521793 0.48355687 0.26672864
8.081052 1.7381679 0.80324334 1.9116429 0.3172421 0.45013273 0.85554075 0.5022359
0.47512618 1.1255122 0.97961396 0.26270914 0.40302536 0.7641412 1.2201314 0.58212465
0.49708855 0.47467712 0.9352929 0.20112814 0.5885329 0.4199735 1.2181203 1.0659494
2.5478542 0.507796 0.12832446 0.89696354 0.30923584 0.57244575 0.3625283 1.3222374
0.30650124 1.1572411 0.76601887 0.91690725 1.0325633 0.37918094 0.3327411 0.5249394
0.5315903 0.25097576 0.4094244 0.47065493 0.3748922 0.72556704 0.6435049 0.48096585
0.1428166 0.17923595 0.93882674 0.2089585 0.3028591 0.21186037 0.49070844 0.3439905
0.5072175 0.46209148 0.46787643 1.2561594 0.40028638 7.7135797 0.2162523 0.4012568
1.0536981 0.4528427 0.19799744 0.3972798 0.26368418 0.26170686 0.6806817 1.4905207
0.21557796 0.3286658 0.17351642 0.3317116 0.40380478 0.37987906 1.1801591 0.5116002
0.75783056 0.5342925 0.41697463 0.3257389 0.34802073 0.28645313 0.499098 0.6864551
0.13845462 0.7468045 3.5820498 1.7292892 0.44799048 0.41319716 0.7454274 0.46846035
0.27964914 0.36224583 2.2305267 0.38073504 0.58769053 0.43204907 0.29511756 0.492825
3.641549 0.3814845 0.21487382 0.946593 3.3177054 1.6801361 2.196555 2.8755152

weight f4 [128, 256]
00000000: b3b6 453c c9c8 083e ba1f 2fbd 652c 553d
00000010: 48c8 1d3d c63e 913d 9eb8 1d3e 486b a43d
00000020: 8742 153d 25d8 843e 92d1 83bd 3e73 af3d
00000030: 6579 7d3c 41f3 5f3d c224 3b3c 3275 2b3d
00000040: 49c6 073e 67d6 b6be f021 e3bc 37d2 84bd
00000050: cb09 b3bd 8fd6 cabd 8ede 8e3d 6428 133e
00000060: d588 88be 75bf 973d 3fe2 92bc 4bd6 ddbc
00000070: 00de 02be 8f41 27bd 1d83 5ebe 7e68 05bd
00000080: dadc 153e eff9 693e 49bb 363e 45d6 5e3d
00000090: 8739 5cbe 8d8f 783c 5709 913e b9f1 32bd
000000a0: 3b02 9a3c 5abf 483e 9a0d e13e 1c6f 393c
000000b0: de21 a13d 31fb 9c3e a36e 623e 8c8a 4b3d
000000c0: a4b7 fb3d 2963 f0bc 5fb0 cb3d 1df0 cbbb
000000d0: d919 8abd 8814 163d 1aa3 01bd 0ec9 343e
000000e0: 4580 cc3d 8253 db3c 9449 4abe b3b6 e4bc
000000f0: 80fb 29bd 82ea b23b 18da afbd bca5 073e
00000100: 06ec b13c 292e 2e3d 9726 ae3d c9fe b23d
00000110: 7860 e73d 6931 93be cca8 07be 7fef 8cbd
00000120: 3467 f0bd a56d ebbd 85e5 6bbd 5cf4 d73d
00000130: eb1d 9a3d 75d9 4d3d b4b9 0b3d d3d0 9abd
00000140: ff99 1f3e 7126 6b3e 0b8a 1f3d 903a 283e
00000150: e378 34be 341d 72be 323c c63d d064 8cbe
00000160: a31f 8e3d 4947 933e bd20 c73d 1367 543e
00000170: 3104 6d3d af4f a33d 1f1c c0bd e406 f33d
00000180: 7065 68bc 39f3 9ebc 355c d03c 2ba6 1e3e
00000190: 15c6 413e 4f22 35be 0398 88bd a073 cfbb
000001a0: 3bd6 383e 5c3f 033e 16b8 8e3c 98b1 d83d
000001b0: 261e 2c3e 3a52 3dbe b984 94bd ecd8 dcbd
000001c0: 981d b13d eda2 723c 0163 bebd 2fe1 37bd
000001d0: 0913 3f3c d829 d53c af78 b53d c4a3 c1bc
000001e0: 4e33 4d3e 139a 12be c4e8 36bd 39b3 253d
000001f0: 98d4 703e af78 d1bc 0833 c2bd e800 723e
00000200: b974 703d 439a 353e b441 63bc 8a45 933e
00000210: 407e c9bd 16d6 8f3e 556d 713d 85e6 95bd
00000220: 6a39 a13e 2b6d b0bc 25f6 2c3e db1e aa3d
00000230: 9639 7c3d fc90 fcbd aafd d73c ab3e 5a3d
00000240: b375 703d b821 f13d 79df 7a3e 817e 6ebd
00000250: a0b2 dc3d 26a4 2fbe 208c e1bc 9571 00be
00000260: b095 40be 58ed a2bd 9599 ebbc 0dfe 8abe
00000270: 978e 413e cb24 fcbc c450 dbbd efe1 fc3c
00000280: 52b9 103e 0990 4f3e 6831 78bd d47d 8a3c
00000290: 7b47 d6bb fb43 1a3e 2eb9 abbc ac1f 8a3d
000002a0: 060a f93c e310 7e3b 551e 8fbe e05a 6e3d
000002b0: f8df 383e 6c84 6b3e d2d5 d0bd e7b2 f83d
000002c0: 2506 c33d 3760 e63c cce5 59be b576 06bd
000002d0: 4e67 a43d 9cd2 813e bc38 193e 532c 423e
000002e0: 974f ab3d 2459 473e 95e2 a3bd bb1b a0be
000002f0: 8cc9 d03d 7924 acbd 2752 2fbe 078d 39bd
00000300: 1078 37be bf73 01be 6d55 65bd 1d71 76be
00000310: 7217 363e c392 0f3d f6fd 2ebd bf6f 323d
00000320: ff73 9ebe d8dc 5b3d 4f7f 40bd 04da c7bd
00000330: b8ac 29bd 4b0f f13d 06f5 3f3e 8270 e4bc
00000340: d0e8 8ebd d8a3 233d 84ae 4bbe 5a6d e03c
00000350: afe7 5f3e fbc5 5dbe 5de6 8fbd cc72 fc3d
00000360: 300e 58bd a901 f03d e59a ec3d d01e cabd
00000370: 63b6 42be 24b0 a93e 8d77 85be 679b 9a3e
00000380: 5fc5 603c 2d36 a33d 0c64 2e3e 0118 0f3e
00000390: 46cb 64be 5df9 05be dbaa 0d3c 4be7 2e3e
000003a0: 5eaa 20be 418b 1dbd 9b1a 8dbe 3762 c2bd
000003b0: 2af5 613d 4575 503e 06c7 24bc e04b 263e
000003c0: a36a d23d 0d61 1fbe 827e 003e 9c69 ab3d
000003d0: e2c2 603e 6314 1a3e ff8b 053e 4a4e 4bbe
000003e0: 2004 363d 9d07 e6bd e849 2a3e 1746 db3d
000003f0: 5b58 b5bd 8c85 d73d d7d5 f0bd a0e1 9cbd
0.012067485 0.13357843 -0.042754866 0.05204429 0.03852108 0.07092051 0.15402457 0.08028275
0.0364404 0.25946155 -0.06436457 0.085669026 0.015470837 0.054675344 0.011422338 0.041859813
0.13259234 -0.3571045 -0.027726144 -0.06485408 -0.08742102 -0.09904205 0.06976043 0.14370877
-0.26666895 0.074095644 -0.017930148 -0.027079722 -0.12779999 -0.040834006 -0.21729703 -0.032570355
0.1463503 0.22849248 0.17844881 0.054403562 -0.2150632 0.015170944 0.28327438 -0.043687556
0.018799892 0.19604245 0.4395569 0.011317994 0.07867788 0.30660394 0.22112517 0.049692675
0.12290886 -0.029344158 0.099457495 -0.006223692 -0.06743211 0.036640674 -0.031649686 0.17654821
0.09985403 0.026773218 -0.1975463 -0.027919149 -0.041499615 0.0054600844 -0.0858652 0.13246816
0.02171899 0.04252449 0.08503454 0.08740003 0.11297697 -0.28748634 -0.13247985 -0.06881618
-0.117384344 -0.114955224 -0.057591934 0.10544655 0.07525238 0.05025621 0.034112647 -0.07559361
0.15586089 0.22963883 0.038950007 0.1642859 -0.1762424 -0.23643953 0.0967945 -0.27420664
0.06939628 0.28765324 0.09723041 0.20742445 0.057865325 0.07974183 -0.09380364 0.11866549
-0.014184341 -0.019403087 0.025434593 0.15493076 0.18923219 -0.17688869 -0.06669619 -0.0063309222
0.18050472 0.12817138 0.017421763 0.10580748 0.16808376 -0.18488398 -0.07251877 -0.10783562
0.08648223 0.014809352 -0.09296227 -0.044892486 0.011662253 0.02602093 0.08860909 -0.02363766
0.20039102 -0.14316587 -0.044655576 0.040454123 0.23518598 -0.025570242 -0.0948239 0.23633158
0.058705065 0.17734627 -0.013870645 0.28763992 -0.098385334 0.28093022 0.058942158 -0.07319359
0.31489116 -0.02153643 0.16890772 0.083066665 0.061578356 -0.12332341 0.026366074 0.05328242
0.058705997 0.117740095 0.2449931 -0.058226112 0.107762575 -0.17152461 -0.027532637 -0.12543328
-0.18807101 -0.07955426 -0.028759757 -0.2714695 0.1890205 -0.030779263 -0.10708764 0.030869452
0.14133194 0.20269789 -0.060593992 0.016905703 -0.006539283 0.15064995 -0.020962324 0.06744322
0.030400287 0.003876739 -0.2795283 0.058192134 0.18054187 0.22999734 -0.10197033 0.12143498
0.09522656 0.02812205 -0.21279067 -0.03282805 0.08027516 0.25355995 0.14963049 0.18962221
0.0836479 0.19467598 -0.080022015 -0.31271157 0.10194692 -0.08405394 -0.17121182 -0.04530051
-0.17916894 -0.1264181 -0.05598967 -0.24066587 0.17782381 0.035052072 -0.042722665 0.0435636
-0.30947873 0.05367741 -0.04699641 -0.0975838 -0.041424483 0.11770495 0.18745813 -0.02788568
-0.06977999 0.039951175 -0.19890791 0.027395893 0.21865724 -0.21657555 -0.0702636 0.12326583
-0.052747905 0.11719067 0.11552981 -0.09869158 -0.19014888 0.33142197 -0.26067773 0.30196688
0.013718932 0.079693176 0.17030352 0.13974 -0.22343168 -0.13083406 0.008646692 0.17080419
-0.1568999 -0.03846288 -0.2755936 -0.09491389 0.055165447 0.20357235 -0.0100572165 0.16239882
0.102742456 -0.15564366 0.12548259 0.08369753 0.21949342 0.1504684 0.13041686 -0.19854084
0.044437528 -0.11231921 0.16629755 0.10706728 -0.08854743 0.10523519 -0.11759537 -0.07660222

bias f4 [128]
00000000: 80bb 74bd 6515 2f3c 7701 733c d775 d83c
00000010: 9f00 453d a885 82bd 993a 4fbb 8f36 ab3c
00000020: 7943 0f3d 66c6 22bd 6ca0 b9ba 9503 c53b
00000030: 3755 67bc 0a50 793d 6026 84bd cc7a f43c
00000040: 2ccb a23c 9d3a 94bc b150 65bd c559 bfbc
00000050: 7405 163d fa26 523d 597b 32bd be0a 23bd
00000060: d351 113d 2250 67bd e3f5 40bd 1731 b2bc
00000070: 609f 7f3d bb65 1a3d 8733 023d 5ba9 52bd
00000080: 2a97 4f3c 1366 04bd e216 223d daaf 343d
00000090: aecc e03c aef2 4f3d fcbe 07bd 4f29 5ebd
000000a0: f6d2 4dbd e966 6b3d 03a2 d23c 5f65 a33c
000000b0: e061 f53c bb75 1c3d 7d08 eab9 d151 85bc
000000c0: 0f8b a2bb 3d13 b0bb 6299 63bc ef8e ce3c
000000d0: df53 2cb9 f4a6 e0bc 4060 c7bc 9783 c6bc
000000e0: 8d62 33bd c7b3 fd3c c958 72bd 75d2 97bc
000000f0: 6363 3c3d eca0 68bd d59d ab3b d13f 3cbc
00000100: 2c65 06bd bdb3 32bd f6c3 2abc 5e0d b03a
00000110: ec8a 983c 51c2 b4bb 3e83 86bd c565 2c3c
00000120: 8dd0 1cbc 18fb 5c3c ca60 6b3c f00f 4abd
00000130: 4993 a3bc b5b0 7fbd 49d1 86bd 4eec 76bd
00000140: cd5b 06bd d746 ebbc c225 083d 0a85 5c3d
00000150: be61 4ebd 22b6 35bd 5ba2 3dbd 6162 48bd
00000160: d388 bcbc 0b6b 4fbd dc4a 24bc b09a 19bd
00000170: 5717 13ba 28e5 82bb 665d 20bd aef0 3d3d
00000180: 563b bfbc b5ba 583d 7d62 86bd f8dc dc3b
00000190: b262 96bc 5108 fa3b 32f9 553d 8588 183d
000001a0: d71f a73c c7c0 28bb fcf1 203d 24e4 e5bc
000001b0: b114 f6bb e7ee 5e3d ad50 04bd 2bed 123a
000001c0: 60bd f1bc 8ac6 103d 2a07 db3c 6697 aabc
000001d0: a915 9a3b 06e4 163c 8384 ff3c 591b 0e3d
000001e0: ce55 21bc 43c4 ecbc ac5e 10bb 96a5 033b
000001f0: 420c 8c3d a687 4cbc 4c9a 8cbc 7ef6 20bd
-0.059749126 0.010686253 0.014831892 0.026423378 0.048096295 -0.06373149 -0.003162062 0.020900039
0.034976456 -0.03973999 -0.0014162189 0.00601239 -0.014119438 0.060867347 -0.06452632 0.02984371
0.01987227 -0.018094355 -0.055985156 -0.023358235 0.036626294 0.051306702 -0.043574665 -0.039805166
0.035478424 -0.056472905 -0.047109496 -0.021751923 0.06240785 0.037694674 0.03178742 -0.05143104
0.012670318 -0.032323908 0.039572604 0.044113018 0.027441349 0.050768547 -0.03314112 -0.054238614
-0.050250016 0.05747119 0.025712019 0.019945798 0.029953897 0.038198214 -0.00044638282 -0.016274365
-0.0049604247 -0.005373387 -0.01389155 0.02521464 -0.00016434443 -0.02742336 -0.024337888 -0.024232669
-0.043795157 0.030969514 -0.059166703 -0.01853297 0.04599322 -0.056794092 0.005237321 -0.011489824
-0.03281133 -0.043628443 -0.010422697 0.0013431718 0.01862093 -0.0055163284 -0.06568001 0.010522311
-0.009571207 0.0134876 0.014366338 -0.049331605 -0.019967692 -0.06242438 -0.06582887 -0.06028395
-0.03280239 -0.028720303 0.033239134 0.053837813 -0.050386183 -0.04436315 -0.046297412 -0.048921946
-0.023014462 -0.050639194 -0.0100276135 -0.037501037 -0.0005611083 -0.0039946027 -0.03915157 0.04637211
-0.023343723 0.052912433 -0.06561754 0.0067402087 -0.018357608 0.007630386 0.052239604 0.03723957
0.020400925 -0.002574967 0.039293274 -0.028062887 -0.007509791 0.054427054 -0.0323035 0.0005604799
-0.029509246 0.03534559 0.026736815 -0.020824146 0.004702289 0.009209638 0.031191116 0.03469405
-0.009847118 -0.028902179 -0.0022029085 0.002008771 0.068382755 -0.012483513 -0.017163418 -0.039297573

weight f4 [128]
00000000: e8ea ca3f 668f b93f bf85 ba3f ce8e a73f
00000010: af60 a83f 96ce a33f 4270 af3f 889f c23f
00000020: 1eb0 963f 5381 b63f d4a9 c83f 96c7 bf3f
00000030: 80b7 c33f c56c c43f c875 bb3f 68be c53f
00000040: 36df 963f f5a9 b83f 8d6a b33f 63ff b03f
00000050: 6652 ad3f 74ce d53f 1a05 ac3f e752 a93f
00000060: d1a6 b83f 062c c13f 24c2 ca3f f001 af3f
00000070: edcd a63f db2c c03f b7e4 bc3f a86b a33f
00000080: 2143 b53f f971 af3f c5e7 d33f ec4f b43f
00000090: 6d4d a33f 4021 a03f f1ed b53f 96f0 b93f
000000a0: a321 bd3f fa55 b13f 4909 b13f 79c9 b43f
000000b0: 7bc4 9c3f fab2 c23f 8c3a c93f bffd c43f
000000c0: e610 a93f 5f2a ba3f 9be6 c33f 68c7 bd3f
000000d0: b9b7 ad3f be28 bd3f 0b33 a43f 979e a93f
000000e0: ac4c bc3f 0b50 b83f 2e07 c13f 5095 bd3f
000000f0: 8891 c03f 7f04 a83f d848 c33f cafa a23f
00000100: fe80 b73f bf75 b63f 38dc b63f 934c be3f
00000110: 61c6 a43f aed8 a63f 460a c83f 46bc c73f
00000120: 0e15 b13f df54 ca3f d710 b73f d277 b43f
00000130: 5391 b13f b80a b73f 61ad b83f 5649 b43f
00000140: d321 cb3f 051c b73f 0af0 bc3f 78df b13f
00000150: 0090 b63f d2ca a53f 5c53 aa3f 189b bc3f
00000160: e197 ab3f f5b0 c53f 88ab bd3f 1f39 b83f
00000170: c00f c33f 095f b83f 1c05 bf3f 5af1 c03f
00000180: eb17 9b3f e4b6 a63f ebaf a53f 3ac7 ae3f
00000190: 9a8d ac3f d811 a63f 60fb ba3f 2e7a c23f
000001a0: da49 ad3f 7033 ab3f 0446 ab3f f603 9e3f
000001b0: 3c08 b33f 92d6 aa3f 6354 af3f 4367 a93f
000001c0: b48c cf3f 2778 ad3f a584 bd3f 2d9e a43f
000001d0: 0f46 b73f abfb a03f e622 c33f 7c0c c23f
000001e0: fd50 c03f 2715 b23f 0b66 b43f 2722 a53f
000001f0: a451 a63f 07b5 b43f 81c6 a13f ac2e a33f
1.5852938 1.4496887 1.4572066 1.3090456 1.3154505 1.279742 1.3706133 1.5204935
1.1772497 1.4258217 1.5676827 1.4982784 1.5290375 1.5345694 1.4645319 1.5448732
1.1786869 1.4426867 1.4016892 1.3827938 1.3540771 1.670363 1.3439057 1.3228425
1.4425908 1.509156 1.5840497 1.3672466 1.3031594 1.5013689 1.4757298 1.2767229
1.4161111 1.3706657 1.6555105 1.408689 1.2758003 1.2510147 1.4213239 1.4526546
1.477589 1.3854363 1.3830959 1.4123985 1.2247461 1.5210869 1.5720992 1.5389937
1.3208282 1.4544181 1.530475 1.4826479 1.3571693 1.4778059 1.2828077 1.3251523
1.4710898 1.4399427 1.5080316 1.4811192 1.5044413 1.3126372 1.5256605 1.2732785
1.433624 1.4254683 1.4285955 1.4867119 1.287304 1.3034875 1.5628135 1.5604331
1.383455 1.5807151 1.4302014 1.4099066 1.3872474 1.4300146 1.4427911 1.408488
1.5869697 1.4305426 1.4760754 1.3896322 1.4262695 1.2952521 1.3306689 1.4734831
1.3405725 1.5444628 1.4817972 1.4392432 1.5239182 1.4404002 1.4923434 1.5073655
1.2116674 1.3024564 1.2944311 1.3654549 1.3480713 1.2974195 1.4607964 1.5193536
1.3538163 1.3375072 1.3380742 1.2344959 1.3986888 1.3346732 1.3697628 1.3234638
1.6214814 1.3552293 1.4806105 1.2860771 1.4318255 1.2576803 1.5245025 1.516006
1.5024716 1.3912705 1.4093641 1.2901047 1.2993665 1.4117745 1.2638704 1.2748618
