backend/app/data/keypoint_classifier_2.pt (torch, 255397 bytes, 16 tensors)

weight f4 [256, 44]
0.15064877 0.026029734 0.10082362 -0.16030228 0.113499366 -0.019940736 -0.089426965 -0.11978817
-0.10719818 0.1127905 0.1275646 -0.11040763 -0.035215918 0.122742474 -0.15361895 0.06259916
-0.025654597 0.043535046 -0.036385033 0.0414467 -0.021546265 -0.0873516 0.0127660725 -0.0924376
0.0648097 0.12671502 0.0051952424 0.0401989 0.12852308 -0.04891782 0.11565081 0.086130336
-0.054053955 -0.038463157 0.023108266 -0.12415314 -0.039967723 0.011206985 0.062741816 0.09947996
-0.056938708 0.16343254 0.10075275 -0.035209376 -0.035144348 -0.07540825 -0.032457557 0.021907965
0.055187758 0.15330017 -0.057210084 -0.07063511 0.013870324 -0.16086362 0.054451007 -0.071223296
-0.12540294 0.06876634 0.07588688 0.09704931 0.0588793 -0.095303684 0.012210527 0.04501656
0.09388881 -0.1500372 0.12026706 0.12660551 -0.052860204 0.062445115 0.14991301 -0.11039874
-0.13478725 -0.11563755 -0.06031391 -0.0060347584 -0.005174603 0.12587143 -0.07144575 -0.15657614
-0.0662435 0.03943819 0.14047138 -0.07875687 0.01655431 -0.0064600864 -0.09398389 -0.0888049
0.102544636 -0.088124946 0.033528216 -0.030629614 0.14089563 -0.11637069 0.032748353 -0.025002912
0.00704955 -0.05929906 -0.08145157 -0.05155307 -0.013795492 -0.13897529 -0.075545944 0.028026234
0.0014549211 0.022568744 0.11557749 0.036073327 0.13480322 -0.090964116 0.13849942 -0.11062649
0.07104483 0.13784634 -0.04150161 -0.052448086 -0.1339599 -0.06741039 -0.021651555 -0.0711141
-0.08572971 -0.027660547 0.047725424 0.08250188 -0.017531069 0.04068115 0.054014653 -0.020603845
0.07899238 0.116419196 -0.04189113 -0.15879463 -0.042219825 0.07256175 -0.120857336 -0.034680355
0.066487595 -0.0166094 -0.027975999 -0.103654385 -0.07848682 0.041321244 -0.1336859 -0.04240995
0.14528234 0.026185548 0.076307446 -0.08585874 0.02653009 0.061786067 0.14669175 0.01901152
-0.046338182 0.013356078 0.04605395 0.017821712 0.065536566 0.096507475 0.15064584 0.10980744
0.083565705 -0.11253851 -0.057148345 -0.12876669 -0.07483886 -0.053252567 0.07797614 0.076513186
0.091994226 0.041959796 -0.07590978 0.01784764 0.023918973 0.07314923 -0.0013565343 -0.1472397
0.021693733 0.042512417 0.04518608 0.10901806 -0.059633374 -0.0070628063 -0.065133415 0.13391697
0.084806435 0.15158778 0.013020219 0.03650524 -0.068340674 0.13974495 0.17728862 0.0124997385
0.09813246 -0.06798232 -0.055319324 0.050724447 0.0917877 0.15966147 0.15926594 -0.09875828
0.092484966 -0.028769404 -0.013764901 -0.0048877303 0.14374422 0.065639146 -0.11468831 -0.05061303
0.15284795 0.0840097 0.16108432 -0.11735767 0.14831987 0.06245284 0.02146775 0.10975481
-0.00424361 0.013837251 -0.10223114 -0.08617694 0.09298772 0.08721736 -0.11241126 0.11451591
0.0794062 -0.15313031 0.060094576 0.004065757 0.13383682 -0.06569902 -0.04505247 0.00421037
-0.15582556 0.05035214 0.00421291 0.08422069 0.012639106 -0.111910366 -0.13653709 -0.1637658
0.068576455 0.076523006 -0.052229863 0.12134342 -0.07676015 0.07847762 -0.10779536 0.1062787
0.068891734 0.024529895 -0.028393392 0.044530343 -0.13959448 0.045209285 0.034073345 -0.13656785
00000000: ac43 1a3e 4f3c d53c 9d7c ce3d 4826 24be
00000010: 5b72 e83d c15a a3bc 7c25 b7bd 8053 f5bd
00000020: b88a dbbd b5fe e63d 4ba0 023e 651d e2bd
00000030: 913e 10bd 6860 fb3d 494e 1dbe fd33 803d
00000040: 9729 d2bc ce51 323d 7908 15bd 04c4 293d
00000050: cb81 b0bc 65e5 b2bd ca28 513c ed4f bdbd
00000060: f3ba 843d 95c1 013e da3c aa3b 9aa7 243d
00000070: 8e9b 033e 0d5e 48bd 55da ec3d 1a65 b03d
00000080: ae67 5dbd 8b8b 1dbd 8c4d bd3c 0044 febd
00000090: 32b5 23bd 819d 373c c87e 803d 26bc cb3d
000000a0: 9038 69bd dc5a 273e 7557 ce3d b537 10bd
000000b0: 85f3 0fbd a46f 9abd 37f2 04bd 5578 b33c
000000c0: 8f0c 623d b8fa 1c3e 1f55 6abd 24a9 90bd
000000d0: 5b40 633c 6fb9 24be 0508 5f3d 85dd 91bd
000000e0: a169 00be 5ed5 8c3d 956a 9b3d cac1 c63d
000000f0: 6c2b 713d 942e c3bd aa0e 483c 4963 383d
00000100: c748 c03d 5aa3 19be 944e f63d e0a4 013e
00000110: f183 58bd 73c6 7f3d cc82 193e bc18 e2bd
00000120: ab05 0abe 61d3 ecbd b80b 77bd 39bf c5bb
00000130: b78f a9bb 71e4 003e 2652 92bd 7f55 20be
00000140: acaa 87bd f189 213d bbd7 0f3e 484b a1bd
00000150: e89c 873c 22af d3bb a07a c0bd 58df b5bd
00000160: ec02 d23d da7a b4bd e254 093d f5ea fabc
00000170: f246 103e c253 eebd 2323 063d e8d2 ccbc
00000180: e9ff e63b 92e3 72bd 15d0 a6bd 5029 53bd
00000190: 7d06 62bc 8a4f 0ebe d5b7 9abd 4697 e53c
000001a0: 0db3 be3a 16e2 b83c e4b3 ec3d a0c1 133d
000001b0: db09 0a3e 654b babd cbd2 0d3e 2490 e2bd
000001c0: f47f 913d 9727 0d3e 98fd 29bd ced3 56bd
000001d0: c92c 09be 750e 8abd 9a5e b1bc 45a4 91bd
000001e0: 0f93 afbd 5f98 e2bc bc7b 433d bff6 a83d
000001f0: 519d 8fbc 47a1 263d 783e 5d3d 65c9 a8bc
00000200: c2c6 a13d 306d ee3d 0996 2bbd 0f9b 22be
00000210: b2ee 2cbd 419b 943d 0d84 f7bd fd0c 0ebd
00000220: a62a 883d 7010 88bc ec2d e5bc c048 d4bd
00000230: b3bd a0bd 7740 293d f5e4 08be 0eb6 2dbd
00000240: e5c4 143e 1383 d63c 1447 9c3d b5d6 afbd
00000250: a255 d93c 6313 7d3d 5d36 163e 0cbe 9b3c
00000260: 1bcd 3dbd 74d3 5a3c 11a3 3c3d d7fe 913c
00000270: 0938 863d b6a5 c53d e742 1a3e b9e2 e03d
00000280: 7f24 ab3d 977a e6bd 6214 6abd 6adb 03be
00000290: 1e45 99bd 5d1f 5abd f4b1 9f3d f2b2 9c3d
000002a0: 7867 bc3d 09de 2b3d 9676 9bbd 3735 923c
000002b0: b9f1 c33c 43cf 953d bdcd b1ba 01c6 16be
000002c0: 0eb7 b13c 8021 2e3d 0a15 393d dc44 df3d
000002d0: 2042 74bd 1d6f e7bb ab64 85bd 8821 093e
000002e0: ffae ad3d d439 1b3e c252 553c 8586 153d
000002f0: 32f6 8bbd 4d19 0f3e 268b 353e b4cb 4c3c
00000300: acf9 c83d 513a 8bbd 8496 62bd 70c4 4f3d
00000310: 31fb bb3d 4c7e 233e 9c16 233e c841 cabd
00000320: c268 bd3d d0ad ebbc 2e86 61bc 4129 a0bb
00000330: af31 133e d16d 863d b4e1 eabd 9c4f 4fbd
00000340: 2c84 1c3e 470d ac3d 4af3 243e 3859 f0bd
00000350: 2ae1 173e 8dce 7f3d 23dd af3c 21c7 e03d
00000360: fb0d 8bbb a3b5 623c 8f5e d1bd 897d b0bd
00000370: 5970 be3d 049f b23d e037 e6bd 5187 ea3d
00000380: b89f a23d 31ce 1cbe bb25 763d 0b3a 853b
00000390: 850c 093e 358d 86bd f088 38bd 25f7 893b
000003a0: bc90 1fbe 0c3e 4e3d 730c 8a3b e67b ac3d
000003b0: 4114 4f3c 4331 e5bd 61d0 0bbe 39b2 27be
000003c0: d071 8c3d 18b8 9c3d fbee 55bd e682 f83d
000003d0: 6d34 9dbd e0b8 a03d d0c3 dcbd a6a8 d93d
000003e0: 1c17 8d3d ebf2 c83c 4299 e8bc 7365 363d
000003f0: dbf1 0ebe 5f2d 393d 7e90 0b3d 71d8 0bbe

bias f4 [256]
0.13039343 0.11684132 0.09616007 0.09527635 -0.086879015 -0.041385937 0.08799958 -0.0048042396
-0.12690508 0.13532905 -0.11897833 0.14248791 0.01923405 0.027700908 -0.052157152 0.033676967
-0.010467386 -0.13885431 0.08875137 0.10618032 0.11464375 0.14853163 -0.078793705 -0.03083235
-0.1321768 -0.11477909 0.084728695 0.034193065 -0.11031745 0.012440085 0.044553652 0.034132026
-0.15108106 -0.14842388 0.12550211 0.030196523 -0.08739628 -0.022692487 -0.14431925 -0.012005032
-0.10399413 0.050029274 0.031629756 0.10014762 0.029731916 -0.1307851 -0.089841366 0.099036366
0.08076785 0.035778686 -0.04859452 0.06405018 -0.05261015 -0.045052122 0.09857024 -0.13721532
0.024918495 0.114888765 -0.015440674 -0.14324081 0.13035758 0.121423274 -0.0045833546 -0.121041015
0.082061805 -0.12446588 -0.041526575 -0.09148999 0.052108802 -0.14868587 0.05990195 -0.10529666
-0.13456032 -0.07905335 0.13699937 0.038387444 0.053896528 0.122850195 -0.056173284 -0.09381318
-0.11571984 0.005129885 0.1308697 0.057081975 0.02602442 0.04799912 -0.095533535 0.036189344
0.11278199 -0.007043301 -0.09367927 -0.071638085 -0.058611482 -0.15003175 0.08571974 -0.14194466
0.071084514 -0.045144938 -0.0036754517 -0.018863268 -0.05108178 -0.076557904 -0.06600463 0.10853351
-0.123016946 -0.057869196 0.109579675 -0.05902638 0.059007596 -0.00967032 0.14097308 0.14061315
-0.11135943 0.098828495 0.12890954 0.13587333 0.1223167 0.14497033 -0.13042504 0.11454354
-0.14237194 0.0408954 -0.07559966 -0.12416331 -0.04317677 -0.057522554 -0.09012972 -0.077347405
-0.11428508 0.119662836 -0.1424774 -0.023965947 0.03791986 0.00302253 -0.078688 -0.14436828
-0.12213188 0.065942064 0.06741811 -0.09835722 -0.10119348 0.13738762 0.027578179 -0.03782691
-0.023640204 0.012215351 0.026948616 -0.084603876 0.0466902 -0.14107536 -0.077104814 -0.05404942
0.012723663 -0.013913208 0.07369787 -0.013514065 0.087435946 0.12118826 -0.054254793 -0.089376956
0.059585877 0.017500749 -0.0011926041 -0.04941312 0.11182042 0.033895876 -0.11582473 0.005129271
-0.06051029 -0.022873601 -0.10272172 0.12696671 0.08141031 -0.049793452 0.089924924 -0.1455461
0.12858562 -0.13453776 -0.14913546 -0.022356756 0.12818414 -0.07443854 0.11179819 0.08068737
-0.101182334 0.039487846 0.09018911 0.1482717 0.043081407 -0.07545223 0.019804608 -0.12487243
0.14515121 0.047747 0.111252084 0.09036501 -0.104462974 0.024456235 -0.096009545 0.11765634
0.038540706 0.07247184 -0.14831327 0.0615179 0.14918382 -0.04029957 -0.08837256 0.12309271
-0.074685335 -0.061758596 -0.022061812 0.091574505 -0.13587007 0.036186554 -0.14500596 0.039594706
0.058527894 -0.11335518 -0.016661424 -0.027709244 -0.12859668 0.08610293 -0.03663921 -0.108592205
0.07332574 -0.042880546 0.025203902 0.1364826 0.08862971 -0.04777606 0.059692167 -0.11844753
-0.09614498 -0.14718793 0.08685349 -0.1435024 0.07487922 -0.12008229 0.1303269 -0.036108978
-0.0006180145 -0.049278926 -0.02253312 0.116646215 0.11320856 0.090917595 0.056590557 -0.088892475
0.07271197 -0.077621534 0.02073766 0.049560845 -0.1007397 -0.07842034 -0.04045689 0.057067055
00000000: db85 053e 814a ef3d 92ef c43d 3f20 c33d
00000010: a0ed b1bd 4d84 29bd 2039 b43d e26c 9dbb
00000020: 68f3 01be b393 0a3e e9aa f3bd 5ae8 113e
00000030: ba90 9d3c 04ed e23c bda2 55bd dcf0 093d
00000040: 667f 2bbc d32f 0ebe 47c3 b53d 1175 d93d
00000050: 58ca ea3d ad18 183e 985e a1bd 2094 fcbc
00000060: 5b59 07be 4d11 ebbd 3d86 ad3d 070e 0c3d
00000070: 1dee e1bd 80d1 4b3c e47d 363d 06ce 0b3d
00000080: feb4 1abe 6efc 17be a083 003e b35e f73c
00000090: d2fc b2bd 98e5 b9bc 6dc8 13be c1b0 44bc
000000a0: e0fa d4bd 7feb 4c3d 348e 013d 321a cd3d
000000b0: 5990 f33c 87ec 05be c0fe b7bd 94d3 ca3d
000000c0: 9d69 a53d ac8c 123d 0c0b 47bd be2c 833d
000000d0: be7d 57bd 9388 38bd 32df c93d 2c82 0cbe
000000e0: df21 cc3c cd4a eb3d e1fa 7cbc b8ad 12be
000000f0: 757c 053e c4ac f83d f72f 96bb 5ae4 f7bd
00000100: 0510 a83d f8e7 febd c517 2abd 1b5f bbbd
00000110: 0a70 553d 1c41 18be bf5b 753d c6a5 d7bd
00000120: 2eca 09be b9e6 a1bd 9049 0c3e 273c 1d3d
00000130: 9bc2 5c3d e298 fb3d f515 66bd 2021 c0bd
00000140: 86fe ecbd 9818 a83b b502 063e cace 693d
00000150: 2a31 d53c ba9a 443d 16a7 c3bd 473b 143d
00000160: 3efa e63d 7ecb e6bb ebda bfbd fdb6 92bd
00000170: 9812 70bd eca1 19be d58d af3d f159 11be
00000180: c294 913d e6e9 38bd d9df 70bb 2487 9abc
00000190: 213b 51bd 64ca 9cbd 6f2d 87bd d146 de3d
000001a0: 4ff0 fbbd 4008 6dbd 4f6b e03d a5c5 71bd
000001b0: f3b1 713d 4370 1ebc 3f5b 103e e5fc 0f3e
000001c0: 6a10 e4bd 9866 ca3d dd00 043e 6122 0b3e
000001d0: 2e81 fa3d 1a73 143e 248e 05be ce95 ea3d
000001e0: f3c9 11be ef81 273d ffd3 9abd 5549 febd
000001f0: 20da 30bd c59c 6bbd ee95 b8bd 5168 9ebd
00000200: 4c0e eabd ca11 f53d 98e5 11be 3c54 c4bc
00000210: db51 1b3d a415 463b 2d27 a1bd 47d5 13be
00000220: 4720 fabd a20c 873d 8212 8a3d 836f c9bd
00000230: 873e cfbd 57af 0c3e a2eb e13c 64f0 1abd
00000240: 1aa9 c1bc e522 483c 58c3 dc3c cc44 adbd
00000250: 393e 3f3d 0f76 10be 21e9 9dbd ed62 5dbd
00000260: e976 503c 39f4 63bc e9ee 963d 196a 5dbc
00000270: 9e11 b33d 8d31 f83d 463a 5ebd 440b b7bd
00000280: 5210 743d bb5d 8f3c 2751 9cba 6965 4abd
00000290: 1b02 e53d 67d6 0a3d 8435 edbd 7213 a83b
000002a0: a3d9 77bd 6b61 bbbc c45f d2bd 9003 023e
000002b0: 73ba a63d 38f4 4bbd 8f2a b83d 090a 15be
000002c0: f3ab 033e 44c4 09be f7b6 18be 8425 b7bc
000002d0: b442 033e 3c73 98bd 73f6 e43d 6b3f a53d
000002e0: af38 cfbd 02be 213d 11b5 b83d 89d4 173e
000002f0: 2176 303d b386 9abd 463d a23c 1ebd ffbd
00000300: 85a2 143e 5c92 433d 22d8 e33d 4a11 b93d
00000310: aff0 d5bd 7158 c83c a7a0 c4bd cff5 f03d
00000320: dcdc 1d3d 1e6c 943d 6fdf 17be 32fa 7b3d
00000330: a5c3 183e 2911 25bd acfc b4bd 0818 fc3d
00000340: a0f4 98bd 95f6 7cbd f9ba b4bc 6a8b bb3d
00000350: 8621 0bbe 5a38 143d 717c 14be 0f2e 223d
00000360: f2ba 6f3d c326 e8bd 8a7d 88bc 7ffe e2bc
00000370: d9ae 03be bc56 b03d ff12 16bd 9765 debd
00000380: ce2b 963d 83a3 2fbd 6a78 ce3c 18c2 0b3e
00000390: 7e83 b53d d4b0 43bd c67f 743d 9e94 f2bd
000003a0: a9e7 c4bd 6fb8 16be 3ee0 b13d 4bf2 12be
000003b0: 475a 993d b4ed f5bd 6a74 053e 02e7 13bd
000003c0: 4002 22ba b3d8 49bd 6197 b8bc 36e4 ee3d
000003d0: e4d9 e73d 0133 ba3d 80cb 673d 420d b6bd
000003e0: 03ea 943d 0af8 9ebd 06e2 a93c 5000 4b3d
000003f0: 9e50 cebd d89a a0bd 20b6 25bd 25bf 693d

weight f4 [256]
1.0044487 1.0015993 0.9918474 1.0109838 1.0129482 0.9873565 0.9980686 1.0079504
1.0069164 0.9947757 1.019882 0.9961554 1.0038036 0.9955677 1.0233399 0.9766301
0.9894248 1.0177408 1.0138391 1.0013413 1.0198712 0.9997454 0.9963685 1.0059413
0.98785174 0.97917426 0.984267 1.0042269 0.99270445 0.9760414 0.9705372 0.97993034
0.9866535 0.99517703 0.99935335 1.0261551 0.99888426 0.9876272 0.9969347 0.9773229
1.0266453 1.0170509 1.0230113 1.0284098 0.97697866 0.99029636 1.0310662 0.9763739
1.0016488 0.9855338 0.99469 0.9958017 0.9874961 1.011745 1.0202792 0.9875771
1.0117924 0.98973364 0.98603874 0.9919953 0.9987254 0.97454554 0.9773756 1.020112
0.97834504 0.98489046 0.9915118 1.0232606 0.9921726 0.99286324 1.0202749 1.0055946
1.0049386 0.98371935 0.99211967 0.98820055 0.97106665 1.007795 0.9795114 1.030279
0.99473506 0.99564976 0.9865016 0.98454076 0.97624224 1.0230615 1.0021487 1.0029758
1.0096807 0.9849441 1.0169855 1.0156823 1.0203379 0.98999155 0.99680245 1.0171734
1.0187783 1.0340422 0.9765932 1.0175858 1.0358629 0.981939 0.9965451 1.0075583
0.9839699 1.0306712 0.98105735 0.9844709 1.0234993 0.9980826 0.9923603 1.0006082
0.9809019 0.99019825 0.989954 0.9897551 1.0325093 0.9899916 1.0294069 0.9986367
0.9835101 1.0045626 0.9784882 0.980277 0.9772765 0.98412883 1.0263996 1.0008047
1.0127513 1.009746 1.0045503 1.027778 1.0048121 1.0252136 0.9907396 1.0301071
0.9898516 1.0112332 1.012541 1.0311191 0.99657446 1.0135576 0.9817568 0.97678065
0.9851481 1.0114632 1.0069424 0.9751147 0.982384 1.0256997 1.023441 0.9932425
1.0350153 0.9890754 0.9888088 0.98344874 0.9946985 0.98527193 0.97243637 0.9868422
1.0181901 0.998667 0.9927922 0.97169733 1.0239711 1.012821 0.98400605 0.98019105
0.99917006 0.9870027 0.9943814 0.97490156 1.0020723 0.98549646 1.0304788 0.9799832
1.0062946 1.0033529 0.9999822 1.0222095 1.0178195 0.97212785 1.0061755 0.98284394
1.0063487 1.0014062 0.98804975 0.98574275 1.0133116 1.0300672 0.9861533 1.0186
0.98504204 0.989034 1.0115142 0.9969792 0.9874067 0.9900991 0.9833597 0.97898585
1.0280086 0.991159 1.0208489 0.98482734 1.0229559 0.9739038 0.98315436 1.0015811
0.98830277 0.9942274 1.0038574 1.0034752 0.98017406 0.9743476 0.9794764 0.9915487
0.9986829 1.0003304 1.0214578 1.0234646 1.0005574 1.0005977 1.0105534 0.9921484
0.9969828 0.97623026 1.0395442 1.0143225 1.0156512 0.9944673 0.9865341 1.019653
1.0176125 0.9951338 1.0018301 0.9860063 1.0023929 0.99838364 1.0190592 1.0103468
1.0003117 0.9893051 1.0145171 0.9682233 0.98629314 0.9842304 1.0212871 1.0185118
1.0077957 1.0122601 1.0037493 0.99020994 1.0082808 1.0080229 1.0285517 1.0041603
00000000: c691 803f 6834 803f b6e9 7d3f eb67 813f
00000010: 49a8 813f 65c3 7c3f 6c81 7f3f 8504 813f
00000020: a3e2 803f 9fa9 7e3f 7e8b 823f 0a04 7f3f
00000030: a37c 803f 86dd 7e3f cdfc 823f 6e04 7a3f
00000040: f24a 7d3f 5545 823f 7bc5 813f f42b 803f
00000050: 248b 823f 51ef 7f3f 0212 7f3f afc2 803f
00000060: dae3 7c3f 2aab 7a3f ecf8 7b3f 828a 803f
00000070: e121 7e3f d9dd 793f 2075 783f b7dc 7a3f
00000080: 5395 7c3f ecc3 7e3f 9fd5 7f3f 0d59 833f
00000090: e1b6 7f3f 23d5 7c3f 1d37 7f3f d531 7a3f
000000a0: 1d69 833f b92e 823f 09f2 823f efa2 833f
000000b0: 461b 7a3f 1084 7d3f faf9 833f a4f3 793f
000000c0: 0736 803f f14b 7c3f 01a4 7e3f dcec 7e3f
000000d0: 8bcc 7c3f dc80 813f 8298 823f dad1 7c3f
000000e0: 6a82 813f 2f5f 7d3f 096d 7c3f 67f3 7d3f
000000f0: 78ac 7f3f d17b 793f 4a35 7a3f 0893 823f
00000100: d274 7a3f c821 7c3f b8d3 7d3f 34fa 823f
00000110: 06ff 7d3f 492c 7e3f 5e98 823f 53b7 803f
00000120: d4a1 803f 08d5 7b3f 8efb 7d3f b6fa 7c3f
00000130: d397 783f 6dff 803f 42c1 7a3f 2fe0 833f
00000140: f5a6 7e3f e7e2 7e3f 5e8b 7c3f dd0a 7c3f
00000150: 03eb 793f aef3 823f 6946 803f 8361 803f
00000160: 383d 813f 4c25 7c3f 952c 823f e101 823f
00000170: 6f9a 823f 1670 7d3f 722e 7f3f bd32 823f
00000180: 5467 823f 7f5b 843f 0302 7a3f 4040 823f
00000190: 2897 843f 5b60 7b3f 941d 7f3f acf7 803f
000001a0: 74e5 7b3f 09ed 833f 9326 7b3f 4906 7c3f
000001b0: 0602 833f 5782 7f3f 530b 7e3f ee13 803f
000001c0: 631c 7b3f a27d 7d3f a06d 7d3f 9760 7d3f
000001d0: 4429 843f 1770 7d3f 9bc3 833f a8a6 7f3f
000001e0: 51c7 7b3f 8295 803f 347e 7a3f 6ff3 7a3f
000001f0: cb2e 7a3f deef 7b3f 1061 833f 5e1a 803f
00000200: d6a1 813f 5b3f 813f 1b95 803f 3b8e 833f
00000210: af9d 803f 333a 833f 1ca1 7d3f 8dda 833f
00000220: ea66 7d3f 1770 813f f29a 813f b6fb 833f
00000230: 811f 7f3f 41bc 813f 6a54 7b3f 4c0e 7a3f
00000240: aa32 7c3f a077 813f 7de3 803f 1ea1 793f
00000250: 857d 7b3f 214a 833f 1d00 833f 2445 7e3f
00000260: 627b 843f 0c34 7d3f 9322 7d3f 4cc3 7b3f
00000270: 90a4 7e3f c83a 7c3f 97f1 783f b1a1 7c3f
00000280: 0e54 823f a4a8 7f3f a127 7e3f 28c1 783f
00000290: 7c11 833f 1ea4 813f d2e7 7b3f cded 7a3f
000002a0: 9cc9 7f3f 35ac 7c3f c88f 7e3f 2693 793f
000002b0: e843 803f 7f49 7c3f bbe6 833f 2ee0 7a3f
000002c0: 43ce 803f de6d 803f d5fe 7f3f c3d7 823f
000002d0: e947 823f 5fdd 783f 5cca 803f a99b 7b3f
000002e0: 09d0 803f 142e 803f d4f0 7c3f a359 7c3f
000002f0: 32b4 813f 3ed9 833f 8b74 7c3f 7c61 823f
00000300: b72b 7c3f 5531 7d3f 4c79 813f 073a 7f3f
00000310: afc6 7c3f 2277 7d3f 76bd 7b3f d19e 7a3f
00000320: c995 833f 99bc 7d3f 2dab 823f a51d 7c3f
00000330: 38f0 823f c251 793f 01b0 7b3f cf33 803f
00000340: 6901 7d3f b085 7e3f 667e 803f e071 803f
00000350: b0ec 7a3f d86e 793f f7be 7a3f 23d6 7d3f
00000360: afa9 7f3f d40a 803f 21bf 823f e300 833f
00000370: 4412 803f 9613 803f d059 813f 70fd 7d3f
00000380: 443a 7f3f 3aea 793f c90f 853f 52d5 813f
00000390: dc00 823f 6995 7e3f 808d 7c3f fd83 823f
000003a0: 2041 823f 17c1 7e3f f83b 803f e96a 7c3f
000003b0: 694e 803f 1296 7f3f 8870 823f 0b53 813f
000003c0: 370a 803f 1943 7d3f b2db 813f 7bdd 773f
000003d0: b57d 7c3f 86f6 7b3f 89b9 823f 985e 823f
000003e0: 73ff 803f bd91 813f db7a 803f 667e 7d3f
000003f0: 580f 813f e506 813f 95a7 833f 5388 803f

bias f4 [256]
0.018999038 0.011537469 -0.009973655 0.0051959073 0.006720481 -0.009630544 -0.0073147737 0.017256945
0.0065914015 -0.0032529503 0.018470164 -0.00069664395 0.0011127852 -0.008697702 0.026695475 -0.012445821
0.007413112 0.03085949 -0.017438002 0.00736017 0.025303252 0.0110888025 -0.008995948 0.009536022
-0.0044290284 -0.02200685 -0.01869523 0.021614807 0.019511651 -0.0155925825 -0.024759078 -0.011296395
-0.007319409 0.0039822543 0.0071409815 0.030490201 0.002187562 -0.011067366 -0.005725849 -0.023951558
0.033353493 0.018498236 0.030513398 0.030700633 -0.013658177 -0.010489514 0.033655148 -0.020368561
0.028772095 -0.005887 0.014040542 -0.022432435 -0.017700095 0.012091253 0.019780798 -0.008745837
0.014928807 0.025238588 -0.0006321959 0.021548709 0.0015222412 -0.014454256 -0.0049448013 0.027927406
-0.022011595 -0.013278186 -0.00018860732 0.031773187 -0.009127431 -0.0027525264 0.029535357 0.0075126556
0.0120652 -0.008852102 0.007936914 -0.014531017 -0.014447461 0.012340619 -0.008528539 0.02996583
-0.012930368 0.0013563675 -0.006665997 -0.015092562 -0.014897664 0.025603762 -0.0026107212 0.005236761
0.014295916 -0.016952815 0.015268905 0.007126167 0.035165276 -0.003804638 0.00866122 0.0146176675
0.033475712 0.032600116 -0.008107846 0.018054215 0.035240076 -0.016576558 -0.011667677 0.019543186
-0.0024786645 0.03456419 -0.010932912 -0.006838976 0.02758997 -0.013973493 -0.009198541 0.013444186
0.002133757 -0.006734061 0.0037477938 -0.012146661 0.03590959 0.016752541 0.02987444 -0.0055577043
-0.0032877603 -0.0092538195 -0.018193046 -0.021041716 -0.023095405 0.0045199348 0.022172483 0.029880377
-0.006335908 0.019628216 0.03099575 0.029505879 0.018326273 0.014005525 0.028009364 0.027634801
-0.016721401 0.035772964 0.034953568 0.030217987 0.021982351 0.011751488 -0.018745592 -0.01561275
-0.015816143 0.02053421 -0.0017725298 -0.019920642 -0.01955812 0.030260734 0.030371895 0.00028541792
0.03740598 0.013759847 -0.00796493 -0.0056223804 0.017505156 -0.011488915 -0.025698556 0.017094469
0.019553652 -0.010751878 0.020442108 -0.023235943 0.0361078 0.029622987 -0.011400683 -0.011770902
0.019928893 -0.023797698 0.013741884 -0.007701503 0.012499831 -0.017093392 0.03304761 -0.021881357
-0.0016856191 0.014287713 0.017843965 0.029118324 0.018985681 -0.021070488 -0.0015907551 -0.0037060005
0.0050342022 -0.0048156134 -0.003977991 0.0047671744 0.018885322 0.034794964 -0.01152125 0.015233163
-0.009424684 0.0083559165 0.007723271 0.014624022 -0.019257575 -0.015760688 -0.015818005 -0.018201547
0.03110982 0.017484754 0.03076096 0.011130929 0.023822736 -0.015393731 0.0034891989 0.003589573
-0.007106649 -0.0065128542 0.005745399 0.0006619619 -0.02009595 -0.007677238 -0.012813933 -0.005736812
-0.0053558596 0.0076484503 0.026835078 0.021902923 -0.015102728 -0.0055750962 0.024526415 0.0011109845
0.0030642916 -0.009500192 0.03488501 0.022237407 0.019990327 -0.008090532 -0.0032737858 0.016166512
0.034502313 -0.0066610575 0.0053389343 -0.004234527 0.0028782652 0.030915573 0.03286413 0.014560582
0.011622537 -0.009761652 0.030473918 -0.026087778 -0.011950089 -0.012365327 0.024331862 -0.007238098
0.017736359 0.0034556896 -0.007617914 -0.021625327 0.0049315635 0.011547654 0.03358358 0.018061243
00000000: dfa3 9b3c a707 3d3c 8b68 23bc 6e42 aa3b
00000010: 7b37 dc3b 6ec9 1dbc c5b0 efbb 705e 8d3c
00000020: affc d73b 732f 55bb be4e 973c fc9e 36ba
00000030: e0da 913a ce80 0ebc 78b0 da3c 8fe9 4bbc
00000040: b1e9 f23b 0bcd fc3c 24da 8ebc 952d f13b
00000050: c448 cf3c cfad 353c be63 13bc fa3c 1c3c
00000060: 6221 91bb b647 b4bc bd26 99bc 8911 b13c
00000070: e6d6 9f3c 0878 7fbc 8dd3 cabc 8414 39bc
00000080: a7d7 efbb 927d 823b e5fe e93b 96c6 f93c
00000090: 335d 0f3b e653 35bc e79f bbbb 0f36 c4bc
000000a0: ac9d 083d 9d89 973c 3cf7 f93c e57f fb3c
000000b0: 8cc6 5fbc 36dc 2bbc fbd9 093d f8db a6bc
000000c0: 75b3 eb3c bce7 c0bb 4d0a 663c 3ac4 b7bc
000000d0: caff 90bc 641a 463c 570b a23c b34a 0fbc
000000e0: f497 743c 28c1 ce3c f3b9 25ba eb86 b03c
000000f0: f085 c73a 8bd1 6cbc 0008 a2bb 04c8 e43c
00000100: a951 b4bc c08c 59bc e4c4 45b9 9a24 023d
00000110: 388b 15bc bb63 34bb 22f4 f13c b92c f63b
00000120: 1ead 453c 6808 11bc d509 023c 8113 6ebc
00000130: 0bb5 6cbc 4f30 4a3c 49bb 0bbc e67a f53c
00000140: e5d9 53bc 24c8 b13a 706e dabb cb46 77bc
00000150: 5515 74bc fbbe d13c a218 2bbb 2399 ab3b
00000160: 6b39 6a3c a1e0 8abc 6e2a 7a3c 9f82 e93b
00000170: 7709 103d 3c57 79bb cae7 0d3c f17e 6f3c
00000180: d41d 093d b387 053d c5d6 04bc 6fe6 933c
00000190: e657 103d 90cb 87bc c929 3fbc 0819 a03c
000001a0: 1771 22bb 2e93 0d3d f51f 33bc 7d19 e0bb
000001b0: 5c04 e23c 14f1 64bc 7ab5 16bc 0145 5c3c
000001c0: 81d6 0b3b 66a9 dcbb 8c9d 753b ca02 47bc
000001d0: ef15 133d a03c 893c 3ebb f43c 671d b6bb
000001e0: 7777 57bb 559d 17bc 9509 95bc ad5f acbc
000001f0: 9332 bdbc f61b 943b 11a3 b53c b1c7 f43c
00000200: 739d cfbb 5acb a03c cdea fd3c 50b6 f13c
00000210: fb20 963c 6e77 653c e573 e53c 6162 e23c
00000220: 52fb 88bc ac86 123d 792b 0f3d b68b f73c
00000230: 5514 b43c 5089 403c 5b90 99bc 9fcc 7fbc
00000240: db90 81bc 5c37 a83c 3b54 e8ba 9d30 a3bc
00000250: 5a38 a0bc 5ce5 f73c 7bce f83c 25a4 9539
00000260: 0337 193d fb70 613c 567f 02bc f23b b8bb
00000270: f966 8f3c 013c 3cbc c785 d2bc b309 8c3c
00000280: fb2e a03c a528 30bc 3576 a73c 4e59 bebc
00000290: c6e5 133d e8ab f23c eec9 3abc beda 40bc
000002a0: eb41 a33c 64f3 c2bc a425 613c e45c fcbb
000002b0: 17cc 4c3c 7107 8cbc ee5c 073d 8840 b3bc
000002c0: feef dcba 0317 6a3c 822d 923c 8d89 ee3c
000002d0: dc87 9b3c 049c acbc e280 d0ba 5fe0 72bb
000002e0: f3f5 a43b 4bcc 9dbb cf59 82bb f535 9c3b
000002f0: 64b5 9a3c 2a85 0e3d a0c3 3cbc 8494 793c
00000300: fd69 1abc 41e7 083c 7e13 fd3b 9899 6f3c
00000310: 10c2 9dbc 8f1c 81bc c394 81bc 691b 95bc
00000320: 05da fe3c 303c 8f3c 69fe fb3c 805e 363c
00000330: e627 c33c fd35 7cbc 0bab 643b 0b3f 6b3b
00000340: e5de e8bb c869 d5bb e643 bc3b 8387 2d3a
00000350: 43a0 a4bc 5791 fbbb 88f1 51bc defb bbbb
00000360: 3580 afbb da9f fa3b 3dd5 db3c c26d b33c
00000370: 6f71 77bc 4caf b6bb 9feb c83c 749e 913a
00000380: 48d2 483b b1a6 1bbc 96e3 0e3d 392b b63c
00000390: c1c2 a33c 278e 04bc 038d 56bb a26f 843c
000003a0: 4c52 0d3d 0045 dabb 3af2 ae3b c9c1 8abb
000003b0: 47a1 3c3b a842 fd3c 8a9c 063d 828f 6e3c
000003c0: 746c 3e3c 56ef 1fbc 70a4 f93c 09b6 d5bc
000003d0: 4eca 43bc f197 4abc 9d53 c73c 912d edbb
000003e0: d74b 913c da78 623b b29f f9bb 9927 b1bc
000003f0: f498 a13b 5f32 3d3c f08e 093d 2cf5 933c

running_mean f4 [256]
0.13641495 0.10905108 0.09524665 0.097336024 -0.07457369 -0.041448757 0.09322826 -0.0007588449
-0.12430618 0.13446422 -0.12389717 0.13690849 0.016849687 0.037860714 -0.058138367 0.028746983
-0.008565428 -0.13304551 0.08660818 0.101779655 0.10232454 0.1488262 -0.08295842 -0.034383945
-0.13061212 -0.1094597 0.08567827 0.041478585 -0.102958806 0.020492472 0.044748846 0.03909403
-0.14464755 -0.15309083 0.1217394 0.018602336 -0.08626365 -0.025895763 -0.14523731 -0.012371125
-0.115947455 0.045157004 0.021488117 0.09019104 0.028696151 -0.1219122 -0.09619596 0.09932007
0.08782467 0.029566837 -0.049740657 0.07369434 -0.04491604 -0.05340573 0.08872701 -0.13380486
0.02714838 0.12378934 -0.022633955 -0.13727397 0.12076579 0.12381345 -0.008877473 -0.12632197
0.07987853 -0.13506873 -0.033286575 -0.09991009 0.04679131 -0.14001791 0.06500341 -0.10085562
-0.11924688 -0.08486152 0.13555296 0.038658958 0.055689316 0.12270993 -0.053571515 -0.10016062
-0.102016136 -0.002734144 0.1279559 0.054799467 0.030935364 0.033454083 -0.09737052 0.037217952
0.10628994 0.0061419434 -0.102234505 -0.07981232 -0.05146856 -0.15544802 0.08026353 -0.14612608
0.078717746 -0.0572739 0.012190174 -0.033887267 -0.06342462 -0.07629249 -0.07328377 0.11471247
-0.1344195 -0.07565185 0.12085489 -0.053256843 0.04380403 -0.0035881107 0.14368923 0.1368334
-0.107680835 0.086867996 0.1344532 0.12684861 0.10584351 0.15216869 -0.14074351 0.10880338
-0.14689814 0.05240242 -0.06850006 -0.12526873 -0.040670626 -0.055999123 -0.0960424 -0.06307634
-0.114877895 0.12763797 -0.13314867 -0.03505017 0.044419784 -0.0038108728 -0.06910813 -0.14975296
-0.11441926 0.07351323 0.07552166 -0.10595177 -0.09209507 0.14375295 0.027708959 -0.046343274
-0.019379696 0.015004701 0.026229853 -0.07938104 0.0505968 -0.13351294 -0.09150388 -0.060825266
0.0064503103 -0.00067190645 0.06473607 -0.020788187 0.094302304 0.13203524 -0.06275326 -0.08221406
0.05811631 0.015525837 0.0050390633 -0.04130275 0.10496891 0.043360256 -0.12032868 0.005113671
-0.043889757 -0.017661996 -0.10530632 0.11691526 0.08098157 -0.051863983 0.07868379 -0.13708432
0.124478534 -0.13982536 -0.14308734 -0.027652873 0.12003375 -0.068828546 0.111349575 0.07933543
-0.10582716 0.03682138 0.08887221 0.15732029 0.03934318 -0.08245632 0.023412498 -0.13617668
0.15326385 0.043462344 0.119351536 0.086488195 -0.11047381 0.029931093 -0.09883157 0.121646605
0.026161263 0.08072845 -0.14016947 0.07241828 0.14525141 -0.03746302 -0.087279744 0.11937902
-0.08545394 -0.06823011 -0.01636923 0.09687423 -0.1430717 0.031325955 -0.14830932 0.04254575
0.06973153 -0.121362194 -0.010696173 -0.032718126 -0.12084061 0.08564501 -0.029403668 -0.11413988
0.08002508 -0.047684234 0.004960904 0.11779335 0.0815718 -0.044549156 0.054863498 -0.123390935
-0.08700729 -0.15470883 0.08188643 -0.14904797 0.06661542 -0.1157466 0.12661427 -0.028054059
-0.00055906735 -0.05290812 -0.029880427 0.12138504 0.10459205 0.09456073 0.047071587 -0.08818762
0.07821078 -0.07367037 0.02621956 0.05077922 -0.0905322 -0.07339513 -0.047557484 0.051207516
00000000: 5cb0 0b3e 2c56 df3d ad10 c33d 1c58 c73d
00000010: 17ba 98bd 2cc6 29bd 75ee be3d 38ed 46ba
00000020: 3d94 febd fdb0 093e cdbd fdbd bd31 0c3e
00000030: 5b08 8a3c d613 1b3d 7f22 6ebd cb7e eb3c
00000040: 0256 0cbc 153d 08be a15f b13d da71 d03d
00000050: 878f d13d e565 183e 1be6 a9bd 2ed6 0cbd
00000060: 2fbf 05be 682c e0bd 1778 af3d 73e5 293d
00000070: 11dc d2bd d4df a73c 914a 373d 1021 203d
00000080: 7d1e 14be d8c3 1cbe 8252 f93d ed63 983c
00000090: ffaa b0bd 5a23 d4bc 17b9 14be 42b0 4abc
000000a0: dc75 edbd 8df6 383d d907 b03c 14b6 b83d
000000b0: 3114 eb3c 1aad f9bd 6302 c5bd 5268 cb3d
000000c0: 6cdd b33d 2736 f23c dcbc 4bbd 0fed 963d
000000d0: e2f9 37bd f7bf 5abd 82b6 b53d 2404 09be
000000e0: 4866 de3c 4485 fd3d d86a b9bc 8c91 0cbe
000000f0: 0e54 f73d e891 fd3d d272 11bc 8c5a 01be
00000100: 5b97 a33d 754f 0abe 8157 08bd a99d ccbd
00000110: 3fa8 3f3d db60 0fbe 8220 853d 648d cebd
00000120: b537 f4bd e0cb adbd 65ce 0a3e db58 1e3d
00000130: 7b1a 643d 584f fb3d ce6d 5bbd 0321 cdbd
00000140: d6ed d0bd 532f 33bb df06 033e 6875 603d
00000150: 296c fd3c 2607 093d 326a c7bd da71 183d
00000160: 8aae d93d 5b42 c93b 5360 d1bd a474 a3bd
00000170: b2d0 52bd c42d 1fbe 3561 a43d 13a2 15be
00000180: c536 a13d 0998 6abd 4cb9 473c 60cd 0abd
00000190: c4e4 81bd 3d3f 9cbd cd15 96bd 5fee ea3d
000001a0: 44a5 09be 5bef 9abd c582 f73d d923 5abd
000001b0: db6b 333d 8226 6bbb 4523 133e 0e1e 0c3e
000001c0: c587 dcbd d9e7 b13d 1aae 093e 9ae4 013e
000001d0: 7bc4 d83d 1cd2 1b3e 111f 10be 4ed4 de3d
000001e0: 776c 16be eca3 563d c249 8cbd 7246 00be
000001f0: 3e96 26bd 565f 65bd e1b1 c4bd 2b2e 81bd
00000200: 1a45 ebbd 87b3 023e 2058 08be c490 0fbd
00000210: 85f1 353d d6bf 79bb 9088 8dbd d758 19be
00000220: a554 eabd 1b8e 963d 1aab 9a3d 3efd d8bd
00000230: 579c bcbd f933 133e e6fd e23c 72d2 3dbd
00000240: 2bc2 9ebc 47d6 753c fddf d63c 8792 a2bd
00000250: 973e 4f3d 9eb7 08be 6366 bbbd ea23 79bd
00000260: 205d d33b e122 30ba 5894 843d fd4b aabc
00000270: 9121 c13d 3f34 073e c884 80bd d85f a8bd
00000280: 5e0b 6e3d 1560 7e3c ba1e a53b 132d 29bd
00000290: f1f9 d63d 869a 313d e26e f6bd 9590 a73b
000002a0: bfc5 33bd e4af 90bc d7aa d7bd 4571 ef3d
000002b0: aad9 a53d 546f 54bd f824 a13d d55f 0cbe
000002c0: 9aee fe3d 612e 0fbe 7d85 12be 4788 e2bc
000002d0: 41d4 f53d fbf5 8cbd 3f0b e43d 9d7a a23d
000002e0: e9bb d8bd 04d2 163d a202 b63d 9218 213e
000002f0: 5026 213d dcde a8bd 91cb bf3c e671 0bbe
00000300: 33f1 1c3e 9205 323d 946e f43d b920 b13d
00000310: 1840 e2bd 0d32 f53c 3568 cabd db21 f93d
00000320: 2550 d63c f554 a53d 9688 0fbe 0950 943d
00000330: c9bc 143e d372 19bd b9bf b2bd fd7c f43d
00000340: 7a02 afbd 3abc 8bbd c318 86bc ff65 c63d
00000350: 6381 12be a54f 003d 66de 17be 7444 2e3d
00000360: 68cf 8e3d be8c f8bd 003f 2fbc 7103 06bd
00000370: 487b f7bd a766 af3d f6df f0bc 2bc2 e9bd
00000380: 30e4 a33d 8b50 43bd 148f a23b a43d f13d
00000390: 1e0f a73d 2d79 36bd 8cb8 603d 63b4 fcbd
000003a0: e130 b2bd fe6b 1ebe 13b4 a73d 08a0 18be
000003b0: aa6d 883d 8e0c edbd 2ca7 013e a0d1 e5bc
000003c0: 608e 12ba 2fb6 58bd ccc7 f4bc b898 f83d
000003d0: 5b34 d63d 0ea9 c13d 23ce 403d b69b b4bd
000003e0: f92c a03d 7ee0 96bd 67ca d63c dffd 4f3d
000003f0: f268 b9bd 3050 96bd a3cb 42bd f9be 513d

running_var f4 [256]
0.25241125 0.4303807 0.21614467 0.2645721 0.9894579 0.35547766 0.22214049 0.21692973
0.33553883 0.1889418 0.35350612 0.35465088 0.1982121 1.1234659 0.33781606 0.3240245
0.23932667 0.47184113 0.52817714 0.24853171 0.9097124 0.3690717 0.36501387 0.20224008
0.122819245 0.8083303 0.06546794 1.0223186 0.39874306 0.42334 0.37506807 0.40367883
0.23275253 0.5492149 0.18923616 0.7817203 1.1050245 0.7633358 0.91327506 0.14590582
1.0437416 0.53117955 0.51283085 0.63419974 0.48488173 0.4842609 0.28748006 0.17021017
0.40463638 0.34571227 0.11584653 0.42340502 0.40001452 0.35714313 0.7821902 0.14609374
0.20170036 0.4925131 0.31305155 0.51303 1.030363 0.22826536 0.09658028 0.30537984
0.11045945 0.55286443 0.75590414 0.4512658 1.5251236 0.35445535 0.3579282 0.20824273
1.5820544 1.0393397 0.7500116 0.8120104 0.1459602 0.22748837 0.11492903 0.29843378
1.704006 0.18003741 0.088180654 0.4777884 0.14298834 1.4158032 0.20778377 0.22746855
0.20971125 1.9386028 0.401613 0.57836014 0.2856663 0.29116789 0.1978368 0.40471616
0.59956974 1.2095759 0.97063255 2.2058277 1.2358705 0.27895916 0.43582538 0.4778243
0.6320186 1.4853907 0.9122858 0.3613205 1.6048439 0.15824503 0.2962821 0.461959
0.19320765 0.662846 0.291953 0.94022983 2.1965737 0.47116894 1.5308052 0.30437317
0.3298766 1.3837795 0.69097066 0.15253522 0.12492253 0.61215353 0.25461897 1.1734174
1.4864928 0.75469935 0.7904482 0.8091902 0.3758114 0.2794523 0.7090305 0.32032526
0.2619503 0.42999753 0.46566233 0.5251749 0.5663667 0.32780144 0.21196343 0.27725083
0.15747033 0.84014237 0.82496125 0.33910984 0.8211431 0.47475964 1.0390521 0.46121818
0.28046006 0.9517905 0.9210308 0.306271 0.62885004 0.6853573 0.7156049 0.43963987
0.12993592 0.22905274 0.35956842 0.7149901 0.37285283 0.7203028 0.25029606 0.16193856
1.454625 0.1571041 0.109574646 0.40222356 0.8151817 0.36599043 0.63706505 1.1861166
0.3029524 0.1850653 0.3349078 0.17520817 0.48715058 0.60880107 0.7076422 0.2224492
1.0532101 0.16210365 0.33310673 0.5357424 0.7101025 0.48057505 0.26326367 1.0455446
0.61532116 0.18708308 0.5029869 1.0619229 0.8427165 0.40543205 0.49811772 0.30835918
1.1154401 0.8632718 0.23929873 0.82945126 0.2912591 0.16235678 0.25460067 0.10807035
0.6315889 0.39485997 0.1810982 0.4591188 0.22107904 0.13523896 0.49722576 0.1431255
0.78781015 0.2803464 0.31156433 0.3262234 0.89229465 0.31546903 0.2730226 0.24694529
0.36722803 0.11543735 2.0133715 1.5281307 0.6869339 0.14171451 0.20881063 0.4212904
0.8285818 0.5665463 0.35761425 0.32449475 0.9299532 0.2828343 0.30704948 0.9459829
0.5143052 0.11470415 0.3010464 0.41831893 0.6791735 0.26102084 0.58536667 0.19963375
0.68879926 0.36935404 0.20036122 0.10970061 0.7171658 0.5989032 0.3063601 0.25974315
00000000: 0c3c 813e dc5a dc3e 0755 5d3e ff75 873e
00000010: 1d4d 7d3f 2b01 b63e cc78 633e d422 5e3e
00000020: bfcb ab3e f679 413e c1fe b43e cd94 b53e
00000030: 1df8 4a3e bbcd 8f3f 3af6 ac3e 8ae6 a53e
00000040: 0d12 753e 2995 f13e 9e36 073f 197f 7e3e
00000050: e9e2 683f f7f6 bc3e 19e3 ba3e 0618 4f3e
00000060: a888 fb3d bcee 4e3f 0e14 863d 56db 823f
00000070: 0d28 cc3e 05c0 d83e ec08 c03e feae ce3e
00000080: ae56 6e3e 5999 0c3f 20c7 413e d21e 483f
00000090: 7171 8d3f fa69 433f 65cc 693f 5668 153e
000000a0: 5399 853f 62fb 073f e248 033f ea5a 223f
000000b0: 6b42 f83e 0bf1 f73e 9630 933e 934b 2e3e
000000c0: 802c cf3e 3301 b13e f240 ed3d 8bc8 d83e
000000d0: b4ce cc3e 77db b63e 9e3d 483f 9999 153e
000000e0: 8a8a 4e3e ad2a fc3e 4b48 a03e ef55 033f
000000f0: efe2 833f 65be 693e e2cb c53d bf5a 9c3e
00000100: 9038 e23d 8688 0d3f ef82 413f 500c e73e
00000110: 4037 c33f 2c7b b53e 5d42 b73e 953d 553e
00000120: c280 ca3f 1509 853f c300 403f eadf 4f3f
00000130: 9776 153e b6f2 683e e95f eb3d 50cc 983e
00000140: de1c da3f ba5b 383e 0f98 b43d aea0 f43e
00000150: 896b 123e 0a39 b53f 45c5 543e 84ed 683e
00000160: 8cbe 563e 2324 f83f 38a0 cd3e 690f 143f
00000170: da42 923e f513 953e bb95 4a3e f536 cf3e
00000180: 677d 193f 62d3 9a3f 607b 783f 482c 0d40
00000190: 0131 9e3f bcd3 8e3e 8124 df3e 63a5 f43e
000001a0: f9cb 213f 4821 be3f 908b 693f 00ff b83e
000001b0: 866b cd3f fc0a 223e 4ab2 973e e485 ec3e
000001c0: 3ad8 453e 47b0 293f dd7a 953e e7b2 703f
000001d0: aa94 0c40 0e3d f13e 6df1 c33f cdd6 9b3e
000001e0: 96e5 a83e b01f b13f 74e3 303f 3132 1c3e
000001f0: 62d7 ff3d 18b6 1c3f 6b5d 823e 8b32 963f
00000200: 6545 be3f fa33 413f d05a 4a3f 1727 4f3f
00000210: 5a6a c03e 5f14 8f3e 0683 353f ac01 a43e
00000220: 5a1e 863e a328 dc3e 4b6b ee3e dd71 063f
00000230: 68fd 103f 97d5 a73e f10c 593e d2f3 8d3e
00000240: e73f 213e 9213 573f a930 533f ce9f ad3e
00000250: 6f36 523f b213 f33e a9ff 843f ca24 ec3e
00000260: 7698 8f3e 8ba8 733f adc8 6b3f 8dcf 9c3e
00000270: 51fc 203f 9373 2f3f e231 373f 7a18 e13e
00000280: ec0d 053e cd8c 6a3e 5a19 b83e 9709 373f
00000290: 91e6 be3e c465 383f ce26 803e 39d3 253e
000002a0: 2731 ba3f e6df 203e ac68 e03d 3ff0 cd3e
000002b0: bfaf 503f 1963 bb3e b216 233f abd2 973f
000002c0: 941c 9b3e c281 3d3e 0979 ab3e c569 333e
000002d0: cd6b f93e 63da 1b3f 0a28 353f b9c9 633e
000002e0: 97cf 863f 80fe 253e f78c aa3e 6a26 093f
000002f0: 47c9 353f ef0d f63e 7fca 863e 68d4 853f
00000300: b085 1d3f b592 3f3e c0c3 003f 17ed 873f
00000310: 45bc 573f ca94 cf3e 4909 ff3e 41e1 9d3e
00000320: bec6 8e3f 61ff 5c3f ba0a 753e eb56 543f
00000330: ea1f 953e db40 263e 055b 823e fd53 dd3d
00000340: cfaf 213f 162b ca3e ce71 393e 9f11 eb3e
00000350: 8b62 623e 157c 0a3e 6094 fe3e 7e8f 123e
00000360: edad 493f 9089 8f3e 5c85 9f3e c106 a73e
00000370: 6c6d 643f 2885 a13e 9ec9 8b3e 3adf 7c3e
00000380: 5005 bc3e 6b6a ec3d 14db 0040 c999 c33f
00000390: e6da 2f3f 9c1d 113e 74d2 553e 60b3 d73e
000003a0: f01d 543f 2e09 113f 3719 b73e 2d24 a63e
000003b0: 6a11 6e3f a8cf 903e 9735 9d3e ef2b 723f
000003c0: 81a9 033f 02ea ea3d c122 9a3e e62d d63e
000003d0: 51de 2d3f 86a4 853e 97da 153f ca6c 4c3e
000003e0: 2655 303f f91b bd3e 7e2b 4d3e b7aa e03d
000003f0: 2e98 373f b851 193f 3bdb 9c3e 0efd 843e

weight f4 [128, 256]
-0.013071981 -0.06261115 0.03614185 0.021742057 0.0511532 0.014736533 0.018484425 -0.040314376
0.005175849 -0.042355232 0.004188027 0.039528906 0.029229607 0.010263322 -0.055878546 0.018947244
0.01371321 0.039814748 0.05270322 -0.05072395 -0.07942619 -0.02982017 -0.030482952 0.003452813
-0.0005618462 -0.044414714 -0.059018034 0.032849327 0.025242385 -0.04307229 -0.028983604 -0.046901118
0.028472345 -0.013532334 0.018782392 -0.07156225 -0.00033615011 0.04894043 0.049145877 0.011983576
-0.03559591 0.028677 -0.08420697 0.030727236 -0.000617934 -0.0038044224 -0.05273297 0.022147758
0.012156205 -0.0031634422 0.0039274767 0.068760194 0.010398987 0.03566268 0.024468228 0.01547245
-0.02573424 0.018364849 -0.030303376 0.03850045 0.032024205 -0.036470696 0.035492156 -0.0052732667
0.03459403 -0.009807885 -0.023542417 -0.052079584 0.0053037982 0.067239754 0.054271042 0.045652956
-0.035226308 -0.01727061 0.005835141 0.031502157 0.03881967 -0.026604693 0.01866936 0.029640608
-0.0454421 0.023746042 -0.015050627 0.013664419 -0.013797212 0.015692057 -0.0041188314 0.032588378
-0.026659207 -0.038674794 -0.013628859 0.024107516 0.04363038 -0.015272883 0.004139423 -0.03108297
0.054889366 -0.03622291 0.014804221 -0.041644882 -0.07159541 0.0063433093 0.04107392 -0.010989543
0.0066446965 -0.04960826 -0.0069653797 0.059645776 -0.061233584 0.02811959 -0.013509709 -0.011511713
-0.022206299 0.009357645 0.063597985 -0.013492913 -0.031131588 -0.043058377 0.0063377586 0.0019764723
-0.039392736 0.03091237 -0.034885492 0.07230981 -0.04598003 0.04361096 -0.013229043 0.060415808
0.0003585767 0.022120554 -0.04657675 -0.024101008 0.051582463 -0.08362802 -0.047545813 -0.07597106
-0.035569265 -0.028513052 -0.00849603 -0.017416663 -0.04607283 -0.0018060901 0.02115958 0.051862992
0.018614244 -0.023873078 -0.0050342036 0.021673976 -0.021323768 0.030522048 -0.004313666 -0.00860256
-0.086902544 0.033550467 -0.044147104 -0.01787414 0.06657133 0.045697358 -0.0133151375 -0.019134296
-0.042956203 0.009758743 0.038585056 0.029845806 -0.04996266 0.0049387454 0.058823455 0.0038108414
0.05631778 -0.03250375 0.031854223 0.023971925 0.045146454 0.06383635 0.0058584297 -0.029633712
-0.012653831 -0.07216835 0.018919166 -0.043792084 0.015739989 -0.033879522 0.0064919735 0.012336829
-0.04027315 0.03166025 -0.0071367766 -0.04734083 0.0014858821 -0.0028959105 0.046094425 -0.012326085
0.040241838 -0.052653525 -0.032515004 0.046407696 -0.036606785 0.046985675 0.023776758 -0.0064310255
-0.03171235 -0.042786583 0.06549752 -0.02557606 -0.020614667 -0.010599764 0.007759899 -0.04861392
0.027353624 -0.043099813 -0.0071480423 0.032888096 0.04683486 -0.019989599 0.0036062843 -0.022269925
0.05375952 -0.07728077 0.040159326 -0.055614457 0.009358855 -0.045867495 0.045322224 -0.058240127
-0.017692307 0.044364527 -0.014668587 0.0013609874 -0.014110041 0.0147985285 -0.01766164 -0.07293446
0.06611581 -0.0146569535 -0.06246395 -0.029942274 0.037619162 0.060314227 -0.07614737 0.07515366
-0.023143206 -0.02824277 -0.01365551 -0.0063064937 -0.00494196 -0.029056521 -0.018639809 -0.010698303
0.017949224 0.05840672 0.01900551 0.015377795 0.07074083 -0.028698169 0.036613405 -0.0404979
00000000: dd2b 56bc 463a 80bd 7a09 143d 661c b23c
00000010: 0586 513d 8071 713c a66c 973c b020 25bd
00000020: 2b9a a93b ae7c 2dbd b73b 893b 10e9 213d
00000030: ee72 ef3c 7e27 283c e7e0 64bd 4037 9b3c
00000040: 5fad 603c ca14 233d 55df 573d ebc3 4fbd
00000050: 33aa a2bd 6e49 f4bc 62b7 f9bc 9748 623b
00000060: dc48 13ba 34ec 35bd e5bc 71bd 048d 063d
00000070: 1ec9 ce3c 926c 30bd 066f edbc 631b 40bd
00000080: d63e e93c b9b6 5dbc 88dd 993c 3b8f 92bd
00000090: 4e3d b0b9 c375 483d 304d 493d c356 443c
000000a0: 04cd 11bd 07ec ea3c b474 acbd afb7 fb3c
000000b0: d9fc 21ba 9e53 79bb 87fe 57bd 376f b53c
000000c0: d22a 473c c151 4fbb 10b2 803b 25d2 8c3d
000000d0: 8360 2a3c 0813 123d 9871 c83c 2980 7d3c
000000e0: 9dd0 d2bc e171 963c c93e f8bc a6b2 1d3d
000000f0: d02b 033d 4c62 15bd 3960 113d 5ecb acbb
00000100: 78b2 0d3d 40b1 20bc 07dc c0bc 6751 55bd
00000110: 7ccb ad3b ffb4 893d 504b 5e3d 98fe 3a3d
00000120: 7649 10bd 187b 8dbc b634 bf3b 6808 013d
00000130: 6001 1f3d 16f2 d9bc 7cf0 983c dcd0 f23c
00000140: 7f21 3abd 0f87 c23c e896 76bc bae0 5f3c
00000150: b40d 62bc a18c 803c 43f7 86bb 647b 053d
00000160: 6964 dabc 7669 1ebd 944b 5fbc 207d c53c
00000170: c5b5 323d 1d3b 7abc ffa3 873b b6a1 febc
00000180: acd3 603d 795e 14bd 678d 723c d393 2abd
00000190: 9da0 92bd 89db cf3b 203d 283d 7c0d 34bc
000001a0: c1bb d93b 0832 4bbd d73d e4bb 214f 743d
000001b0: 11d0 7abd 0e5b e63c d457 5dbc a09b 3cbc
000001c0: fce9 b5bc cf50 193c a93f 823d 6111 5dbc
000001d0: ac07 ffbc fb5d 30bd f9ac cf3b b487 013b
000001e0: 475a 21bd f03b fd3c 17e4 0ebd 2a17 943d
000001f0: 8e55 3cbd 68a1 323d a1be 58bc 9176 773d
00000200: 5aff bb39 2a36 b53c 43c7 3ebd 7a6f c5bc
00000210: 2248 533d 2b45 abbd 66bf 42bd b796 9bbd
00000220: 14b1 11bd 3494 e9bc ef32 0bbc 64ad 8ebc
00000230: ddb6 3cbd 54ba ecba db56 ad3c 4a6e 543d
00000240: e67c 983c 7991 c3bc f6f5 a4bb 9f8d b13c
00000250: 2faf aebc 6009 fa3c a759 8dbb c0f1 0cbc
00000260: f6f9 b1bd 376c 093d 98d3 34bd ca6c 92bc
00000270: 8d56 883d 272d 3b3d bc27 5abc 87bf 9cbc
00000280: d8f2 2fbd 23e3 1f3c 5d0b 1e3d 317f f43c
00000290: a5a5 4cbd 33d5 a13b ddf0 703d 4fbf 793b
000002a0: 79ad 663d a722 05bd 9379 023d c560 c43c
000002b0: 7deb 383d a2bc 823d 12f8 bf3b 66c2 f2bc
000002c0: 0452 4fbc 00cd 93bd 5efc 9a3c 545f 33bd
000002d0: 26f1 803c 41c5 0abd 9fba d43b 6920 4a3c
000002e0: 75f5 24bd 2eae 013d 9fdb e9bb 75e8 41bd
000002f0: eec1 c23a 51c9 3dbb 82cd 3c3d 59f3 49bc
00000300: a0d4 243d 39ab 57bd 742e 05bd ff15 3e3d
00000310: fff0 15bd 0d74 403d 7ac7 c23c 5abb d2bb
00000320: cfe4 01bd fc40 2fbd 9023 863d e384 d1bc
00000330: 17e0 a8bc a2aa 2dbc c046 fe3b 641f 47bd
00000340: b514 e03c 6e89 30bd 203a eabb abb5 063d
00000350: e9d5 3f3d 3ac1 a3bc 6957 6c3b 6b6f b6bc
00000360: f132 5c3d 6145 9ebd 1b7e 243d fccb 63bd
00000370: e255 193c 8edf 3bbd cca3 393d 338d 6ebd
00000380: 75ef 90bc 94b7 353d 8354 70bc 2963 b23a
00000390: cd2d 67bc 8775 723c 25af 90bc aa5e 95bd
000003a0: ba67 873d b823 70bc 33da 7fbd 8049 f5bc
000003b0: 8d16 1a3d 0d0c 773d 27f3 9bbd 29ea 993d
000003c0: d296 bdbc 625d e7bc 5cbb 5fbc b4a6 cebb
000003d0: 2af0 a1bb f107 eebc 83b2 98bc ef47 2fbc
000003e0: 400a 933c e33b 6f3d 71b1 9b3c 26f3 7b3c
000003f0: 91e0 903d 6c18 ebbc f0f7 153d 20e1 25bd

bias f4 [128]
-0.02545322 0.038811706 0.0068546417 -0.0035197022 0.02855462 -0.013060051 -0.020249477 -0.037502166
-0.048911314 -0.029369604 0.046861995 0.022177383 0.031472947 -0.0019591777 0.019818272 0.014522128
0.0017653189 -0.04915989 0.059482418 0.018766908 0.03183138 0.021356931 0.04283787 -0.03875762
0.050624166 0.030627554 0.034259543 0.031570416 0.040800378 -0.0114707295 0.03173288 0.029363316
0.0017066301 -0.059228003 -0.015608829 0.0096938955 -0.017927885 0.010581625 0.046563435 -0.0271715
-0.05474869 0.025141623 0.0021702517 -0.012806349 -0.055949826 0.03674683 0.0408083 0.060625892
-0.04872361 -0.008850354 -0.038375672 -0.011978662 0.042320848 0.0483378 0.038502675 -0.04543596
-0.013578247 0.05297588 0.035454065 -9.797302e-05 -0.04889408 0.013814748 0.017441452 -0.048696965
0.0090228915 0.045543678 -0.050833307 0.02174353 0.019690076 -0.009541055 -0.035021584 0.057689708
-0.0154316155 -0.061621416 0.036286235 -0.0019430352 0.023167558 0.036020815 -0.038854793 0.021598175
0.032582175 0.049383916 -0.048025038 -0.053475924 0.058146294 -0.020099217 0.0007010822 -0.05601463
-0.029501004 0.042920023 -0.051982645 0.049230844 -0.024528636 0.0013542171 -0.052072044 0.060766805
-0.004406803 0.05136726 -0.0130141415 -0.047573272 -0.04017766 0.050987884 -0.0533904 0.011521286
-0.021134892 -0.0102421725 0.032445524 -0.03772462 0.023787612 0.00086478965 -0.012794889 -0.04787751
0.05302226 -0.0066138874 0.046438 -0.026717816 -0.044271715 -0.0032360961 0.007642237 -0.059798438
-0.045684393 -0.026352547 0.013562465 -0.058955025 0.05160391 0.048529707 0.054582734 -0.048164256
00000000: 4583 d0bc 06f9 1e3d e79c e03b ceaa 66bb
00000010: 61eb e93c d3f9 55bc 3be2 a5bc df9b 19bd
00000020: 3b57 48bd 8698 f0bc 5df2 3f3d 58ad b53c
00000030: c7e9 003d 8c65 00bb ee59 a23c 38ee 6d3c
00000040: 4662 e73a e15b 49bd d6a3 733d 0fbd 993c
00000050: 9f61 023d bbf4 ae3c c376 2f3d 4fc0 1ebd
00000060: 495b 4f3d a3e6 fa3c bc53 0c3d fb4f 013d
00000070: 4c1e 273d baef 3bbc 56fa 013d 568b f03c
00000080: 01b1 df3a 1099 72bd 2dbc 7fbc 25d3 1e3c
00000090: 80dd 92bc 8d5e 2d3c 4db9 3e3d c496 debc
000000a0: 2a40 60bd cef5 cd3c c83a 0e3b b9d1 51bc
000000b0: a52b 65bd d883 163d 9b26 273d db52 783d
000000c0: 6892 47bd 1301 11bc cf2f 1dbd 2642 44bc
000000d0: a058 2d3d dbfd 453d fbb4 1d3d 0f1b 3abd
000000e0: 4c77 5ebc 3dfd 583d 4838 113d dd76 cdb8
000000f0: 2945 48bd 4157 623c 60e1 8e3c 7876 47bd
00000100: c0d4 133c 028c 3a3d 9636 50bd 7d1f b23c
00000110: 154d a13c 1652 1cbc cb72 0fbd 0b4c 6c3d
00000120: e3d4 7cbc bd66 7cbd e0a0 143d 71ad feba
00000130: e4c9 bd3c 908a 133d 3426 1fbd a8ee b03c
00000140: e374 053d ca46 4a3d e7b5 44bd 9209 5bbd
00000150: cf2a 6e3d 1da7 a4bc d4c8 373a 996f 65bd
00000160: 17ac f1bc e8cc 2f3d c1eb 54bd 48a6 493d
00000170: 47f0 c8bc fc7f b13a 7f49 55bd 9de6 783d
00000180: f166 90bb 7a66 523d 4439 55bc 31dc 42bd
00000190: 5491 24bd acd8 503d e4af 5abd c7c3 3c3c
000001a0: 1523 adbc c9ce 27bc 99e5 043d 2285 1abd
000001b0: 3dde c23c 0db3 623a a7a1 51bc 351b 44bd
000001c0: df2d 593d 4fb9 d8bb c635 3e3d 52df dabc
000001d0: 4256 35bd af14 54bb bb6b fa3b 35ef 74bd
000001e0: 8f1f 3bbd 4ce1 d7bc 1a35 5e3c d37a 71bd
000001f0: 9f5e 533d 16c7 463d 2592 5f3d e247 45bd

weight f4 [128]
1.0520254 1.0514346 1.0633366 1.0436612 1.064182 1.0478132 1.0054203 1.0436717
1.0438696 1.048909 1.053591 1.0415998 1.0405725 1.0401204 1.0543561 1.0457366
1.0547327 1.0529884 1.0421351 1.0506529 1.0428579 1.0568812 1.0507773 1.047433
1.0486107 1.0299605 1.0552984 1.0396297 1.0539951 1.0725588 1.0604755 1.0475252
1.046014 1.0515653 1.054337 1.0465591 1.0439879 1.0491352 1.0486438 1.0536689
1.0427674 1.0402747 1.0122689 1.0541178 1.0410255 1.0582396 1.049827 1.0511026
1.0461937 1.0495205 1.0587761 1.0435741 1.0532601 1.0274899 1.0461787 1.035956
1.0445893 1.0468637 1.0488956 1.0476961 1.0534989 1.0459913 1.0524938 1.0405016
1.050132 1.060955 1.0331521 0.97934264 1.047088 1.0473872 1.0558923 1.042321
1.048982 1.0430655 1.0457298 1.0469055 1.0419449 1.0531198 1.0484158 1.0333588
1.0510377 1.0548713 1.0349895 1.043455 1.0473198 1.0483166 1.0399249 1.0482063
1.0584257 1.048921 1.0418996 1.0532125 1.0456691 1.0547689 1.043653 1.0550961
1.0406836 1.0481708 1.0522172 1.0482208 1.0377446 1.0448416 1.0517585 1.0498061
1.0409906 1.0434412 1.0466353 1.0445453 1.0450927 1.0468146 1.0608003 1.053435
1.0451598 1.0519065 1.0380292 1.0342718 1.0434065 1.0520511 1.044517 1.0469579
1.0432359 1.0505604 1.0508689 1.0467752 1.0389296 1.0508953 1.0487534 1.0503708
00000000: c5a8 863f 6995 863f 6a1b 883f b196 853f
00000010: 1e37 883f be1e 863f 9db1 803f 0997 853f
00000020: 859d 853f a642 863f 12dc 863f 2453 853f
00000030: 7b31 853f aa22 853f 24f5 863f b2da 853f
00000040: 7b01 873f 53c8 863f af64 853f cb7b 863f
00000050: 5e7c 853f e247 873f df7f 863f 4912 863f
00000060: e038 863f bfd5 833f 0514 873f 9612 853f
00000070: 50e9 863f 9b49 893f a9bd 873f 4e15 863f
00000080: c9e3 853f b199 863f 84f4 863f a6f5 853f
00000090: 65a1 853f 104a 863f f639 863f 9fde 863f
000000a0: 6779 853f b927 853f 0792 813f 55ed 863f
000000b0: 5340 853f 6574 873f bb60 863f 888a 863f
000000c0: ade9 853f b056 863f fa85 873f d693 853f
000000d0: 3ad1 863f ca84 833f 2fe9 853f 359a 843f
000000e0: 1ab5 853f a1ff 853f 3642 863f e81a 863f
000000f0: 0dd9 863f 0be3 853f 1eb8 863f 282f 853f
00000100: ba6a 863f 60cd 873f 543e 843f 33b6 7a3f
00000110: fb06 863f c910 863f 7b27 873f c66a 853f
00000120: 0b45 863f 2c83 853f 79da 853f 0001 863f
00000130: 735e 853f a1cc 863f 7d32 863f 1a45 843f
00000140: 6788 863f 0606 873f 897a 843f ef8f 853f
00000150: 930e 863f 3d2f 863f 421c 853f a02b 863f
00000160: 7e7a 873f 0b43 863f f75c 853f abcf 863f
00000170: 7cd8 853f ab02 873f 6c96 853f 640d 873f
00000180: 1f35 853f 762a 863f 0eaf 863f 192c 863f
00000190: d1d4 843f 5fbd 853f 06a0 863f 0c60 863f
000001a0: 2e3f 853f 7b8f 853f 25f8 853f a9b3 853f
000001b0: 99c5 853f 05fe 853f 4ec8 873f f5d6 863f
000001c0: ccc7 853f dfa4 863f 24de 843f 0563 843f
000001d0: 588e 853f 9ca9 863f bcb2 853f b702 863f
000001e0: c188 853f c378 863f df82 863f bbfc 853f
000001f0: a5fb 843f bd83 863f 8d3d 863f 8d72 863f
