backend/app/data/keypoint_classifier.pt (torch, 253231 bytes, 16 tensors)

weight f4 [256, 42]
0.13873197 -0.06857868 -0.015183898 0.45775527 0.030812457 0.36493722 0.06298684 0.18954635
0.02841636 0.6076901 0.09200402 0.26884764 0.057477802 0.2973099 -0.0159323 0.27039665
0.024616692 0.22889574 -0.08260246 0.15497126 0.08580788 0.41295204 0.0046096453 0.28579557
0.19328925 0.12341076 0.011216478 -0.21969043 -0.0037357237 0.22991033 -0.07460713 0.21683154
-0.09451881 0.19443417 -0.08908665 -0.27194804 -0.017447976 -0.07452017 0.1076812 -0.27146575
0.039352916 -0.13078088 -0.015541093 0.017825777 -0.12927628 0.03559779 0.002037284 -0.100844234
0.11135605 0.14683443 -0.11125555 -0.0700022 -0.062328428 0.09570272 -0.27710727 -0.3616668
-0.13450514 -0.32043654 0.018884692 0.31958136 -0.004815339 0.21263292 0.23804793 0.20916034
0.34346357 -0.08436296 0.35179657 0.018881995 0.09196291 0.0063251294 -0.13357313 0.09640111
-0.20213583 -0.21842055 -0.23773311 -0.08068853 0.013734324 -0.2422954 0.12986696 -0.08357092
-0.03212388 0.08811136 -0.1464541 0.2772196 0.031066217 -0.0019191881 -0.17389643 -0.05781449
-0.28472131 0.035494234 -0.36849934 0.076316595 -0.23445916 -0.08509586 -0.24597609 -0.05005198
0.032334134 -0.17184117 0.2654493 0.13759086 0.11795191 -0.042824265 -0.2445043 -0.006076651
-0.09702198 -0.12564473 -0.11865254 -0.2052568 0.0031670618 0.15296759 0.03901127 0.07724127
0.15190573 -0.0371114 -0.101755664 0.0475524 0.15650076 0.25733554 -0.1339808 0.23050888
0.18640333 -0.12394385 0.32830226 0.15077433 0.40646914 -0.050223332 -0.019230789 -0.017190192
0.14589062 -0.047339935 0.19475833 -0.19911402 -0.049908817 -0.0519844 -0.2816154 0.41643232
-0.24772707 0.11623781 0.32780525 0.051868476 0.14627206 0.13793403 0.2506002 -0.091178454
-0.24398825 -0.031245539 -0.031929363 0.102550335 -0.08117917 -0.120248385 -0.25604713 -0.06164762
0.027088938 -0.18341005 0.3504234 0.06634067 0.31781396 -0.20819764 -0.010674575 -0.2092555
-0.06505918 -0.038269375 0.045147054 -0.076601006 -0.045300476 0.24145173 -0.16539331 0.1657074
0.031486165 0.033729315 -0.035910606 -0.033708073 -0.05852612 0.03363787 0.19262782 0.04209512
0.54115695 0.10614682 -0.006318433 -0.18597655 -0.20113444 -0.1388331 -0.3307642 -0.07811612
-0.44053724 -0.013917838 0.09882424 -0.22241239 0.052004583 0.016986432 -0.038303822 0.14783363
-0.21845654 -0.060775105 0.2250949 0.15175606 0.08559658 0.014146417 0.08688347 0.21806054
0.0062813885 -0.14751898 -0.08023364 0.04477428 -0.07046434 0.09130102 0.03019029 0.01006758
0.24983127 -0.1150388 0.02036288 0.020661121 -0.061068866 -0.15141255 -0.01888268 0.106187835
0.05136929 -0.16986062 0.02764218 -0.24077053 -0.09482469 0.39239493 0.1838371 -0.3847315
0.0047594532 -0.411907 -0.017350914 -0.0336164 0.11531347 0.11909669 0.07264401 0.030397292
-0.046972968 -0.119114235 0.26544887 0.175866 -0.08806458 -0.13402641 -0.03642119 0.27848002
-0.11490089 -0.05612005 -0.084207244 0.35410112 0.09506438 -0.26536882 -0.065908805 -0.14007823
-0.05319914 0.043308433 0.076274365 0.44039914 -0.02838421 -0.011996398 -0.06223892 0.24508639
00000000: c10f 0e3e fb72 8cbd e2c5 78bc e65e ea3e
00000010: 686a fc3c 0dd9 ba3e 3fff 803d 7018 423e
00000020: 6dc9 e83c 9491 1b3f 9b6c bc3d 66a6 893e
00000030: d86d 6b3d 0139 983e 7484 82bc 6e71 8a3e
00000040: f2a8 c93c a563 6a3e 7b2b a9bd c9b0 1e3e
00000050: 0bbc af3d 736e d33e 820c 973b cc53 923e
00000060: 9eed 453e c8be fc3d 52c5 373c 87f6 60be
00000070: 0bd3 74bb 9d6d 6b3e 9fcb 98bd 1609 5e3e
00000080: 1493 c1bd c019 473e 1073 b6bd c63c 8bbe
00000090: 0fef 8ebc 089e 98bd f687 dc3d 8ffd 8abe
000000a0: 8630 213d 6ceb 05be 12a0 7ebc 5d07 923c
000000b0: 0061 04be fdce 113d f483 053b 6c87 cebd
000000c0: a40e e43d c45b 163e f3d9 e3bd 505d 8fbd
000000d0: 184c 7fbd caff c33d 01e1 8dbe 642c b9be
000000e0: b7bb 09be 4210 a4be 12b4 9a3c 2ba0 a33e
000000f0: fec9 9dbb 72bc 593e d6c2 733e 212e 563e
00000100: 75da af3e 7dc6 acbd ae1e b43e 6aae 9a3c
00000110: 0d57 bc3d 0843 cf3b 65c7 08be f26d c53d
00000120: b2fc 4ebe a3a9 5fbe 4f70 73be 0740 a5bd
00000130: ee05 613c 491c 78be d8fb 043e 3b27 abbd
00000140: 5494 03bd bb73 b43d 10f8 15be baef 8d3e
00000150: 947e fe3c 448d fbba e811 32be e3ce 6cbd
00000160: fec6 91be 6762 113d f2ab bcbe e04b 9c3d
00000170: 1016 70be bd46 aebd 28e1 7bbe 4e03 4dbd
00000180: cc70 043d 22f7 2fbe f8e8 873e 9ee4 0c3e
00000190: c590 f13d 7f68 2fbd 565f 7abe a51e c7bb
000001a0: 76b3 c6bd 03a9 00be 1a00 f3bd d72e 52be
000001b0: 7b8e 4f3b 89a3 1c3e 48ca 1f3d ac30 9e3d
000001c0: 2d8d 1b3e 2002 18bd 4665 d0bd 4ec6 423d
000001d0: bc41 203e 7cc1 833e 4332 09be 850a 6c3e
000001e0: 84e0 3e3e 46d6 fdbd 3c17 a83e 9664 1a3e
000001f0: b91c d03e fbb6 4dbd e389 9dbc 72d2 8cbc
00000200: 5a64 153e 85e7 41bd ba6e 473e 8ce4 4bbe
00000210: 306d 4cbd 98ed 54bd e52f 90be 9e36 d53e
00000220: 2aac 7dbe 170e ee3d 17d6 a73e 0a74 543d
00000230: 58c8 153e 943e 0d3e ab4e 803e c5bb babd
00000240: 0ed8 79be a5f6 ffbc 5dc8 02bd e905 d23d
00000250: 4441 a6bd c944 f6bd 9c18 83be 3782 7cbd
00000260: 9fe9 dd3c d8cf 3bbe b26a b33e 9edd 873d
00000270: 83b8 a23e c331 55be 6ae4 2ebc 1347 56be
00000280: bf3d 85bd 59c0 1cbd 1eec 383d fde0 9cbd
00000290: fe8c 39bd 1f3f 773e dd5c 29be 33af 293e
000002a0: a3f7 003d c027 0a3d 0017 13bd 7a11 0abd
000002b0: 16b9 6fbd ddc7 093d 3a40 453e ef6b 2c3d
000002c0: 4389 0a3f 8163 d93d dc0a cfbb a370 3ebe
000002d0: 30f6 4dbe 442a 0ebe ed59 a9be 58fb 9fbd
000002e0: 198e e1be a507 64bc 5d64 ca3d 13c0 63be
000002f0: c202 553d 2127 8b3c 78e4 1cbd b361 173e
00000300: 12b3 5fbe 51ef 78bd 477f 663e f165 1b3e
00000310: 424d af3d 60c6 673c f6ef b13d 434b 5f3e
00000320: 1bd4 cd3b 370f 17be 8951 a4bd 3c65 373d
00000330: 9c4f 90bd 07fc ba3d a151 f73c 7ef2 243c
00000340: c5d3 7f3e 7699 ebbd 0ed0 a63c 8341 a93c
00000350: 5923 7abd e40b 1bbe daaf 9abc 0279 d93d
00000360: 9b68 523d f1ef 2dbe da71 e23c 8d8c 76be
00000370: 7233 c2bd fde7 c83e cb3f 3c3e 87fb c4be
00000380: 30f5 9b3b 79e5 d2be 8123 8ebc 5ab1 09bd
00000390: 7829 ec3d f7e8 f33d 62c6 943d be03 f93c
000003a0: ba66 40bd 2af2 f3bd eae8 873e 3716 343e
000003b0: 345b b4bd 383e 09be 632e 15bd ef94 8e3e
000003c0: 2851 ebbd 23de 65bd d974 acbd be4c b53e
000003d0: 1db1 c23d 6cde 87be 32fb 86bd ab70 0fbe
000003e0: 57e7 59bd 2f64 313d bc35 9c3d ff7b e13e
000003f0: 0186 e8bc 8a8c 44bc 3dee 7ebd edf7 7a3e

bias f4 [256]
-0.061952382 0.14685647 0.07489398 -0.021612998 -0.04195887 0.024932602 -0.10277562 -0.04449675
0.12223015 -0.05972034 0.0045584757 -0.014909452 -0.052966792 -0.020759469 0.035188604 0.1259653
-0.11102779 -0.06979568 0.1396419 -0.12900555 0.09806061 0.03746518 -0.062360067 0.10518619
-0.17487293 0.0904164 -0.043258313 -0.13916358 -0.11920502 0.05544157 0.16585602 -0.1425287
-0.00060662 0.100193866 0.03559418 -0.13418855 -0.11106693 -0.062403116 0.04700738 0.08160755
-0.06250265 -0.11808196 -0.12971298 -0.07423541 -0.064539984 -0.01889122 -0.07519339 0.04404976
-0.020605363 0.048134476 -0.11469111 -0.06832826 0.049090467 -0.08599977 0.070641205 0.106302075
0.12557185 0.10749904 0.056899574 -0.043052606 0.16459964 0.15785739 0.03796835 -0.04943166
0.036890395 -0.023246605 -0.03687164 0.107904665 -0.012496178 0.14874074 0.03399005 0.03737839
0.04512782 -0.0013955028 -0.010770905 -0.050151326 -0.1063093 -0.11416876 0.12799129 -0.1265067
0.043042198 -0.10259841 0.16064776 0.15504174 0.116410546 0.08879925 -0.04033004 0.04257038
0.05264074 0.056253806 0.12979378 0.16098183 -0.0320576 -0.059284166 0.07109787 -0.020260505
-0.0028333315 0.11397401 -0.12574449 0.06687109 0.0922451 0.05378856 -0.10846733 -0.111328505
0.11714663 0.13595961 0.015907202 0.06251343 0.06112856 -0.15385593 -0.032405645 0.09369776
-0.087102056 0.040765807 0.111064926 0.047578957 -0.09568537 0.12557533 0.041979577 -0.117063425
-0.11937625 -0.09867779 -0.04267458 0.13448709 -0.03209315 0.026851228 -4.0117626e-05 -0.06517867
0.04948257 -0.11383793 0.0716055 0.05564718 -0.14683136 0.18557388 0.12541267 0.04875067
0.11286666 0.120790504 0.05340248 -0.11853728 -0.10631539 -0.058868244 -0.0105192335 0.061788265
-0.10758849 0.019397879 0.096891336 0.1302094 -0.087655485 0.039404664 0.1236027 -0.048825245
0.04558841 0.117403485 0.026039485 0.01628893 -0.12306716 -0.13032037 0.14397764 -0.02127763
-0.045430806 -0.111478426 0.06896468 0.1152016 0.14165401 0.021889757 -0.11656254 0.06615226
-0.11956353 0.007104472 -0.14983489 0.12581584 0.07039669 -0.10273636 -0.11458339 -0.08826238
0.09282411 -0.124277346 -0.0019938846 0.023951443 0.07039265 -0.12986916 0.07048743 -0.052882
-0.11969239 -0.1505543 -0.032865763 -0.05679363 0.06873937 0.04682577 0.12220935 0.06584231
0.089605115 -0.11862486 0.028716298 -0.048151553 -0.07731818 -0.0921973 -0.041842736 -0.0983704
-0.063473314 0.025650265 -0.07536936 -0.009563405 -0.06440478 -0.056366317 -0.1345719 -0.12063505
0.005561817 0.12591 0.08695226 0.0049337205 0.053073715 0.08568519 0.15707424 -0.15192696
0.16109273 -0.08012568 0.07248351 0.13155226 0.10333648 -0.0710613 -0.052958686 -0.014059588
-0.14204454 -0.023565808 0.054237876 -0.113627076 -0.012339741 0.15905416 0.053840533 -0.043663744
0.16186273 0.006300265 -0.0008631232 0.06408132 -0.16647875 0.051367603 0.057413727 -0.13821116
0.124507785 -0.14686829 0.052674145 -0.05379871 0.10438113 -0.04734953 0.06405683 -0.15567958
-0.0930644 -0.10991229 -0.07076632 -0.13396093 -0.11658456 -0.14097051 -0.11193529 0.11265259
00000000: c8c1 7dbd 8b61 163e 0462 993d be0d b1bc
00000010: 10dd 2bbd 753f cc3c 067c d2bd 3942 36bd
00000020: cd53 fa3d 519d 74bd 445f 953b c646 74bc
00000030: b5f3 58bd c30f aabc ed21 103d 0cfd 003e
00000040: 8a62 e3bd 0af1 8ebd 49fe 0e3e 081a 04be
00000050: 00d4 c83d 1775 193d 456d 7fbd db6b d73d
00000060: e411 33be 3c2c b93d a12f 31bd e680 0ebe
00000070: c321 f4bd b316 633d 29d6 293e 0bf3 11be
00000080: 9405 1fba 7132 cd3d 34cb 113d b968 09be
00000090: 0f77 e3bd 699a 7fbd cf8a 403d dc21 a73d
000000a0: 6401 80bd f4d4 f1bd 7bd3 04be bc08 98bd
000000b0: 8a2d 84bd c3c1 9abc fefe 99bd 856d 343d
000000c0: 94cc a8bc a828 453d 2ce3 eabd b0ef 8bbd
000000d0: 1613 493d a620 b0bd 56ac 903d e7b4 d93d
000000e0: e895 003e 7528 dc3d 870f 693d ee57 30bd
000000f0: cf8c 283e 5ea5 213e b384 1b3d da78 4abd
00000100: 621a 173d aa6f bebc b706 17bd 1ffd dc3d
00000110: c5bc 4cbc 7e4f 183e 2739 0b3d 151a 193d
00000120: f3d7 383d 4ee9 b6ba 7378 30bc 7a6b 4dbd
00000130: b1b8 d9bd 50d1 e9bd 2610 033e f98a 01be
00000140: 044d 303d 1d1f d2bd d980 243e 43c3 1e3e
00000150: a768 ee3d 62dc b53d 1d31 25bd 475e 2e3d
00000160: d19d 573d 646a 663d a9e8 043e 6cd8 243e
00000170: d44e 03bd f4d3 72bd c39b 913d 5cf9 a5bc
00000180: 6aaf 39bb 356b e93d 2ac3 00be b6f3 883d
00000190: 00eb bc3d 6551 5c3d 1f24 debd 3300 e4bd
000001a0: 93ea ef3d ff38 0b3e d24f 823c 0b07 803d
000001b0: f161 7a3d 698c 1dbe c8bb 04bd 9ce4 bf3d
000001c0: 9062 b2bd 0cfa 263d 0276 e33d 27e2 423d
000001d0: b1f6 c3bd d296 003e c7f2 2b3d f3be efbd
000001e0: 897b f4bd 9517 cabd 8acb 2ebd fcb6 093e
000001f0: 1b74 03bd 1bf7 db3c f943 28b8 657c 85bd
00000200: 3cae 4a3d dc23 e9bd e8a5 923d 4cee 633d
00000210: f65a 16be 1407 3e3e 2e6c 003e c8ae 473d
00000220: a326 e73d 0361 f73d 8fbc 5a3d acc3 f2bd
00000230: e2bb d9bd d41f 71bd dd58 2cbc b115 7d3d
00000240: 5b57 dcbd 4de8 9e3c f76e c63d 9d55 053e
00000250: b884 b3bd c966 213d 6a23 fd3d fbfc 47bd
00000260: eaba 3a3d 3d71 f03d c250 d53c 5d70 853c
00000270: a30a fcbd b472 05be e06e 133e 6d4e aebc
00000280: a715 3abd cd4e e4bd 5b3d 8d3d d1ee eb3d
00000290: c00d 113e 2652 b33c 57b8 eebd d67a 873d
000002a0: b9dd f4bd a1cc e83b 516e 19be ded5 003e
000002b0: 242c 903d 7167 d2bd b2aa eabd e8c2 b4bd
000002c0: 911a be3d 1f85 febd d5ab 02bb d135 c43c
000002d0: 062a 903d 6cfc 04be b75b 903d cc9a 58bd
000002e0: 4921 f5bd e82a 1abe 409e 06bd 70a0 68bd
000002f0: 3ac7 8c3d 61cc 3f3d e548 fa3d 55d8 863d
00000300: e382 b73d 97f1 f2bd 713e eb3c 903a 45bd
00000310: fe58 9ebd f0d1 bcbd 4a63 2bbd 6c76 c9bd
00000320: 4cfe 81bd 8120 d23c 405b 9abd d4af 1cbc
00000330: a7e6 83bd 5ee0 66bd 37cd 09be 820f f7bd
00000340: e73f b63b 8dee 003e 0714 b23d 0cab a13b
00000350: d363 593d b87b af3d 12d8 203e be92 1bbe
00000360: 7ef5 243e ef18 a4bd 3c72 943d a3b5 063e
00000370: 14a2 d33d 9688 91bd 35eb 58bd 305a 66bc
00000380: 2074 11be 150d c1bc 8928 5e3d 50b5 e8bd
00000390: a02c 4abc 18df 223e e487 5c3d c1d8 32bd
000003a0: 58bf 253e 7472 ce3b 3843 62ba 113d 833d
000003b0: 6879 2abe d666 523d a82a 6b3d 3a87 0dbe
000003c0: f0fd fe3d a464 16be d8c0 573d 095c 5cbd
000003d0: c6c5 d53d 95f1 41bd 3a30 833d 786a 1fbe
000003e0: 8c98 bebd b219 e1bd efed 90bd 0e2d 09be
000003f0: e3c3 eebd 935a 10be 543e e5bd 67b6 e63d

weight f4 [256]
0.5860479 0.94505584 0.82965744 0.84113306 0.8538199 0.88857687 0.8654822 1.0503724
0.973578 0.9523209 1.0626059 0.8918159 0.9702931 0.7805277 0.75074464 0.86594594
0.700683 0.9338709 0.93500537 0.8869027 0.9268018 0.99976087 0.93412423 0.8955047
0.8880153 0.8902145 0.8459211 0.84256756 0.8041021 0.8846325 0.82891196 0.7931929
0.88136953 0.91043526 0.827396 0.80072975 0.7733251 0.9011073 0.82361454 0.83667433
0.79360986 0.92575854 0.87311566 0.99512476 0.9541303 0.8472452 0.694457 0.6764134
0.86902964 0.7764169 0.87053347 0.9024492 0.83757806 0.917797 0.7677609 0.9047763
0.83143854 0.9317192 0.9143065 0.843668 0.79022986 0.88502514 0.8882681 0.8217666
0.9063269 0.7793805 0.898365 0.95539963 0.8877957 0.8307925 0.9331108 0.8726166
0.77791923 0.8149538 0.94508654 0.7643486 1.0708473 0.97103465 0.95399755 0.842711
0.8285379 0.6184597 0.86586934 1.00859 0.82109714 0.8580997 0.8523608 0.9630829
0.9472171 0.73279953 0.9978499 0.9316343 0.62723505 0.7726599 0.88850784 1.0754422
0.8453071 0.91258633 0.93565553 0.94396305 1.0116313 0.93057346 0.7900059 1.0055138
0.867096 0.64844567 0.8098787 0.8296684 1.0404431 0.8976744 0.93072695 0.87140334
0.75652134 0.5981251 0.78238463 0.9657212 0.78874636 0.6866163 0.90972984 0.7969086
0.86956406 0.8638482 0.67568976 0.928478 0.8574359 0.7597766 0.99981993 0.8845376
0.88714457 0.92827326 0.84612244 0.8073852 0.85413224 0.8006152 0.8995742 0.9734528
0.87328774 0.7976388 0.8455052 1.0056053 0.7339722 0.903935 1.0523887 0.9655814
0.7602738 0.7932045 0.8775624 0.77558696 1.0276533 0.8798397 0.78054833 0.74693215
0.94506186 0.8521166 0.8160778 0.8304228 0.8098972 0.86024225 0.9444194 0.8205068
1.0178514 0.8170545 1.0888357 0.8094772 0.9277626 0.93359876 0.897202 0.92779154
0.89769024 0.7453746 0.9940765 0.877833 0.821073 0.8021169 0.77591425 0.9823796
0.86292076 0.8881006 0.8337391 0.66969806 0.95335233 0.8352602 0.94043356 0.76750565
0.84963566 0.67222506 0.9647817 0.7947291 0.8195134 0.9541015 0.8861822 1.0147513
1.1228982 0.96140414 0.7481495 0.63581055 0.87385494 0.97257984 0.8526655 0.9186567
0.85938746 0.9098035 0.82086873 0.77322626 0.9002576 0.797118 0.9215213 0.90538085
0.80149174 0.8900975 0.9363343 0.87321943 1.102604 0.8983169 0.9369917 0.8972544
0.8619302 0.7980506 0.84295356 0.7590721 0.76889604 0.8482777 0.7778421 0.9646739
0.82701445 0.8599862 0.8560169 0.8638193 0.7977606 0.7475424 0.89142835 0.83640206
0.68181646 0.8439591 0.80339336 0.8409199 1.0226766 0.8737246 0.8319371 0.9916551
1.0125898 0.82648534 0.86260355 0.91842896 0.89028144 0.9647125 0.88286835 1.133801
0.93923837 0.859967 0.858448 0.88268805 0.9219857 0.93219596 0.936781 0.8611634
00000000: 3c07 163f 2eef 713f 6e64 543f 7f54 573f
00000010: f193 5a3f c679 633f 3e90 5d3f 9a72 863f
00000020: 683c 793f 4dcb 733f 7803 883f 0c4e 643f
00000030: 2165 783f aad0 473f cd30 403f a2ae 5d3f
00000040: f65f 333f 2a12 6f3f 835c 6f3f 0e0c 633f
00000050: e242 6d3f 54f0 7f3f c422 6f3f cc3f 653f
00000060: f854 633f 19e5 633f 498e 583f 82b2 573f
00000070: a3d9 4d3f 4777 623f 9333 543f b10e 4b3f
00000080: 6fa1 613f 4912 693f 39d0 533f a0fc 4c3f
00000090: a2f8 453f f8ae 663f 67d8 523f 4a30 563f
000000a0: 042a 4b3f 83fe 6c3f 8284 5f3f 7fc0 7e3f
000000b0: e241 743f 10e5 583f efc7 313f 6e29 2d3f
000000c0: ba78 5e3f 42c3 463f 48db 5e3f e906 673f
000000d0: 846b 563f bff4 6a3f fa8b 443f 6b9f 673f
000000e0: 28d9 543f 2685 6e3f fe0f 6a3f a0fa 573f
000000f0: 814c 4a3f 0291 623f 8a65 633f 4c5f 523f
00000100: 0a05 683f 7b85 473f 40fb 653f 1295 743f
00000110: 9446 633f d1ae 543f 59e0 6e3f cd63 5f3f
00000120: b725 473f d0a0 503f 31f1 713f 5aac 433f
00000130: 8611 893f ba95 783f 2f39 743f e8bb 573f
00000140: 0f1b 543f 6053 1e3f 9da9 5d3f 7a19 813f
00000150: 6c33 523f 6cac 5b3f 5134 5a3f 9a8c 763f
00000160: d27c 723f c098 3b3f 1773 7f3f 967f 6e3f
00000170: 7a92 203f 0acd 453f 4075 633f 17a8 893f
00000180: 0c66 583f 429f 693f 1f87 6f3f 90a7 713f
00000190: 227d 813f 103a 6e3f d43d 4a3f adb4 803f
000001a0: 01fa 5d3f 8900 263f 3654 4f3f 2665 543f
000001b0: 3d2d 853f fdcd 653f 1f44 6e3f 4a14 5f3f
000001c0: 62ab 413f ba1e 193f 5c4a 483f 8139 773f
000001d0: 48eb 493f 16c6 2f3f 0ee4 683f 3402 4c3f
000001e0: c09b 5e3f 2825 5d3f 01fa 2c3f bcb0 6d3f
000001f0: eb80 5b3f b880 423f 33f4 7f3f 0e71 623f
00000200: e81b 633f 51a3 6d3f 7b9b 583f ccb0 4e3f
00000210: 69a8 5a3f 1ef5 4c3f 7f4a 663f 3434 793f
00000220: c98f 5f3f 0e32 4c3f 0773 583f adb7 803f
00000230: 9ae5 3b3f 4968 673f acb4 863f 5830 773f
00000240: 4ea1 423f 730f 4b3f eea7 603f de8c 463f
00000250: 258a 833f 2d3d 613f 04d2 473f f236 3f3f
00000260: 93ef 713f 5024 5a3f 7aea 503f 9796 543f
00000270: 6c55 4f3f d638 5c3f 78c5 713f bc0c 523f
00000280: f448 823f 7c2a 513f f85e 8b3f e639 4f3f
00000290: da81 6d3f 5400 6f3f 08af 653f bf83 6d3f
000002a0: 07cf 653f dfd0 3e3f cc7b 7e3f aab9 603f
000002b0: d731 523f 8857 4d3f 51a2 463f 3b7d 7b3f
000002c0: 60e8 5c3f 905a 633f ed6f 553f 5571 2b3f
000002d0: e60e 743f 9dd3 553f 41c0 703f 407b 443f
000002e0: b981 593f f116 2c3f effb 763f 5e73 4b3f
000002f0: a1cb 513f ff3f 743f d6dc 623f 5fe3 813f
00000300: 21bb 8f3f 951e 763f ba86 3f3f 7bc4 223f
00000310: f5b4 5f3f fefa 783f 4948 5a3f 162d 6b3f
00000320: d100 5c3f e2e8 683f 7424 523f 28f2 453f
00000330: 4877 663f ed0f 4c3f d2e8 6b3f 0ac7 673f
00000340: 902e 4d3f 6edd 633f 9bb3 6f3f 4f8b 5f3f
00000350: 2122 8d3f 19f8 653f b0de 6f3f 77b2 653f
00000360: 75a7 5c3f 0b4d 4c3f cecb 573f 8d52 423f
00000370: 5fd6 443f ba28 593f a920 473f def4 763f
00000380: 38b7 533f 0e28 5c3f ec23 5b3f 4323 5d3f
00000390: 0a3a 4c3f f05e 3f3f a634 643f 721e 563f
000003a0: 868b 2e3f b40d 583f 30ab 4d3f 8746 573f
000003b0: 11e7 823f 6aac 5f3f d4f9 543f 1cdd 7d3f
000003c0: 8b9c 813f 8b94 533f 96d3 5c3f 291e 6b3f
000003d0: 7ce9 633f 66f7 763f a903 623f 6420 913f
000003e0: ed71 703f cc26 5c3f 40c3 5b3f d8f7 613f
000003f0: 4107 6c3f 65a4 6e3f e1d0 6f3f 3475 5c3f

bias f4 [256]
-0.621846 -0.6085155 -0.61106664 -0.47273585 -0.5926693 -0.4730448 -0.5021388 -0.49641398
-0.5478533 -0.67454654 -0.566578 -0.35253948 -0.31997237 -0.48433283 -0.34648672 -0.42430842
-0.36023715 -0.5145252 -0.47857893 -0.38448358 -0.5362722 -0.7001509 -0.5872271 -0.5044417
-0.47960204 -0.6630507 -0.5136293 -0.34195775 -0.43123916 -0.43299842 -0.36712444 -0.3808906
-0.55139184 -0.56200427 -0.46125588 -0.37652048 -0.5442578 -0.5110538 -0.23899935 -0.33328438
-0.61621654 -0.46576974 -0.5241725 -0.645037 -0.4345373 -0.3943989 -0.3942088 -0.32931206
-0.32473546 -0.40307707 -0.58142376 -0.49466765 -0.56335497 -0.3981189 -0.26875022 -0.24416609
-0.5461993 -0.53990656 -0.5149652 -0.3118288 -0.47101906 -0.46271676 -0.3899222 -0.47653586
-0.3481678 -0.28966978 -0.5120561 -0.59188867 -0.49856815 -0.46676704 -0.5771662 -0.59228
-0.55456537 -0.3593722 -0.5330108 -0.65892106 -0.58426315 -0.6004969 -0.5047901 -0.66029066
-0.48780748 -0.24651445 -0.600865 -0.62234676 -0.6717669 -0.5304414 -0.22801603 -0.46249184
-0.43466437 -0.39681348 -0.59193945 -0.48566794 -0.25764936 -0.1331674 -0.63814557 -0.46710166
-0.5208837 -0.40858018 -0.5842441 -0.63240266 -0.5688474 -0.7025236 -0.16810344 -0.5980178
-0.48730928 -0.59061897 -0.5654411 -0.5251004 -0.46586508 -0.72228616 -0.4318517 -0.49763212
-0.5618252 -0.36850527 -0.52411574 -0.56671286 -0.37888575 -0.28813872 -0.5379294 -0.5231603
-0.51497906 -0.4679849 -0.23650642 -0.4312965 -0.5908212 -0.51574415 -0.41776168 -0.5893838
-0.5995999 -0.6710191 -0.44030192 -0.5093069 -0.24245316 -0.618359 -0.44995624 -0.49561524
-0.52993226 -0.37586597 -0.41767615 -0.35506165 -0.7022174 -0.5688538 -0.6575755 -0.6282951
-0.34664598 -0.6531163 -0.56606686 -0.6453299 -0.4260318 -0.5986687 -0.45471534 -0.2076053
-0.3929929 -0.4698611 -0.56970894 -0.588352 -0.53040844 -0.50429493 -0.62419814 -0.53162086
-0.39538163 -0.48368874 -0.5514878 -0.5858068 -0.52814007 -0.5282343 -0.46385768 -0.5417872
-0.598881 -0.3640777 -0.3480486 -0.52654916 -0.5090553 -0.64980584 -0.45260552 -0.55252117
-0.26655033 -0.25489798 -0.43394554 -0.4391577 -0.4858494 -0.63419366 -0.72034764 -0.39741954
-0.49695852 -0.4301848 -0.44399422 -0.36070675 -0.42415303 -0.6201996 -0.5582238 -0.54935765
-0.5105149 -0.5519989 -0.33357167 -0.12767808 -0.58276045 -0.4493865 -0.4973281 -0.5650692
-0.41741705 -0.602359 -0.26874053 -0.5558833 -0.6056113 -0.4082776 -0.49729198 -0.6019399
-0.34845096 -0.3268729 -0.6287698 -0.5700497 -0.46944255 -0.5268254 -0.47262448 -0.62926316
-0.54173756 -0.4742013 -0.4554898 -0.28571674 -0.6076857 -0.24746539 -0.48207292 -0.57222766
-0.68322194 -0.5508983 -0.3965049 -0.54055387 -0.44972506 -0.4488224 -0.30638057 -0.50166845
-0.1595931 -0.61199933 -0.64814276 -0.45742264 -0.36494896 -0.44652852 -0.49653497 -0.44165024
-0.51384145 -0.6590296 -0.475869 -0.45607525 -0.75206214 -0.47127086 -0.4469873 -0.448778
-0.3581791 -0.4280526 -0.5042537 -0.44382152 -0.59060216 -0.42312598 -0.4915936 -0.5680427
00000000: 4d31 1fbf acc7 1bbf dd6e 1cbf 6f0a f2be
00000010: 2db9 17bf ee32 f2be 2b8c 00bf f929 febe
00000020: 1d40 0cbf 15af 2cbf 410b 11bf 0e80 b4be
00000030: 6bd3 a3be 79fa f7be b566 b1be f43e d9be
00000040: 0171 b8be ecb7 03bf 4c08 f5be 08db c4be
00000050: 2349 09bf 173d 33bf 8454 16bf 1723 01bf
00000060: 668e f5be b1bd 29bf 367d 03bf 1615 afbe
00000070: 61cb dcbe f8b1 ddbe bcf7 bbbe 1804 c3be
00000080: 0428 0dbf 83df 0fbf bb29 ecbe 4bc7 c0be
00000090: 7b54 0bbf 6cd4 02bf 3fbc 74be 40a4 aabe
000000a0: 5ec0 1dbf 5f79 eebe 2b30 06bf 2521 25bf
000000b0: ac7b debe a7ee c9be bcd5 c9be 979b a8be
000000c0: ba43 a6be 1e60 cebe 30d8 14bf 1445 fdbe
000000d0: 0838 10bf 3ed6 cbbe a199 89be ad06 7abe
000000e0: b8d3 0bbf 5137 0abf c2d4 03bf 06a8 9fbe
000000f0: 6929 f1be 36e9 ecbe e2a3 c7be 82fc f3be
00000100: 0d43 b2be 994f 94be 1c16 03bf 0486 17bf
00000110: 5344 ffbe 17fc eebe 2ac1 13bf a99f 17bf
00000120: fff7 0dbf a2ff b7be 6573 08bf 0daf 28bf
00000130: 4592 15bf 2aba 19bf ed39 01bf cf08 29bf
00000140: e7c1 f9be 496e 7cbe 4ad2 19bf 1e52 1fbf
00000150: eaf8 2bbf 02cb 07bf 097d 69be bbcb ecbe
00000160: 548c debe 232b cbbe 5889 17bf 78a9 f8be
00000170: 9eea 83be 095d 08be 825d 23bf f327 efbe
00000180: a258 05bf 6c31 d1be 0591 15bf 24e5 21bf
00000190: fc9f 11bf 96d8 33bf 4f23 2cbe b217 19bf
000001a0: 9a80 f9be ce32 17bf bfc0 10bf fb6c 06bf
000001b0: de85 eebe bfe7 38bf ab1b ddbe a3c9 febe
000001c0: c7d3 0fbf b9ac bcbe 732c 06bf 1814 11bf
000001d0: 50fd c1be eb86 93be beb5 09bf d5ed 05bf
000001e0: abd5 03bf b89b efbe bd2e 72be e5d2 dcbe
000001f0: 0f40 17bf cf07 04bf dce4 d5be dbe1 16bf
00000200: 617f 19bf e8c7 2bbf 416f e1be f061 02bf
00000210: a445 78be c74c 1ebf aa60 e6be 48c1 fdbe
00000220: a4a9 07bf 8171 c0be a6d9 d5be a4ca b5be
00000230: 85c4 33bf 67a0 11bf de56 28bf f3d7 20bf
00000240: 957b b1be a132 27bf c2e9 10bf 5734 25bf
00000250: d720 dabe 5a42 19bf 73d0 e8be 7c96 54be
00000260: 5e36 c9be a291 f0be 72d8 11bf 3d9e 16bf
00000270: d9c8 07bf 7919 01bf 73cb 1fbf 4e18 08bf
00000280: 766f cabe 0da6 f7be 4e2e 0dbf 6ff7 15bf
00000290: 3034 07bf 5d3a 07bf c17e edbe 91b2 0abf
000002a0: 4450 19bf 6468 babe 6d33 b2be edcb 06bf
000002b0: 7351 02bf ad59 26bf e9bb e7be 0772 0dbf
000002c0: 4979 88be fd81 82be 1c2e debe 47d9 e0be
000002d0: 41c1 f8be 845a 22bf b468 38bf 937a cbbe
000002e0: 5971 febe 2f41 dcbe 3653 e3be 8eae b8be
000002f0: 962a d9be 67c5 1ebf c1e7 0ebf b4a2 0cbf
00000300: 1bb1 02bf cd4f 0dbf e8c9 aabe 0bbe 02be
00000310: ca2f 15bf fd15 e6be caa1 febe 60a8 10bf
00000320: b0b7 d5be 3334 1abf 5c98 89be 5e4e 0ebf
00000330: 5809 1bbf c309 d1be 0e9d febe bc18 1abf
00000340: 2a68 b2be e25b a7be 0ff7 20bf c7ee 11bf
00000350: c65a f0be 08de 06bf d6fb f1be 6417 21bf
00000360: 50af 0abf 83ca f2be f635 e9be 7749 92be
00000370: 4a91 1bbf 9167 7dbe 43d2 f6be 837d 12bf
00000380: a2e7 2ebf ac07 0dbf b102 cbbe bd61 0abf
00000390: 5d42 e6be 0dcc e5be eadd 9cbe 586d 00bf
000003a0: 606c 23be fdab 1cbf afec 25bf 4d33 eabe
000003b0: 97da babe 639f e4be d539 febe fb1f e2be
000003c0: 1d8b 03bf 2ab6 28bf 1aa5 f3be b282 e9be
000003d0: 2587 40bf 6a4a f1be 85db e4be 3bc6 e5be
000003e0: 4063 b7be b629 dbbe c516 01bf 933c e3be
000003f0: b431 17bf f8a3 d8be 28b2 fbbe 3f6b 11bf

running_mean f4 [256]
-0.11033824 0.15390019 0.09047331 -0.042200707 -0.028268378 0.01726052 -0.085104465 -0.055284712
0.112964064 -0.055753514 0.003922873 -0.018575687 -0.0343889 -0.023463864 0.011324718 0.12166602
-0.10611853 -0.076034844 0.14948481 -0.13351026 0.11331509 0.043522954 -0.0750834 0.10775576
-0.17199324 0.09430823 -0.046063516 -0.13963158 -0.11759772 0.03793459 0.16330564 -0.13660906
0.008547031 0.09549628 0.04753062 -0.12853368 -0.12256665 -0.065494955 0.05436749 0.089571
-0.068424664 -0.12438775 -0.13786773 -0.08607046 -0.072948635 -0.004196652 -0.101823024 0.04097953
-0.027281286 0.033977557 -0.11982467 -0.052733533 0.022499152 -0.100974016 0.0689394 0.11079852
0.12328227 0.109215565 0.054906517 -0.03458768 0.15476142 0.15612578 0.04919448 -0.028564438
0.049278624 -0.01079965 -0.05474655 0.100355126 0.0034747222 0.14304821 0.025432605 0.050859936
0.022349708 0.012389103 -0.00820575 -0.04593532 -0.11097155 -0.1125794 0.14132218 -0.13144982
0.05947502 -0.119142905 0.14369543 0.1448354 0.122169346 0.09345929 -0.032839887 0.04979861
0.051308725 0.06499186 0.14161216 0.17406565 -0.047328442 -0.05158039 0.09943604 0.0075730765
0.010621482 0.10616896 -0.12724358 0.053213764 0.08844186 0.037519302 -0.1027479 -0.1160389
0.1026873 0.09656717 0.0036988258 0.06720668 0.083063886 -0.160362 -0.028397135 0.08695626
-0.11736251 0.0037930533 0.11057092 0.04266864 -0.09198157 0.13510558 0.053252917 -0.121504985
-0.116908036 -0.0731004 -0.029070856 0.13070346 -0.020663563 0.03549152 0.0074324887 -0.040134873
0.048323072 -0.09411657 0.061382808 0.064050585 -0.13570668 0.1999573 0.12438637 0.04061534
0.12179355 0.13202862 0.03925648 -0.10177163 -0.11681989 -0.07160398 -0.021983469 0.06141669
-0.11917813 0.036373306 0.084987074 0.124728754 -0.06430245 0.026683299 0.119454846 -0.04542521
0.04388163 0.113782324 0.02947115 0.021829212 -0.095334314 -0.12638399 0.14921072 -0.015294599
-0.042773396 -0.098678574 0.09258428 0.1256549 0.13449349 0.030763125 -0.11329215 0.063183084
-0.12979037 0.0028328297 -0.1565342 0.11955723 0.054137394 -0.11311851 -0.11039103 -0.08681836
0.11239558 -0.12804765 -0.0054906476 0.034275334 0.06784329 -0.10024056 0.06020711 -0.05075617
-0.10703916 -0.16969404 -0.023389725 -0.07386858 0.07769128 0.032873288 0.123783685 0.07128712
0.087061815 -0.10861047 0.017948449 -0.058902156 -0.0773164 -0.088606134 -0.05131205 -0.10791336
-0.05059857 0.010480723 -0.059563182 -0.023840105 -0.06157452 -0.06196175 -0.1255913 -0.09317325
0.009317515 0.1223388 0.102544084 0.009798543 0.06774367 0.084055535 0.1490631 -0.17301829
0.16564643 -0.07589553 0.07306532 0.14500715 0.10643379 -0.084406294 -0.039110355 -0.01911763
-0.15525822 -0.029107798 0.09179854 -0.11302303 -0.010495075 0.15183006 0.069553964 -0.054488637
0.17458932 0.008030934 0.016005665 0.044661302 -0.16369238 0.08608109 0.027427752 -0.13477527
0.12299974 -0.1204001 0.051275074 -0.039955173 0.1006641 -0.0502369 0.076725245 -0.12728877
-0.053761546 -0.11505487 -0.07911032 -0.13262683 -0.10257816 -0.1381726 -0.10545216 0.122679405
00000000: 04f9 e1bd 0398 1d3e 124a b93d a6da 2cbd
00000010: 1693 e7bc ef65 8d3c 404b aebd 3972 62bd
00000020: b459 e73d cc5d 64bd 728b 803b 0a2c 98bc
00000030: 60db 0cbd 4a37 c0bc 4f8b 393c 092c f93d
00000040: ac54 d9bd 28b8 9bbd 8c12 193e eab6 08be
00000050: be11 e83d 2045 323d 53c5 99bd 0daf dc3d
00000060: ff1e 30be ac24 c13d 19ad 3cbd 95fb 0ebe
00000070: 13d7 f0bd 4d61 1b3d 9839 273e 3fe3 0bbe
00000080: d908 0c3c 8e93 c33d 78af 423d 559e 03be
00000090: 3904 fbbd 3822 86bd 72b0 5e3d 0071 b73d
000000a0: 3b22 8cbd 01bf febd 332d 0dbe b645 b0bd
000000b0: 1866 95bd 1284 89bb 9788 d0bd 27da 273d
000000c0: 017d dfbc 0d2c 0b3d a366 f5bd 1eff 57bd
000000d0: 2450 b83c 77cb cebd 1a30 8d3d 56ea e23d
000000e0: 6a7b fc3d 69ac df3d a8e5 603d d0ab 0dbd
000000f0: c779 1e3e 70df 1f3e 2780 493d f8ff e9bc
00000100: 62d8 493d 04f1 30bc eb3d 60bd fd86 cd3d
00000110: 2ab8 633b 3b7b 123e 0a58 d03c 8252 503d
00000120: bc16 b73c aafb 4a3c 6971 06bc ad26 3cbd
00000130: 0d45 e3bd 0790 e6bd c3b6 103e c89a 06be
00000140: 149c 733d 3201 f4bd e524 133e bb4f 143e
00000150: ec33 fa3d 9667 bf3d 1e83 06bd a1f9 4b3d
00000160: 1929 523d 741a 853d c702 113e 443e 323e
00000170: 78db 41bd f645 53bd 1fa5 cb3d 9227 f83b
00000180: b905 2e3c 1d6f d93d 244c 02be adf6 593d
00000190: 0221 b53d d7ad 193d 7e6d d2bd cea5 edbd
000001a0: b84d d23d 02c5 c53d 0068 723b a8a3 893d
000001b0: 661d aa3d f035 24be 1ca1 e8bc 2016 b23d
000001c0: c15b f0bd e094 783b 0273 e23d 50c5 2e3d
000001d0: d560 bcbd 1e59 0a3e bb1f 5a3d 9bd7 f8bd
000001e0: 7b6d efbd aab5 95bd 0126 eebc 21d7 053e
000001f0: a246 a9bc 8e5f 113d 3c8c f33b 7764 24bd
00000200: 6aee 453d 30c0 c0bd 8a6c 7b3d f42c 833d
00000210: b1f6 0abe 9bc1 4c3e 48be fe3d 455c 263d
00000220: e66e f93d 8332 073e 67cb 203d a56d d0bd
00000230: 443f efbd 1ca5 92bd ad16 b4bc 1190 7b3d
00000240: aa13 f4bd 2dfc 143d b40d ae3d ca71 ff3d
00000250: 01b1 83bd ef96 da3c bea4 f43d c90f 3abd
00000260: 39bd 333d b506 e93d 7b6d f13c 2dd3 b23c
00000270: a33e c3bd ce6a 01be b2ca 183e 3396 7abc
00000280: 2833 2fbd fe17 cabd d49c bd3d aeab 003e
00000290: a9b8 093e f302 fc3c b705 e8bd 2266 813d
000002a0: c4e7 04be ffa6 393b 804a 20be 6cda f43d
000002b0: 2cbf 5d3d adaa e7bd b114 e2bd d3cd b1bd
000002c0: a72f e63d ec1e 03be e4ea b3bb 4b64 0c3d
000002d0: 6cf1 8a3d ec4a cdbd bb9b 763d b4e5 4fbd
000002e0: 5937 dbbd 46c4 2dbe cf9b bfbc 6948 97bd
000002f0: 9b1c 9f3d 24a6 063d 4d82 fd3d fbfe 913d
00000300: 774d b23d 2b6f debd a008 933c 6343 71bd
00000310: 1058 9ebd 2277 b5bd 962c 52bd ae01 ddbd
00000320: 7240 4fbd 57b7 2b3c 86f8 73bd 534c c3bc
00000330: 9035 7cbd 9bcb 7dbd 019b 00be 9ed1 bebd
00000340: 7ea8 183c c48c fa3d a202 d23d 118a 203c
00000350: 31bd 8a3d 4f25 ac3d ffa3 183e b52b 31be
00000360: 389f 293e 1e6f 9bbd 45a3 953d c17c 143e
00000370: f5f9 d93d 35dd acbd 2e32 20bd 939c 9cbc
00000380: 03fc 1ebe 7a73 eebc df00 bc3d 9e78 e7bd
00000390: 89f3 2bbc 5779 1b3e 4f72 8e3d 7a2f 5fbd
000003a0: 8bc7 323e 2e94 033c 501e 833c c5ee 363d
000003b0: fa9e 27be 484b b03d 2ab0 e03c 8702 0abe
000003c0: 4ae7 fb3d 5494 f6bd d005 523d 09a8 23bd
000003d0: fb28 ce3d 35c5 4dbd 2022 9d3d fd57 02be
000003e0: 1135 5cbd e3a1 ebbd 9704 a2bd 54cf 07be
000003f0: 8014 d2bd 1e7d 0dbe 4df7 d7bd 573f fb3d

running_var f4 [256]
8.966006 0.12588118 1.4932799 0.2640235 0.37204987 0.50916064 0.43510255 0.35878232
1.3157862 0.46246773 0.95429146 0.45165506 4.6802363 0.42625043 1.4670187 0.39287272
0.7286215 0.27818272 0.5931403 0.57726467 0.51985896 0.39588663 0.7441177 0.6925488
0.20438018 0.5383691 0.5717267 0.3669011 0.14590527 0.4145423 0.55370253 0.87952226
0.257529 0.29375967 0.5377618 2.392719 1.0124328 0.37463093 0.9376573 0.4832823
1.1354938 0.3223867 0.387415 0.24129243 0.8131293 0.8983541 1.1811432 3.9063144
0.3692024 0.9473266 0.20175356 1.7658077 1.2807951 0.47318769 1.3752997 0.5904238
0.36445296 0.3852265 0.58475465 2.3901277 0.2150063 0.70707494 3.3869839 0.33426005
3.5078433 0.19760677 0.31621817 0.8151081 0.75827485 1.5320531 0.27314907 0.44432732
0.47991458 2.1294956 0.36681795 1.1848447 0.3762188 0.3476638 0.26572588 0.55632406
0.25258654 4.69637 0.6767449 0.24980658 0.21355726 0.25445378 0.53850913 0.21145
0.64287084 0.4488999 0.42860752 0.377931 0.6839367 4.92837 4.7652354 7.063128
0.23479 0.43362367 0.87802005 0.88194984 0.38776654 0.44573593 1.5000074 0.32545626
0.3095164 4.1049786 0.3229673 0.4327983 6.253768 0.3972398 0.26882598 0.543946
0.71190846 10.114232 0.32288796 0.15899424 2.1576238 0.3753384 0.58562136 1.4866803
0.9944482 0.9053952 0.66651154 0.4079359 0.41359755 0.7919944 0.30555445 0.2499129
0.43866563 0.66807795 0.6814949 0.8661242 1.5199615 0.4424079 0.69446415 0.7806153
0.2593238 0.4989983 0.28438282 5.470918 0.7173338 0.83357596 0.18419157 0.52120364
0.58115613 1.0450908 0.6631244 0.93726707 1.3927405 0.30175096 0.654472 0.4462837
0.9017284 0.19479336 0.34886762 0.30744666 1.0908111 2.1922798 0.5369279 0.12478999
0.9980036 0.36691287 4.9553285 0.54183674 0.37522262 0.37843138 0.54560155 0.80737454
0.24004795 0.5031059 0.2790133 0.09269105 0.1884665 0.54055303 0.48776522 0.26996857
0.8370965 0.12995577 0.7238003 1.0612807 0.16338208 0.62774855 0.13412854 0.39935935
0.4447229 0.46524036 0.22871917 0.2873862 0.398331 0.25715065 0.21964324 0.17472547
0.15768541 0.4755456 0.5510794 1.3597754 0.24211147 0.14379205 0.3377406 0.23033345
0.27314478 0.48743743 1.1893033 1.3065304 0.26938394 0.8169304 0.69689274 0.7894954
0.99941635 0.85495204 1.1464726 0.19239354 3.2812912 0.3158937 0.8778431 0.7787526
0.36549816 1.2410249 0.6675468 0.65219766 0.45931035 1.5690416 0.58703583 0.23766059
0.51807374 0.79104644 5.0053473 0.4089639 0.2346783 0.18697037 0.55492574 0.55736715
1.0083379 0.24002993 0.2532767 1.2138647 1.0541312 1.3659735 0.92042255 0.7951389
0.72050893 0.9652791 0.13996881 0.42479086 0.2740872 0.09712101 0.18864222 6.7733173
6.1022677 0.47148237 1.200191 0.44175807 0.38070047 1.4221469 0.42438844 0.31618884
00000000: c374 0f41 ffe6 003e cc23 bf3f 172e 873e
00000010: 527d be3e 5a58 023f c3c5 de3e 51b2 b73e
00000020: af6b a83f 92c8 ec3e 724c 743f 553f e73e
00000030: 7fc4 9540 7f3d da3e 45c7 bb3f 9d26 c93e
00000040: f086 3a3f f76d 8e3e 0bd8 173f 9ec7 133f
00000050: 7a15 053f a7b1 ca3e 7f7e 3e3f e14a 313f
00000060: 0a49 513e 8fd2 093f ae5c 123f 76da bb3e
00000070: 3168 153e e33e d43e 73bf 0d3f 5f28 613f
00000080: d7da 833e ab67 963e c2aa 093f 4f22 1940
00000090: 6697 813f a0cf bf3e 4f0a 703f c770 f73e
000000a0: dc57 913f df0f a53e 425b c63e 5d15 773e
000000b0: 3e29 503f 89fa 653f b32f 973f 0e01 7a40
000000c0: 1908 bd3e ff83 723f 7c98 4e3e fd05 e23f
000000d0: 18f1 a33f a845 f23e d209 b03f 0426 173f
000000e0: 9499 ba3e 683c c53e 7bb2 153f daf7 1840
000000f0: 9d2a 5c3e dd02 353f 58c4 5840 2224 ab3e
00000100: 8180 6040 6e59 4a3e 59e7 a13e edaa 503f
00000110: 4d1e 423f 511a c43f 32da 8b3e df7e e33e
00000120: 5db7 f53e a849 0840 90cf bb3e fea8 973f
00000130: c09f c03e fd00 b23e 390d 883e 416b 0e3f
00000140: 0653 813e aa48 9640 273f 2d3f 4ccd 7f3e
00000150: c1ae 5a3e c447 823e bcdb 093f 5986 583e
00000160: 2f93 243f 35d6 e53e 7272 db3e 2c80 c13e
00000170: 7a16 2f3f 35b5 9d40 cf7c 9840 2505 e240
00000180: ca6c 703e ec03 de3e ecc5 603f 77c7 613f
00000190: 5689 c63e 8037 e43e 3e00 c03f 34a2 a63e
000001a0: ef78 9e3e fc5b 8340 f85b a53e bd97 dd3e
000001b0: de1e c840 0463 cb3e 8fa3 893e 0c40 0b3f
000001c0: a23f 363f e5d3 2141 9251 a53e 63cf 223e
000001d0: 8216 0a40 5b2c c03e 48eb 153f 8a4b be3f
000001e0: 2894 7e3f fbc7 673f 80a0 2a3f f9dc d03e
000001f0: 0fc3 d33e 25c0 4a3f a271 9c3e 2be9 7f3e
00000200: c898 e03e 2807 2b3f 7376 2e3f 51ba 5d3f
00000210: 198e c23f 4a83 e23e 67c8 313f 68d6 473f
00000220: 17c6 843e b57c ff3e a09a 913e c311 af40
00000230: 30a3 373f 3c65 553f b79c 3c3e 9a6d 053f
00000240: a6c6 143f 89c5 853f 85c2 293f bcf0 6f3f
00000250: 5245 b23f 1a7f 9a3e 7a8b 273f 4c7f e43e
00000260: acd7 663f e977 473e c79e b23e a669 9d3e
00000270: b39f 8b3f 504e 0c40 1b74 093f e591 ff3d
00000280: 2a7d 7f3f 01dc bb3e 0d92 9e40 d0b5 0a3f
00000290: 2e1d c03e c2c1 c13e 8bac 0b3f 19b0 4e3f
000002a0: 21cf 753e 8ccb 003f d5da 8e3e ced4 bd3d
000002b0: 5dfd 403e af61 0a3f 5dbc f93e 5239 8a3e
000002c0: f54b 563f 2013 053e fa4a 393f 0cd8 873f
000002d0: a24d 273e 21b4 203f fe58 093e d478 cc3e
000002e0: b8b2 e33e fc33 ee3e 5c35 6a3e 4924 933e
000002f0: 0af2 cb3e 40a9 833e 28ea 603e 3ceb 323e
00000300: 4978 213e b67a f33e 8a13 0d3f 1f0d ae3f
00000310: 12ec 773e 393e 133e 56ec ac3e 88dc 6b3e
00000320: a2d9 8b3e 6691 f93e 173b 983f 633c a73f
00000330: b1ec 893e 5a22 513f 9067 323f 5f1c 4a3f
00000340: c0d9 7f3f 23de 5a3f 9dbf 923f d002 453e
00000350: ad00 5240 d2bc a13e 53ba 603f 555c 473f
00000360: 9322 bb3e e7d9 9e3f 59e4 2a3f 6df6 263f
00000370: ba2a eb3e 5bd6 c83f fb47 163f 4c5d 733e
00000380: 7ba0 043f 0582 4a3f ce2b a040 b763 d13e
00000390: 824f 703e 2975 3f3e 9d0f 0e3f 9daf 0e3f
000003a0: 3711 813f 68ca 753e 7cad 813e eb5f 9b3f
000003b0: c5ed 863f 38d8 ae3f d0a0 6b3f 398e 4b3f
000003c0: 4673 383f 881c 773f fc53 0f3e 307e d93e
000003d0: 2855 8c3e 61e7 c63d 6d2b 413e 04bf d840
000003e0: c745 c340 2366 f13e dc9f 993f 1d2e e23e
000003f0: 2ceb c23e e908 b63f 7149 d93e 81e3 a13e

weight f4 [128, 256]
-0.044744752 -0.27583915 0.0059113796 -0.14894478 -0.020165224 -0.0132896425 -0.22037323 0.001416944
0.02816058 0.009072635 0.102541074 -0.3212426 0.06340404 -0.14046718 -0.046716593 0.0141173
-0.09703299 0.14966448 -0.015686266 0.19787796 -0.18344755 0.0015349417 -0.0052515753 0.07656799
0.04421343 0.34314832 -0.16904624 -0.013410396 -0.26078498 0.06427128 -0.37253025 -0.39195642
-0.21380143 -0.22988181 -0.056269657 0.06568613 -0.15251435 0.1117222 -0.21189228 -0.38791865
-0.03576321 -0.014176106 0.09078547 -0.17463134 0.088041246 -0.44957072 0.045353208 -0.08141918
0.016018383 0.0348419 0.0067612818 -0.14380819 -0.07772118 0.08638057 -0.020943332 0.12036368
-0.06662166 0.10671316 0.08229151 -0.05649383 -0.11052075 -0.32951346 -0.14755972 -0.17836729
0.09293894 -0.31432202 -0.20569853 0.0036755814 -0.027095435 0.08521733 0.04276257 0.055503514
-0.16733162 -0.19243896 0.17009127 -0.06801456 0.06476035 -0.30904794 -0.00015136597 0.011080028
-0.28138372 -0.07553562 -0.10796492 -0.10101009 -0.3229484 0.15554997 -0.24623021 0.06499396
-0.027173616 0.08581467 -0.036747012 -0.07310598 0.20885761 -0.010059795 -0.08252269 0.023676554
-0.05349105 0.101245895 -0.1505071 0.087839246 -0.37876776 -0.09555485 0.02781814 0.025199343
-0.10632618 0.018313276 0.064548425 0.002517902 -0.0031546294 0.043744396 -0.15852414 0.1729656
0.108657345 -0.12269282 0.10716258 -0.028934227 -0.37536064 0.06484585 -0.013784652 -0.27708653
-0.23239817 -0.10685636 -0.30306187 0.019110518 -0.3797385 -0.058497448 -0.69428545 -0.07820168
0.1967631 -0.020756645 -0.15842746 -0.17477235 -0.09027879 -0.10487514 0.23147312 0.009932598
-0.015785601 0.015375582 -0.055499244 0.034875028 0.13330227 0.18412864 -0.10516912 -0.019332455
0.008638616 -0.35168174 0.13681953 0.24458146 0.056952413 -0.06915305 0.078567855 -0.47036916
0.13078812 -0.092527166 -0.1310983 -0.24787863 -0.14357986 -0.08544381 -0.13950479 -0.06646486
0.18378237 0.21632454 0.043188073 -0.22105083 0.034524146 0.02407068 -0.29412174 0.022090347
-0.2501344 -0.011095985 0.34373742 0.14212942 -0.10587819 0.013301507 0.15441577 0.07216147
0.029679034 0.0624093 -0.18220757 -0.045931805 0.09381916 -0.09781612 0.3002563 0.024379132
-0.031582464 -0.031811833 0.099041305 -0.05522813 -0.054709602 0.04971748 -0.028792555 0.0059437496
-0.0699443 0.063759506 -0.12709393 0.057016388 0.15071587 -0.07019205 -0.06893487 0.013846167
-0.235371 -0.03495835 0.016951092 0.04229532 0.114146374 -0.13163994 -0.02634789 -0.0727513
-0.11499679 0.010202508 -0.011805165 -0.05303955 0.11142267 0.0030000377 0.14947335 0.00034851726
0.11977956 -0.118630424 0.008334798 -0.2525506 0.22090499 -0.010387043 -0.018691374 -0.5380535
0.07308501 -0.12195543 -0.043107267 0.07929918 -0.42142496 0.039578833 -0.25134334 0.0827918
0.0044927616 0.13696884 -0.2604776 -0.038786408 0.087435864 0.034188215 -0.069747046 -0.031936467
0.17454886 -0.07651905 -0.24100277 0.03345368 -0.12713581 0.039236832 -0.073060825 -0.012202528
0.024523027 0.10387006 0.003610953 -0.00021133374 -0.05668219 0.050376773 -0.011310803 0.32437745
00000000: 4646 37bd ca3a 8dbe 3fb4 c13b fb84 18be
00000010: 8a31 a5bc cdbc 59bc 85a9 61be c0b8 b93a
00000020: 04b1 e63c 64a5 143c 0e01 d23d e979 a4be
00000030: fad9 813d a1d6 0fbe e659 3fbd 3f4c 673c
00000040: 3bb9 c6bd a541 193e 7c80 80bc 85a0 4a3e
00000050: add9 3bbe 1930 c93a 6815 acbb aecf 9c3d
00000060: 2419 353d 23b1 af3e 751a 2dbe 47b7 5bbc
00000070: 9c85 85be a9a0 833d 49bc bebe 83ae c8be
00000080: c3ee 5abe 2366 6bbe 037b 66bd 7386 863d
00000090: b92c 1cbe 9cce e43d 4afa 58be 469d c6be
000000a0: 727c 12bd e642 68bc bced b93d 8fd2 32be
000000b0: f84e b43d 222e e6be 49c4 393d 19bf a6bd
000000c0: fc38 833c 61b6 0e3d be8d dd3b 7442 13be
000000d0: 482c 9fbd 4ce8 b03d 5a91 abbc 3c81 f63d
000000e0: f070 88bd 6e8c da3d 7488 a83d 1366 67bd
000000f0: b458 e2bd fdb5 a8be e519 17be eaa5 36be
00000100: c556 be3d d1ee a0be a3a2 52be 06e2 703b
00000110: 3ff7 ddbc 6c86 ae3d ce27 2f3d a757 633d
00000120: fb58 2bbe b80e 45be 682c 2e3e 384b 8bbd
00000130: 13a1 843d 883b 9ebe feb7 1eb9 0189 353c
00000140: 8711 90be 6bb2 9abd b61c ddbd 61de cebd
00000150: 7e59 a5be 7e48 1f3e c623 7cbe 8e1b 853d
00000160: 349b debc 9abf af3d 0984 16bd 97b8 95bd
00000170: c5de 553e d7d1 24bc a801 a9bd 55f5 c13c
00000180: 6e19 5bbd 025a cf3d 891e 1abe 10e5 b33d
00000190: d9ed c1be 43b2 c3bd dee2 e33c da6e ce3c
000001a0: 8ac1 d9bd b905 963c f731 843d 6303 253b
000001b0: e6bd 4ebb 532d 333d 2754 22be e51d 313e
000001c0: be87 de3d 6046 fbbd 0e78 db3d 7907 edbc
000001d0: 452f c0be e7cd 843d 05d9 61bc 49de 8dbe
000001e0: c9f9 6dbe 82d7 dabd ed2a 9bbe a98d 9c3c
000001f0: 166d c2be 059b 6fbd b1bc 31bf 3428 a0bd
00000200: 447c 493e d709 aabc cf3a 22be 86f7 32be
00000210: 16e4 b8bd c7c8 d6bd 4a07 6d3e 56bc 223c
00000220: ce50 81bc dde9 7b3c 2d53 63bd 1ed9 0e3d
00000230: 6480 083e 388c 3c3e e862 d7bd 195f 9ebc
00000240: fb88 0d3c a10f b4be 6b1a 0c3e 9073 7a3e
00000250: ef46 693d 1da0 8dbd 2fe8 a03d 3ad4 f0be
00000260: 52ed 053e e27e bdbd a23e 06be e5d3 7dbe
00000270: 9906 13be 2afd aebd 58da 0ebe bb1e 88bd
00000280: 7231 3c3e 2e84 5d3e fae5 303d 265b 62be
00000290: 3169 0d3d e02f c53c 2097 96be d1f6 b43c
000002a0: 9e11 80be efcb 35bc 5afe af3e 608a 113e
000002b0: aad6 d8bd 90ee 593c 2b1f 1e3e 65c9 933d
000002c0: 7221 f33c e5a0 7f3d 9f94 3abe fd22 3cbd
000002d0: 4224 c03d d153 c8bd 32bb 993e bfb6 c73c
000002e0: 9d5c 01bd 204d 02bd 2bd6 ca3d e436 62bd
000002f0: 2d17 60bd 8ea4 4b3d 5dde ebbc c9c3 c23b
00000300: f53e 8fbd 5894 823d e924 02be 048a 693d
00000310: 4355 1a3e d9c0 8fbd ba2d 8dbd 09db 623c
00000320: 1805 71be 7d30 0fbd 04dd 8a3c dc3d 2d3d
00000330: 93c5 e93d 9fcc 06be 88d7 d7bc a2fe 94bd
00000340: 7083 ebbd 6c28 273c 736a 41bc 0040 59bd
00000350: 9231 e43d 489c 443b 8b0f 193e 32b9 b639
00000360: fc4e f53d 82f4 f2bd ad8e 083c 504e 81be
00000370: eb34 623e 6a2e 2abc a71e 99bc e0bd 09bf
00000380: 98ad 953d c5c3 f9bd 3f91 30bd 9c67 a23d
00000390: 03c5 d7be 6a1d 223d 13b0 80be bf8e a93d
000003a0: 0438 933b 8f41 0c3e 525d 85be 7fde 1ebd
000003b0: 9311 b33d f108 0c3d 8ad7 8ebd d0cf 02bd
000003c0: f0bc 323e 05b6 9cbd 6ec9 76be ba06 093d
000003d0: e42f 02be cdb6 203d eaa0 95bd 1ded 47bc
000003e0: 84e4 c83c d3b9 d43d bda5 6c3b 7899 5db9
000003f0: 962b 68bd e057 4e3d f250 39bc cd14 a63e

bias f4 [128]
0.025058996 0.022595532 -0.032723412 0.03104434 -0.025909392 -0.019917414 -0.04895764 -0.0131659405
0.027964268 0.052037425 0.047489777 0.017302517 -0.044953883 -0.031653896 0.059475534 0.059423823
-0.015220744 0.0042545847 -0.051915303 -0.03875781 -0.021284284 -0.034184966 0.040546384 0.042264074
0.024376651 0.030903114 0.01422227 0.025331793 0.02584388 0.013979827 -0.023779219 0.030064836
-0.001680169 0.05096186 0.051469762 -0.053405114 -0.017258639 0.071094066 -0.04975519 -0.021766951
0.024665847 0.034306485 -0.040467657 -0.039052162 -0.024442866 -0.057312798 0.011898452 0.006279746
-0.059945848 -0.021000963 -0.02592503 0.03786243 -0.014308021 0.0024950206 0.03020563 -0.015476705
-0.037258316 -0.030809652 -0.048931625 0.05052057 -0.04438558 -0.014824423 0.055464186 -0.030002043
-0.031501226 -0.046329368 -0.008666839 0.060266368 0.030833213 -0.066012345 -0.00094236375 -0.037860043
0.012620092 0.04621302 -0.06334276 -0.04790779 -0.022089714 -0.066488005 0.036235597 0.039207492
0.038107898 0.009996087 -0.0025697872 0.018779036 -0.034792412 0.041574016 -0.036588002 0.018286329
0.0525946 0.017446406 0.045770526 0.054644704 -0.005865865 0.04334819 -0.0027337922 0.02854469
-0.026526393 0.048845164 0.04931296 -0.054368537 0.017564489 0.018454717 -0.041634694 0.012502646
-0.027275326 0.04232239 -0.046313617 0.034589395 -0.036565326 0.07404018 0.045026768 -0.030898418
-0.0101540685 0.028243765 0.009252047 0.024460994 0.039662015 0.03345517 0.06265624 0.022623038
0.039880984 0.017815782 0.049380317 0.049991097 -0.01862589 0.046526067 0.042413857 -0.04308277
00000000: 8648 cd3c 441a b93c fc08 06bd b350 fe3c
00000010: ef3f d4bc d829 a3bc ce87 48bd f5b5 57bc
00000020: 5215 e53c 3225 553d a484 423d 02be 8d3c
00000030: 9021 38bd 84a7 01bd 9e9c 733d 6566 733d
00000040: 6d60 79bc 0b6a 8b3b 24a5 54bd 82c0 1ebd
00000050: 615c aebc 8905 0cbd f713 263d 181d 2d3d
00000060: 8bb1 c73c 8728 fd3c 8604 693c 9f84 cf3c
00000070: 8bb6 d33c a50b 653c a3cc c2bc 884a f63c
00000080: 1e39 dcba 62bd 503d f5d1 523d 52bf 5abd
00000090: fd61 8dbc c499 913d 19cc 4bbd 9b50 b2bc
000000a0: 0810 ca3c f584 0c3d 6ac1 25bd 29f5 1fbd
000000b0: 683c c8bc d3c0 6abd baf1 423c 54c6 cd3b
000000c0: c789 75bd 360a acbc ba60 d4bc a315 1b3d
000000d0: 316c 6abc 8083 233b cc71 f73c 0192 7dbc
000000e0: 2d9c 18bd 8664 fcbc 876c 48bd a8ee 4e3d
000000f0: a7cd 35bd 23e2 72bc 6a2e 633d d8c6 f5bc
00000100: 6e07 01bd ddc3 3dbd 5cff 0dbc ded9 763d
00000110: ef95 fc3c 7b31 87bd f608 77ba 2213 1bbd
00000120: 81c4 4e3c dd49 3d3d d9b9 81bd f53a 44bd
00000130: 7df5 b4bc dd2a 88bd c76b 143d 0998 203d
00000140: 0717 1c3d a1c6 233c e069 28bb 7ed6 993c
00000150: 7d82 0ebd 8449 2a3d 4ddd 15bd 36cd 953c
00000160: 6f6d 573d c4eb 8e3c e079 3b3d 20d3 5f3d
00000170: 7136 c0bb df8d 313d 6c29 33bb 8ed6 e93c
00000180: e14d d9bc de11 483d 63fc 493d 8bb1 5ebd
00000190: 67e3 8f3c 592e 973c 2489 2abd e6d7 4c3c
000001a0: 8170 dfbc 3e5a 2d3d 59b3 3dbd 9cad 0d3d
000001b0: 86c5 15bd 61a2 973d fd6d 383d ae1e fdbc
000001c0: 405d 26bc 785f e73c e695 173c 6c62 c83c
000001d0: a374 223d 4a08 093d ea51 803d f353 b93c
000001e0: 3e5a 233d 67f2 913c 0443 4a3d 77c3 4c3d
000001f0: 5395 98bc 1e92 3e3d 27ba 2d3d 8f77 30bd

weight f4 [128]
1.4412605 1.2949146 1.4135697 1.3804426 1.359433 1.3993024 1.4601928 1.447525
1.2721682 1.4398593 1.4132996 1.3714795 1.4536383 1.3880744 1.3941437 1.4936415
1.2499554 1.565308 1.4369837 1.6488446 1.6164544 1.3986511 1.3644043 1.3151929
1.4207822 1.1577072 1.3640153 1.420998 1.3703312 1.3342004 1.559371 1.4270287
1.4790648 1.4339135 1.3684305 1.3836068 1.2133001 1.364589 1.3425357 1.4670987
1.4934082 1.4588039 1.3982202 1.3993081 1.5043849 1.3884766 1.4142772 1.5656757
1.5429977 1.3320789 1.4350418 1.4680763 1.3780631 1.3576988 1.425539 1.334665
1.4619185 1.4009417 1.4074543 1.3855879 1.2776769 1.3145345 1.4246068 1.3252184
1.4495623 1.37188 1.4309715 1.5050186 1.3354634 1.3571713 1.5251899 1.2659594
1.5126599 1.3284872 1.2991477 1.3329076 1.3838587 1.4349787 1.3682779 1.2832757
1.2855965 1.4443744 1.3855342 1.4418892 1.3366379 1.4677371 1.2671419 1.2830912
1.3530828 1.3646724 1.2906029 1.3287916 1.3357928 1.2972331 1.4883217 1.3059758
1.450282 1.4682409 1.540486 1.3623283 1.2195802 1.324444 1.2860438 1.4215493
1.307144 1.4986748 1.573145 1.3468543 1.4922351 1.4989144 1.5525383 1.6097418
1.4150828 1.4239372 1.312367 1.4575607 1.3921294 1.488944 1.3704528 1.4679414
1.4097884 1.5781683 1.5232472 1.3282758 1.4376117 1.496723 1.3255914 1.3801445
00000000: 397b b83f c3bf a53f daef b43f 58b2 b03f
00000010: e701 ae3f 571c b33f 99e7 ba3f 8048 b93f
00000020: 68d6 a23f 4f4d b83f 00e7 b43f a48c af3f
00000030: d210 ba3f 6cac b13f 4d73 b23f a52f bf3f
00000040: 8afe 9f3f 035c c83f 15ef b73f 570d d33f
00000050: fae7 ce3f 0007 b33f cda4 ae3f 3e58 a83f
00000060: 31dc b53f c02f 943f 0e98 ae3f 43e3 b53f
00000070: 0367 af3f 14c7 aa3f 7899 c73f e0a8 b63f
00000080: ff51 bd3f 7a8a b73f bb28 af3f 071a b13f
00000090: 6b4d 9b3f daaa ae3f 36d8 ab3f e4c9 bb3f
000000a0: 0028 bf3f 16ba ba3f e1f8 b23f 871c b33f
000000b0: af8f c03f 9ab9 b13f 0907 b53f 1068 c83f
000000c0: f380 c53f 9081 aa3f 73af b73f ede9 bb3f
000000d0: 5f64 b03f 13c9 ad3f 1078 b63f 4dd6 aa3f
000000e0: 2520 bb3f 0f52 b33f 7627 b43f f25a b13f
000000f0: eb8a a33f ab42 a83f 8459 b63f c2a0 a93f
00000100: 428b b93f c499 af3f 132a b73f 73a4 c03f
00000110: 77f0 aa3f cab7 ad3f 6c39 c33f f50a a23f
00000120: d79e c13f de0b aa3f 794a a63f b79c aa3f
00000130: 4822 b13f 62ad b73f bb23 af3f 6142 a43f
00000140: 6d8e a43f 43e1 b83f 2f59 b13f d38f b83f
00000150: f316 ab3f cfde bb3f b531 a23f 553c a43f
00000160: d131 ad3f 96ad ae3f 7a32 a53f d815 aa3f
00000170: 42fb aa3f bc0b a63f 5381 be3f 372a a73f
00000180: d7a2 b93f 51ef bb3f a52e c53f c660 ae3f
00000190: 341b 9c3f 6287 a93f 159d a43f 54f5 b53f
000001a0: 7f50 a73f 93d4 bf3f d15c c93f b965 ac3f
000001b0: 8f01 bf3f 6ddc bf3f 93b9 c63f 050c ce3f
000001c0: 6f21 b53f 9343 b63f a4fb a73f 5991 ba3f
000001d0: 4c31 b23f b895 be3f ff6a af3f 81e5 bb3f
000001e0: f273 b43f 6b01 ca3f c4f9 c23f f104 aa3f
000001f0: a903 b83f 9f94 bf3f fbac a93f 93a8 b03f
